dql_2048.pth (torch, 202322 bytes, 6 tensors)

0.weight f4 [128, 256]
000000 28 d9 a5 3c ba 98 7b bd 10 ac b5 3c dc 74 27 bd
       0.02024515 -0.06142495 0.022176772 -0.04088293
000010 5a cc 0f 3d 30 16 e5 3c 1e f0 13 bd d0 37 95 3c
       0.035106994 0.027964681 -0.036117665 0.01821509
000020 d8 2e 5d bd b8 13 2e bd 4e a2 61 3d 54 86 3b bd
       -0.05399975 -0.042499274 0.055086426 -0.045782402
000030 96 5d 11 bd 70 17 f7 bc 98 82 75 3d 98 6d 10 bc
       -0.03548964 -0.030162543 0.059938997 -0.008815192
000040 68 a6 69 bc c8 4f 7c bd 00 e7 1f 3b fa 82 5d 3d
       -0.014260866 -0.061599523 0.0024399161 0.054079987
000050 9e 66 3f 3d 9e d0 36 3d 54 94 84 3c 26 c5 3b bd
       0.046728723 0.044632547 0.01618401 -0.045842312
000060 5c 23 c1 bc 44 d6 10 bd 20 3c 1f 3c 04 ce 24 bd
       -0.023576431 -0.03536059 0.009718925 -0.040235534
000070 d6 a3 07 bd 0c 6c 36 3d 3e 70 4a 3d 30 11 80 3c
       -0.03311523 0.044536635 0.04942345 0.015633196
000080 dc 01 0d bd 60 8c 75 bb 0e be 2c bd b4 c4 c0 3c
       -0.0344256 -0.0037467703 -0.042173438 0.023531295
000090 fe 7a 5d bd 6c b0 46 bd 2a 3f 37 bd 6c f4 55 bd
       -0.054072373 -0.048508093 -0.044737972 -0.052235052
0000a0 8c dc 8f bc 34 a8 d4 bc 7a 2a 30 bd 00 05 41 3a
       -0.01756122 -0.025959112 -0.04300926 0.0007363111
0000b0 42 5a 7e bd e0 38 74 bb 66 71 70 bd 60 9b 54 bb
       -0.062097795 -0.0037265345 -0.058701895 -0.0032441244
0000c0 00 66 e2 bc 34 33 d7 3c 8a 01 75 bd cc 12 70 bd
       -0.027636528 0.026269533 -0.05981592 -0.058611676
0000d0 a8 50 1f bd 60 69 70 3d 9a 0f 56 3d c0 11 7a 3d
       -0.03889528 0.058694243 0.052260973 0.061052084
0000e0 54 5c 06 bd 44 34 61 3d c0 cd a4 bc a0 9b 26 3d
       -0.032802895 0.054981485 -0.02011764 0.04067576
0000f0 02 08 5b bd 6c 52 25 bd 68 99 a5 bc 20 72 f7 bc
       -0.053474434 -0.040361807 -0.020214751 -0.030205786
000100 94 98 fd 3c 82 58 2c bd 9a d7 6a 3d b0 a7 de 3b
       0.030956544 -0.042076595 0.05733452 0.0067948923
000110 6e b1 55 3d 40 bf 7d 3b 54 cf 8c bc 00 97 4e 3a
       0.052171163 0.003871873 -0.017188706 0.0007880777
000120 44 aa 6c 3d 82 99 13 3d aa d4 6d bd a0 b2 ef bc
       0.057779565 0.03603507 -0.05806414 -0.02925998
000130 c4 d3 2e 3d 50 42 ab 3c 00 21 4c bc a8 7d 90 3c
       0.042682424 0.020905644 -0.01245904 0.017638043
000140 dc 2e 98 3c 66 15 12 bd ac 73 72 3d ba da 58 3d
       0.018577032 -0.03566494 0.059192345 0.05294297
000150 94 4b 3d 3d e6 30 1e bd 08 1b 59 3d a8 58 11 bd
       0.046214655 -0.038620852 0.053004295 -0.03548494
000160 e4 24 4e 3d 08 da 84 3c f0 d7 79 bc 98 5c 58 bc
       0.05032815 0.016217247 -0.015249237 -0.01320567
000170 0c 85 63 3d c0 d6 0b 3c 24 12 54 3d b8 db b2 bc
       0.055546805 0.008535087 0.051775113 -0.021833286
000180 c0 10 5d bb 80 93 95 3b ec f0 f0 3c 50 3e cf bc
       -0.0033731908 0.0045647025 0.029411756 -0.025298268
000190 40 65 30 3d d4 81 93 bc c8 97 0c bc 20 34 6b 3b
       0.04306531 -0.018006243 -0.008581109 0.0035889223
0001a0 1c ec 17 3d 86 e8 25 3d 40 89 05 bd d8 0c b6 bc
       0.037090406 0.040504955 -0.032601595 -0.022222921
0001b0 bc d4 eb bc a8 6a f8 3c f2 74 41 bd e8 6b 13 3c
       -0.028787963 0.030324295 -0.04723067 0.008997895
0001c0 40 bd 55 bc b8 96 29 bd 80 d9 cd 3c be 69 14 bd
       -0.013045609 -0.041403502 0.025128126 -0.036233656
0001d0 20 04 0a bb 3c 89 29 3d ac 31 c0 3c e0 5c 61 3d
       -0.0021059588 0.041390643 0.023461185 0.055020213
0001e0 b4 c8 33 3d 86 ee 6b 3d d0 68 17 3c 2a 91 26 3d
       0.043892577 0.05760052 0.009241298 0.040665783
0001f0 b8 10 09 3c 00 3a f8 3a 38 84 25 3c c0 20 50 3c
       0.0083658025 0.0018938184 0.010102324 0.012703121
000200 50 d9 44 bc 6e 64 47 3d d4 6c 24 3d c4 60 f0 3c
       -0.012014702 0.04867976 0.04014285 0.029343016
000210 a4 60 36 3d 10 80 26 bc 5c f5 99 bc 18 f1 4f 3d
       0.044525757 -0.010162368 -0.018793754 0.050767034
000220 a4 ca c5 3c 3a 63 7a 3d 34 41 fb 3c dc 75 ee 3c
       0.024144478 0.061129786 0.03067074 0.029108934
000230 c0 ae ba ba 54 52 d5 bc 88 7e 4a 3d 80 06 ce 3c
       -0.0014242753 -0.026040234 0.049437076 0.025149584
000240 e0 b5 55 3c c0 36 db 3c 90 5b 8f 3b 2e 5f 34 bd
       0.013043851 0.026759505 0.004374929 -0.044036083
000250 30 7b 25 bd 98 49 87 bc 16 e1 2c 3d 94 1b 55 bd
       -0.040400684 -0.016514584 0.042206846 -0.052028254
000260 ac b9 e5 3c 44 ed fa 3c 50 d9 66 3d b4 92 45 bd
       0.028042637 0.030630715 0.05635959 -0.04823561
000270 4a 8c 4a bd a2 db 7c bd 78 07 7a 3c ac 71 89 bc
       -0.049450196 -0.061732896 0.01526057 -0.016777836
000280 dc b6 ac bc d6 54 0b bd 1e 75 03 3d 74 77 e1 3c
       -0.021083288 -0.034016453 0.032094114 0.02752278
000290 a0 7b 7d 3d e4 97 eb bc ea 0d 41 3d 68 8d 44 bd
       0.061885476 -0.02875895 0.04713241 -0.047986418
0002a0 34 cf ad 3c c0 ed 5b 3d 40 89 af 3b 92 61 6b bd
       0.021216966 0.053693533 0.0053569376 -0.057466097
0002b0 18 1d 4b bd 82 9e 49 bd 3a 3d 73 bd b2 bc 63 bd
       -0.049588293 -0.04922343 -0.059384562 -0.055599876
0002c0 12 76 53 3d b0 f2 c3 3c 98 e7 fd bc 38 e7 25 3c
       0.051626272 0.023919433 -0.030994222 0.010125928
0002d0 64 5f 98 bc c0 62 cb 3a b6 5b 16 bd 80 0b df bb
       -0.018600173 0.0015517101 -0.036708556 -0.006806791
0002e0 0c 05 1d 3d 6e 18 2d 3d b6 40 65 3d 48 d7 09 bc
       0.03833489 0.042259626 0.055969916 -0.008413143
0002f0 12 3b 7e 3d 7c 94 fd bc cc e8 85 3c 72 44 4a 3d
       0.062068053 -0.030954592 0.016346358 0.04938168
000300 d0 7c df bc 56 57 4a 3d c2 39 37 3d 96 9a 1a bd
       -0.027281195 0.049399696 0.044732817 -0.03774508
000310 24 2d 2e 3d 58 52 63 bc 00 87 42 ba 7a fb 42 bd
       0.04252352 -0.013874613 -0.0007420629 -0.047603108
000320 fc 12 74 3d 0c 00 d9 bc b4 54 9a 3c 68 29 ab 3c
       0.059588417 -0.02648928 0.018839218 0.020893767
000330 6a fd 64 bd 56 d6 46 3d 40 9f 43 bc 3c 26 9b 3c
       -0.055905737 0.04854425 -0.011939824 0.01893913
000340 ba fb 66 3d 40 5e c4 3c f0 7a d6 bc 82 2a 7b 3d
       0.05639241 0.023970723 -0.026181668 0.061319835
000350 d8 6f e1 3c 00 97 9e b9 88 d0 5d bc 7e a3 1c bd
       0.027519152 -0.00030248612 -0.013538487 -0.038241856
000360 b8 10 38 3c 9c ec 17 bd 9a 8c 57 3d 20 fc 43 bb
       0.011234455 -0.037090883 0.052624322 -0.0029904917
000370 c4 9b 41 3d 10 45 d2 3b cc 10 10 bd 20 1c 4f 3b
       0.04726769 0.0064169243 -0.03517227 0.0031602457
000380 b0 c5 93 bc 90 7e 68 3c 30 d2 f1 3b 00 0f fa 3a
       -0.0180386 0.014190331 0.0073797926 0.0019077957
000390 20 99 73 bd ae 17 18 3d 0c 64 66 bd e0 08 8e bc
       -0.059472203 0.037131958 -0.056247756 -0.017338216
0003a0 ec 1d da 3c 8c 15 5f bd 04 0c 1e bd 90 2c c6 bb
       0.026625596 -0.054463908 -0.038585678 -0.0060477927
0003b0 e2 5f 5e 3d f6 45 75 bd 40 e2 4f bd f4 f0 5e bd
       0.05429066 -0.059881173 -0.05075288 -0.05442901
0003c0 ac a3 24 3d b4 9d 2b bd ce 4b 34 3d 12 47 74 bd
       0.040195152 -0.041898444 0.044017605 -0.05963809
0003d0 e0 4e 13 bb 08 88 ae 3c 38 72 dc 3c 84 9e df bc
       -0.0022477433 0.0213051 0.026909932 -0.027297266
0003e0 d0 07 7d bd 80 00 02 bc fc b9 da 3c 3a 03 7a bd
       -0.06177503 -0.0079346895 0.026700012 -0.061038233
0003f0 80 1a 1a bc 8a 6d 2e bd e0 8e c8 3b de 4c 7a bd
       -0.009405732 -0.042584933 0.0061205477 -0.061108463

0.bias f4 [128]
000000 60 13 15 bc ec d4 b5 3c ac 29 3d bd 66 a3 1a 3d
       -0.009098858 0.022196256 -0.04618232 0.037753485
000010 f2 b9 1f bd d0 59 73 bd ee 5b 54 bd 38 59 b1 bc
       -0.03899569 -0.059411824 -0.051845483 -0.021648988
000020 80 83 a3 3b 90 fc c2 3c a0 c4 bd 3c 88 ee 66 3c
       0.0049900413 0.023802072 0.023165047 0.014094956
000030 92 eb 01 bd 32 19 45 3d 60 06 bb bc 50 7a 83 3b
       -0.031718798 0.04811973 -0.022830188 0.0040123835
000040 9e 53 3e 3d 16 f4 76 3d 68 16 ac 3c 80 ca c3 bc
       0.046466462 0.060291372 0.021006778 -0.02390027
000050 40 ec 8e bc e8 b1 75 3c f0 12 10 3d ea 71 28 bd
       -0.017446637 0.014996029 0.03517431 -0.041124262
000060 78 ed 4d 3d 00 ed d9 39 d8 e9 ab bc 00 e3 5f 3c
       0.050275296 0.00041566044 -0.020985529 0.013664961
000070 60 ab 10 bd f4 d4 cb bc a4 78 18 3d e0 15 5a bb
       -0.035319686 -0.024881817 0.037224427 -0.0033277199
000080 82 38 6d 3d 10 b3 73 bd dc 16 93 bc 20 63 1a 3d
       0.05791522 -0.05949694 -0.017955236 0.03769219
000090 6c 38 46 3d f8 67 90 bc 00 3b 96 3a c4 0d 14 3d
       0.04839365 -0.017627701 0.0011461675 0.03614594
0000a0 40 29 ec 3b 58 1c 3a 3c 18 a8 65 bc 78 5c 2d 3d
       0.007207066 0.011359297 -0.014017127 0.042324513
0000b0 20 26 1c 3d ec 69 c0 bc 00 b7 56 3c 18 58 fe 3c
       0.038122296 -0.023488007 0.013105154 0.031047866
0000c0 70 a5 95 bb 08 fc a8 3c e0 a0 1f 3d aa d7 64 bd
       -0.004566841 0.02062799 0.03897178 -0.055869736
0000d0 aa d7 67 bd c4 4b 8c bc d8 65 70 bd 6a 64 21 3d
       -0.056602158 -0.017125972 -0.058690876 0.039402403
0000e0 70 87 9b bc 00 5d b2 3b aa be 44 bd 00 63 73 3b
       -0.01898548 0.0054432154 -0.048033394 0.0037137866
0000f0 94 6e 86 bc ec b5 5f 3d e0 9a 00 3d c0 02 6d 3d
       -0.01641015 0.054616854 0.0313977 0.05786395
000100 14 cd a0 bc b8 37 12 bc f0 52 7a bd c8 bc 0d 3d
       -0.019629039 -0.008924417 -0.06111425 0.034603864
000110 c0 1c 41 bb 3a ac 20 3d 10 2d c2 bc c8 0b 40 3d
       -0.00294666 0.039226748 -0.023703128 0.046886235
000120 0c 98 f0 bc 08 d6 5d bc 4a 57 41 3d 72 03 4a 3d
       -0.029369377 -0.013539799 0.047202386 0.049319692
000130 c6 36 72 3d a8 0d 14 3d ec 8d c6 bc 40 ae 58 3d
       0.059134267 0.036145836 -0.024237595 0.052900553
000140 a0 b0 1f 3d 90 ab 67 3c d0 42 c1 bc 24 53 e2 bc
       0.038986802 0.014140025 -0.023591429 -0.027627535
000150 b6 12 44 bd 8a 70 0f 3d fc 22 27 3d e8 e3 23 3c
       -0.047869407 0.035019435 0.040804848 0.010003068
000160 e4 7f 17 3d e8 c8 b3 bc 64 64 6b bd 80 80 23 3a
       0.0369872 -0.021946386 -0.057468787 0.00062371045
000170 fe 02 2d 3d 90 4a 01 3c 2a 00 70 3d 30 68 7f bc
       0.04223918 0.007891312 0.058593906 -0.015588805
000180 84 59 6a bd 72 08 4f bd 90 28 32 bc 80 f0 7f 3a
       -0.057214275 -0.050545163 -0.010873929 0.00097633153
000190 72 85 33 bd 40 ab 02 3d 8a d2 61 bd 20 b6 7f 3d
       -0.043828435 0.031901598 -0.055132426 0.062429547
0001a0 9a 9f 4d 3d 50 b7 66 bd c6 da 4e 3d 50 ae f8 3c
       0.050201036 -0.056327164 0.050501607 0.030356556
0001b0 20 7a 34 bd 14 ca a8 3c 88 0e d1 3c ec 80 b6 bc
       -0.04406178 0.02060417 0.025519624 -0.022278272
0001c0 04 7e ad bc 68 7b 19 3c 8a 66 3d bd 00 fc 21 3d
       -0.021178253 0.009367801 -0.046240367 0.039546967
0001d0 e6 40 6d bd 6c e9 f1 3c dc 3e cf bc f8 9b ac bc
       -0.05792322 0.02953025 -0.025298528 -0.021070465
0001e0 08 5e 8c 3c 60 1f 01 bc 8c b9 f4 3c 88 85 74 3d
       0.017134681 -0.007881016 0.029873632 0.059697658
0001f0 a4 0f 54 bd 90 66 8a 3b 74 89 d7 bc ca e4 2f 3d
       -0.05177273 0.004223652 -0.02631066 0.0429428

2.weight f4 [128, 128]
000000 7f 27 82 bd 0d b7 8b bd d8 fc 51 bd e1 bc 23 bd
       -0.063551895 -0.068220235 -0.05126652 -0.03997505
000010 35 60 af bd 84 c7 63 bd a0 3e 2a bd 58 53 a5 3b
       -0.08563272 -0.055610195 -0.04156363 0.0050453357
000020 b4 4e 6b 3d bc e0 57 bd 1a cb 6c bd 4e 9b 62 3c
       0.057448104 -0.052704558 -0.05781088 0.013830973
000030 3c 08 9f 3d 46 85 36 bd 0c 2f 76 bd ba 3c 1b 3c
       0.077652425 -0.044560693 -0.06010346 0.009474928
000040 a5 f5 45 bd 1c 99 70 bd cf d3 9c bd b5 fe cb 3c
       -0.048329968 -0.058739766 -0.07657587 0.024901727
000050 5c 6a 1f bc dc 39 1a bd ec 93 b1 3d 94 c7 aa 3d
       -0.009729948 -0.037652835 0.08670792 0.08338848
000060 92 a8 97 bd 3f c1 ac 3d c2 f8 b7 bb 23 ce 5a bd
       -0.07405199 0.08435296 -0.005614371 -0.053419244
000070 29 5c 9a 3d 49 c9 97 3c 63 fd 11 bd f6 ca 0f bc
       0.075371094 0.018528597 -0.03564204 -0.008776417
000080 f4 26 21 bc 55 8c 62 bd c2 73 88 bd b4 af 18 3d
       -0.009835947 -0.055309612 -0.06662704 0.03727694
000090 57 b2 a9 3c b6 4a 8e 3d f0 89 ad 3d 0c 9e 7d 3d
       0.020714922 0.06947844 0.08473575 0.061918303
0000a0 cb 72 8b bd c2 af 6c 3d dd f9 aa 3d 70 44 a6 bd
       -0.068090044 0.057784803 0.08348439 -0.08118522
0000b0 f2 00 f1 3c c2 c6 01 bd 44 26 75 bd 30 df 91 3d
       0.029419396 -0.03168369 -0.059850946 0.07122648
0000c0 a5 5d 1c 3d 5f fe 63 bd d0 11 52 bc ce 3f 9a 3d
       0.038175244 -0.05566251 -0.01282163 0.07531701
0000d0 7a 08 15 3d 5d 47 37 ba dc 6b de 3c d0 8d 90 3c
       0.036385037 -0.000699153 0.02715104 0.017645746
0000e0 ab 5c 71 bc a8 c6 83 bd 87 5d 96 3d 66 1f 82 bd
       -0.014731566 -0.06434375 0.07342058 -0.06353645
0000f0 36 da 7a bd c8 1e f8 3c 05 5c 7b 3d 23 cb 96 bd
       -0.06124326 0.030288115 0.061367054 -0.07362964
000100 bf 6e 4d 3d 13 2e 0f bc 8a 66 c4 3c be 01 99 3d
       0.050154444 -0.008739012 0.023974676 0.074710354
000110 6e 33 89 bd 7e 52 3f 3d 27 6f 6b bd c1 65 cf bc
       -0.066992626 0.04670953 -0.05747905 -0.025317075
000120 dc 60 bc bb 33 ca 09 3d 55 32 94 3d 83 a7 12 3d
       -0.005748851 0.033640098 0.072361626 0.035804283
000130 7c 38 25 bd 32 cf 86 3d 39 ce fe bc 88 9b 63 bd
       -0.04033707 0.06582488 -0.031104194 -0.055568248
000140 b6 1f d6 3c 06 be 13 bd 45 cf ac bd 85 21 9b 3d
       0.026138168 -0.036069892 -0.08437971 0.07574753
000150 b8 91 26 bb 47 da 94 bd 66 0b f9 bc 14 01 f9 3c
       -0.0025416445 -0.072681956 -0.030400943 0.030396022
000160 5c 59 5d 3d b3 56 ae bd cd 8c 88 bd a6 bc 92 bd
       0.054040298 -0.0851263 -0.066674806 -0.07164888
000170 5d 2f c4 3c dc 61 a9 3d b1 98 8a 3d fb 93 14 3c
       0.023948366 0.08270618 0.06767405 0.009068484
000180 e3 4b 88 bd 18 b4 8a 3c 49 9b 85 bb c6 94 dc 3c
       -0.06655099 0.016931579 -0.0040773493 0.02692641
000190 b4 fd 60 bd 68 ec fa bc 6a af 96 3d fa 51 92 3d
       -0.05492945 -0.030630305 0.07357676 0.07144542
0001a0 a4 d3 91 3d 8b 45 1d bd 74 64 37 3d 1e 48 ae bc
       0.07120445 -0.0383964 0.044773534 -0.021274623
0001b0 2c 0f 65 bc 82 e8 06 3c 1f 1e 9f bb e2 4a 94 3b
       -0.013980668 0.008234145 -0.0048558856 0.0045255283
0001c0 1d ce 2a 3c 6a b5 f0 3c dd ad 9d 3d de 73 41 3d
       0.010425118 0.02938338 0.076991774 0.04722964
0001d0 7c 57 06 3d 7e c3 9e 3d fb d6 72 3d d2 ab 3a 3d
       0.032798275 0.07752131 0.059287053 0.045574017
0001e0 46 87 60 bd ad 6b af bd 8e bb 71 3d 0d 86 0d 3d
       -0.054816507 -0.085654594 0.059016757 0.03455167
0001f0 8e 29 bb bb ef 87 1d 3d a4 ff db 3b 49 c1 2c 3b
       -0.005711741 0.038459715 0.0067138243 0.0026360324
000200 4b 36 26 3d 7c 81 ad 3d 5a 38 87 3d 3f 21 81 3d
       0.04057912 0.08471963 0.06602545 0.06305169
000210 b5 d9 55 bc d7 3e 79 bd d1 76 5b 3c 8f b7 2d 3d
       -0.013052394 -0.060850944 0.013395027 0.042411383
000220 b6 96 b3 3d 88 f9 1e bc 46 b9 a6 3d f3 b5 15 bd
       0.0876898 -0.009703048 0.08140807 -0.036550473
000230 a0 09 85 3d f4 7b a6 bc c2 5f 4e 3d a4 8c 96 bd
       0.064959764 -0.020322777 0.05038429 -0.07351044
000240 35 32 1b 3b b2 30 10 bd ac 8a cc 3c 89 45 a5 bd
       0.0023681049 -0.03520269 0.024968468 -0.080699034
000250 47 b4 b7 bc a6 41 53 3b 5d f9 18 3d b3 8c 91 bd
       -0.02242483 0.0032235174 0.037347186 -0.07106914
000260 76 51 13 3d 1b 13 4e 3d 79 16 8a 3d 04 eb 3f 3b
       0.03596636 0.05031119 0.067425676 0.0029284367
000270 4c fb 8b bd 00 3d 95 bc db 67 24 3d c2 0a 4f 3d
       -0.068350405 -0.018217564 0.040138107 0.05054737
000280 4c 5b 8a bd 2a 1c 4e bd 02 9b d3 3b 3b 9d d9 bb
       -0.06755695 -0.050319828 0.0064576874 -0.006641058
000290 41 90 ef 3b 86 10 32 3b 3f c9 a9 3d 9e 37 09 bd
       0.0073108976 0.0027170493 0.08290338 -0.033500306
0002a0 0e eb 86 bd 8c f4 84 bd 6e 09 1f bd a7 25 b4 bd
       -0.06587802 -0.06491956 -0.038827352 -0.08796244
0002b0 a5 94 97 3d a6 85 10 3d a2 8c a5 3d 7e bc 8e 3c
       0.074013986 0.035283707 0.08083464 0.017423864
0002c0 c5 47 a0 3c ec 15 c1 3c 22 83 96 3d 23 98 1c bd
       0.019565472 0.023570023 0.0734923 -0.038231026
0002d0 f5 86 8c bd 32 6b 76 3d d3 82 46 bd 92 9d e0 3c
       -0.068616785 0.060160823 -0.048464607 0.027418885
0002e0 c4 17 a7 bd b2 cb 0c bd 44 72 13 3d d5 a7 92 3c
       -0.0815883 -0.034373946 0.035997644 0.017902294
0002f0 22 f2 02 3d 7f a7 2a 3d ec d6 71 bd cb 47 57 3d
       0.031969197 0.041663643 -0.059042856 0.0525587
000300 ad 11 70 3d a0 77 b2 bd 25 72 61 bc 29 ca 0c 3d
       0.058610607 -0.08714223 -0.013760124 0.034372482
000310 43 1a 05 3d 98 01 1f 3d a1 fd 4a bb d4 ab ce bc
       0.03249575 0.03881988 -0.0030973929 -0.025228418
000320 71 d4 0f bd 93 55 a8 3d 88 04 15 3d 91 81 0d bc
       -0.03511471 0.08219447 0.036381274 -0.008636848
000330 c3 96 2c 3d 96 ab 11 3d 53 d4 a0 3d fd 9c a2 3c
       0.042135965 0.035564028 0.07852998 0.019850248
000340 d4 23 9a 3b 2d 00 74 3c 1d 58 99 bd 18 50 9d bd
       0.004703978 0.01489262 -0.074875094 -0.07681292
000350 a5 e0 8e 3d 78 30 8d 3d 37 2c ad bc f8 e4 a4 3c
       0.06976441 0.0689401 -0.021139247 0.020128712
000360 8d 40 08 bd 1c 43 b3 3d 6b 7e d2 bc 84 2c 91 bd
       -0.033264685 0.087530345 -0.025695046 -0.07088569
000370 17 0c ae 3d a3 05 ac 3d 66 10 69 bd e2 e1 14 bd
       0.084984 0.083995126 -0.056900404 -0.03634823
000380 91 0f 37 bd 3b 50 83 bd ab b9 14 3d 00 ce 95 bc
       -0.04469258 -0.06411787 0.03630988 -0.018286705
000390 8f f8 af 3d 23 c2 80 bd f1 6c 97 bd 25 a8 ff bc
       0.08592331 -0.06287029 -0.07393826 -0.031208107
0003a0 b1 6c f9 bc 46 c9 88 3c ad 94 18 bd 4d ac 05 3c
       -0.030447336 0.016697537 -0.037251163 0.0081587555
0003b0 c0 d3 6f 3d e3 96 ac bd 84 1d cf 3c 6c eb 20 3d
       0.05855155 -0.08427217 0.025282629 0.039287016
0003c0 9e e9 4f 3d a5 75 90 bd 7d 7c b1 bd 4a ad 9f 3d
       0.050759904 -0.07053689 -0.086663224 0.07796724
0003d0 90 c5 4b bb 36 a1 af 3d a3 cf a3 3d 06 07 aa 3d
       -0.0031093098 0.085756704 0.07998588 0.08302121
0003e0 22 95 a0 bc e7 87 6f 3d 2b 51 cd bc 7f b4 29 3d
       -0.019602362 0.058479216 -0.025063118 0.0414319
0003f0 53 83 19 bd 67 96 89 bd d8 80 a7 3d 61 8a 29 3d
       -0.037478756 -0.0671814 0.08178872 0.041391734

2.bias f4 [128]
000000 f2 55 c0 bc 4c 04 59 3d aa 78 e5 ba be d9 01 bd
       -0.023478482 0.052982613 -0.0017507274 -0.031701796
000010 27 88 5f 3d 07 a5 73 bd 67 fe 83 3d 4a 24 62 bc
       0.054573204 -0.059483554 0.06445008 -0.013802597
000020 d7 a3 a9 3d cc a7 02 3d 78 93 8a bd 0d b0 e7 bc
       0.08283203 0.031898305 -0.06766409 -0.02828219
000030 9a 8e 2d 3d b8 fc a1 3b 7d 5c e1 3a 34 b9 82 3d
       0.042372324 0.0049434565 0.0017193701 0.06382981
000040 b0 94 c2 bc 31 52 69 3c ea 50 79 bd a6 0c 87 3d
       -0.02375254 0.014240787 -0.06086818 0.065942094
000050 ce 0a 0d 3d 7d 14 6d bd 2a 40 34 3d 9a 84 c2 bc
       0.034434132 -0.057880867 0.044006504 -0.02374487
000060 57 93 90 bc 8e 0b 4a bd 33 48 80 bd e0 f1 f4 3a
       -0.017648382 -0.049327426 -0.06263771 0.0018687807
000070 a1 65 ae 3d ed bc 38 bd 8e 6a 32 3d 46 19 f9 bb
       0.08515478 -0.04510205 0.04355865 -0.00760189
000080 3e 6e 11 3d a1 f0 fe bb c3 dc 3b bd 0b 87 10 3d
       0.035505526 -0.00778015 -0.04586483 0.035285037
000090 99 05 84 3d 13 7d 23 bc b2 49 8f 3b f3 26 06 3d
       0.0644638 -0.0099785505 0.004372799 0.03275199
0000a0 26 b6 63 3d 1f 22 6b 3d 6b 04 35 bd 8c 24 42 bc
       0.055593632 0.057405587 -0.044193666 -0.011849534
0000b0 d7 1e 5c 3d 2c 8b b0 3b a3 c7 4a bd a6 d9 69 bd
       0.05374035 0.0053876843 -0.049506795 -0.05709233
0000c0 4e a5 14 bc c9 38 be 3c 5d 8d 2d 3d d7 e6 b0 bd
       -0.009072615 0.023220437 0.042371143 -0.08637779
0000d0 81 1e ff 3c f0 e3 66 bd 5d 77 73 3d f3 1b 7b bd
       0.031142475 -0.056369722 0.059440006 -0.06130595
0000e0 87 75 43 3b c3 71 2b 3d 46 bc e2 3a 47 db c4 bc
       0.002982469 0.04185654 0.0017298541 -0.02403034
0000f0 ac 11 b0 3d 51 77 e9 bc 2a c7 b1 bd 1f e5 40 bd
       0.08597121 -0.028499277 -0.08680566 -0.047093507
000100 0a 8f af 3d d5 a2 a4 3c 47 5b 58 3d 78 a3 75 bd
       0.085722044 0.020097176 0.052821424 -0.05997035
000110 1c 20 78 bc 0c 3b d2 bb 6e 6d 91 bd 13 85 27 bd
       -0.015144374 -0.0064157303 -0.0710095 -0.040898394
000120 58 a2 80 bd c4 61 1c bd 8e 27 37 3d 8c fd b3 3d
       -0.062809646 -0.038179174 0.044715457 0.087885946
000130 cd 00 b4 bc b7 86 b2 bd 55 87 b7 3c 34 15 91 3d
       -0.021973038 -0.08717101 0.022403399 0.07084122
000140 43 be a4 bd e1 fa 9e bc a5 3d 6f 3d d9 97 4f 3b
       -0.08044102 -0.019406738 0.0584084 0.0031676202
000150 84 4b 8a 3d 44 1b 66 3d 15 fc c2 bb 2e 83 5f 3d
       0.06752685 0.056178346 -0.0059504607 0.054568462
000160 0a a6 9a 3d 95 d9 b2 bd 0b 0f 3a 3d 81 8a df ba
       0.07551201 -0.08732907 0.045424502 -0.0017054827
000170 03 ad fe ba 9f e6 4b 3a ab 46 8e bd ce 3c 5a 3d
       -0.0019430224 0.00077782007 -0.069470726 0.053280644
000180 0f 62 9d 3d 17 21 50 bd dc 36 d8 3c 39 44 af 3c
       0.07684719 -0.050812807 0.026393346 0.021394836
000190 ef bb ad bc 50 60 54 3d 2a fe 71 bd ce 62 85 3d
       -0.021207778 0.051849663 -0.05908028 0.06512986
0001a0 72 93 b3 bd 35 a0 1f 3d 44 d2 0b bd 3e 34 1b bc
       -0.08768357 0.038971145 -0.03413607 -0.009472905
0001b0 df 1b 53 bd e5 2a 98 3d b2 b9 63 3d 40 b4 71 3d
       -0.05154025 0.074300565 0.055597015 0.05900979
0001c0 42 78 b4 bc 98 6a 80 3d ea 95 62 bd 60 1f d3 bc
       -0.02203 0.06270331 -0.05531875 -0.025771797
0001d0 4e 0d 54 3d cf 16 a3 3c 34 1c aa 3d 29 84 a0 3c
       0.0517705 0.019908337 0.083061606 0.019594269
0001e0 42 33 08 bb 77 f6 92 bd cd b0 4c 3d 26 af 03 3d
       -0.0020782505 -0.07175916 0.049973298 0.032149456
0001f0 97 b5 f9 bc 19 42 4f 3d 49 75 a7 3d f8 05 04 bd
       -0.030482097 0.050600145 0.08176667 -0.032232255

4.weight f4 [4, 128]
000000 a4 20 3f bd bd 3c 9c bd 05 91 a6 bd 8f d7 ac bb
       -0.046661988 -0.076287724 -0.08133129 -0.00527472
000010 ff 98 42 bd 2f 74 79 3d 00 cc 74 bc 85 60 44 3d
       -0.04750919 0.060901817 -0.0149412155 0.04794361
000020 6e 04 48 3d e4 a0 9b bc 35 7b cf 3b 3f c3 64 bc
       0.04883235 -0.018997617 0.006331826 -0.013962566
000030 7e 35 f5 3c ff dd dd 3a 9f 86 5a 3d f5 53 8e 3d
       0.029932734 0.0016927122 0.05335104 0.06949607
000040 d0 67 46 bd bc 95 ef bb 39 7b f2 3b 9e 04 39 3d
       -0.048438847 -0.007311551 0.007399943 0.04517042
000050 35 e6 2f 3d 94 6c f1 bb a9 21 c0 bc 17 78 d8 bc
       0.042944152 -0.00736768 -0.02345355 -0.02642445
000060 e9 c2 d8 3b 5a f3 3e bb c4 31 19 bd 2d 86 9a bd
       0.006615032 -0.0029136748 -0.037400976 -0.07545123
000070 f7 bc 56 bd d2 d1 82 bd 12 22 4d bd c8 87 75 3c
       -0.052426305 -0.06387676 -0.05008132 0.014985986
000080 7c 1e af 3d a1 19 59 bd 56 8e 20 3d 91 e1 ce bc
       0.08550736 -0.053002957 0.039198242 -0.025254043
000090 f7 4e 76 bd d1 ec 56 bd 7b d8 7b 3d 4c c6 14 3d
       -0.0601339 -0.05247194 0.06148575 0.036321923
0000a0 4f 03 47 bc 21 ce 81 ba 98 6b 71 3d 2d 46 dc bc
       -0.012146785 -0.000990335 0.0589405 -0.026888931
0000b0 45 e7 a6 3d 90 c6 48 3d b5 b5 80 3d 80 eb dd 3c
       0.0814958 0.04901749 0.06284658 0.027089834
0000c0 43 78 01 3d 4b f7 1f 3d ee 92 25 bd c6 c3 9a bd
       0.03160883 0.039054196 -0.040423326 -0.07556872
0000d0 34 5a 0a bd 0d 52 5a 3d a0 39 c2 3b ee 1f 48 bd
       -0.03377743 0.053300906 0.0059272796 -0.048858576
0000e0 3d 42 ab bd aa 51 6d bd cf 23 9f bd 6d 83 1b 3d
       -0.08362243 -0.05793921 -0.07770502 0.037967134
0000f0 d5 3a 6a 3d cb 77 86 3c 1f e3 3a bd a9 aa 98 bd
       0.057185013 0.016414544 -0.045626756 -0.07454426
000100 39 76 ef 3c 72 db 92 3d 6d b7 be 3c 6d 11 d4 bc
       0.029231178 0.07170762 0.023280824 -0.025887216
000110 ff fd 84 bd f1 59 a6 bd 50 c9 b1 3d aa fa a1 bc
       -0.064937584 -0.08122624 0.086809754 -0.019772846
000120 10 f1 80 bd 03 b7 8c bd 3b b3 82 bb 56 42 7a bd
       -0.06295979 -0.06870844 -0.003988651 -0.06109842
000130 2c 0e 38 bd e3 5b 81 3d fe 95 14 bd 41 33 89 bc
       -0.04493539 0.06316354 -0.036275856 -0.016748073
000140 89 0b 13 bb 28 ca a0 3d 92 b2 b4 3d 1b bd 8a bd
       -0.0022437295 0.07851058 0.08823122 -0.0677435
000150 8a ba 3a 3a 20 e2 3e bd f9 2e 5a 3d 78 e9 e1 bb
       0.00071231334 -0.04660237 0.053267453 -0.0068942867
000160 87 2e 50 bd 04 59 dd bc 3c de b0 3c 1f 33 8b bd
       -0.050825622 -0.027019985 0.021590345 -0.0679686
000170 59 ce b0 bb a2 6b af bd 5d c1 a7 3d 86 f9 2c bd
       -0.0053956923 -0.08565451 0.08191178 -0.04223015
000180 30 03 e2 3b e8 26 a1 bb 95 b2 af 3d 2d 39 61 3d
       0.0068973526 -0.004917968 0.08578984 0.054986168
000190 f8 57 a5 bd e0 f7 8d bc 0a ae b0 3d db 89 00 bd
       -0.08073419 -0.01733011 0.08626945 -0.03138147
0001a0 63 04 33 bd cd fc b3 3c 5f 93 a0 bd c3 c4 c4 3c
       -0.043705355 0.02197113 -0.07840609 0.024019605
0001b0 fb f3 60 3d 05 e2 46 3d 49 a7 33 3c 87 5d 91 bd
       0.054920178 0.048555393 0.010965177 -0.07097917
0001c0 02 b6 38 bd 1f 62 a6 3d d2 47 3a 3d 46 cb 9c bd
       -0.04509545 0.08124184 0.04547865 -0.07655959
0001d0 be ad 02 bd 72 3f 6b 3d a4 84 9a 3d 23 d0 60 3d
       -0.031903975 0.057433553 0.075448304 0.054885995
0001e0 ef 48 52 3d 73 6d f8 bc cc bb 60 bb 97 92 4a bd
       0.051339086 -0.030325627 -0.0034291623 -0.049456205
0001f0 e8 3e cf bc 97 1f 11 bd 07 b8 b2 3d 4a 09 b0 bd
       -0.02529855 -0.035430517 0.08726507 -0.08595522
000200 99 ac ac 3d ca cb 61 bd 94 3f 89 3d ee c5 b4 3d
       0.08431358 -0.05512599 0.0670158 0.088268146
000210 2b f2 e6 bb 04 e9 3d 3d 36 13 85 bd 5f 04 98 3d
       -0.0070479116 0.0463648 -0.06497805 0.07422709
000220 a1 79 55 3d ff 8a 4d 3d 6b 5c 01 3d 43 d6 48 3b
       0.052117947 0.050181385 0.031582277 0.0030645288
000230 0d ae 80 3d 7a 51 0c 3d e2 3a 38 3d 58 13 e6 3b
       0.062831976 0.03425739 0.04497803 0.007021349
000240 d3 c9 3f 3d ad ae 68 b9 f7 b0 94 bd 78 b9 cd bc
       0.046823334 -0.00022190316 -0.07260316 -0.025112852
000250 c4 55 36 bd 38 bf 17 bd e8 53 8a ba 03 85 6e bd
       -0.044515386 -0.037047595 -0.001055357 -0.05823232
000260 43 e2 b2 3d 6b 48 b1 bd 0e bb b0 3d 79 f0 fe 3c
       0.08734562 -0.08656391 0.08629428 0.031120526
000270 fc 55 eb bc 40 3e b0 3d c3 7b 94 3c e7 33 14 bc
       -0.028727524 0.08605623 0.01812542 -0.009045578
000280 d8 d1 f2 bc 63 a9 67 bd e7 80 89 3d 6d f7 6b bc
       -0.029641077 -0.056558024 0.06714039 -0.014402253
000290 85 67 60 bd e3 4d 1d 3d 28 cd 90 3d 11 cd 91 bd
       -0.054786224 0.038404357 0.070703804 -0.071191914
0002a0 f6 8c 6f 3d ca cf 86 bd 33 af 88 3c ff 3c 87 bd
       0.05848404 -0.06582601 0.016685104 -0.06603431
0002b0 57 f4 a6 3c 65 30 28 3c b8 53 af bd c7 39 5c 3d
       0.020380182 0.010265444 -0.0856089 0.05376604
0002c0 5f 1d 23 3d e4 96 81 3d 15 2e 0b bd 10 b3 9e 3c
       0.039822932 0.06327608 -0.033979494 0.019372493
0002d0 96 8d a3 bd c6 51 99 3c 38 3b 42 bd e2 f3 b3 3d
       -0.0798599 0.01871575 -0.047419757 0.08786751
0002e0 2e 12 d8 3c 7d d3 93 bd 09 95 76 3d b4 04 3e 3c
       0.026375856 -0.072180726 0.060200725 0.011597801
0002f0 7f c8 99 3d 3a 08 a6 3d 33 34 62 bc 54 fa 84 3d
       0.07508945 0.08107038 -0.013806391 0.06493059
000300 e6 78 27 bc ff a9 eb bb e6 86 94 3c 37 05 9e bd
       -0.0102216955 -0.007191896 0.01813073 -0.077158384
000310 66 3d fa bb 53 13 78 bd c7 94 3c 3d 1c be 1a 3d
       -0.007636714 -0.060565304 0.046040323 0.03777896
000320 d9 fb 86 bd d8 fd b6 3c 06 4c 88 3d 1b 93 43 3d
       -0.06591005 0.022337839 0.06655125 0.047747713
000330 3d fd b4 bc 85 84 34 bd 22 e3 57 3d 36 d1 ba bc
       -0.02209341 -0.044071693 0.052706845 -0.022804838
000340 c4 57 25 bb 43 8a 82 3c 5b be 1e 3d c4 1e 0e bb
       -0.0025229314 0.015935069 0.038755756 -0.0021685818
000350 50 78 60 3c 5c c9 8d 3d a0 9c f4 bc ea c3 02 3d
       0.01370056 0.06923172 -0.02985984 0.03192512
000360 b2 c5 3f 3d 09 a1 54 bc 20 f2 12 bd 2c ae e3 3c
       0.046819396 -0.012977847 -0.03587544 0.027793013
000370 4b d3 3f 3d 15 b1 92 3d e7 8f 3e bd f5 47 40 bc
       0.046832364 0.07162682 -0.046523955 -0.011735906
000380 0e 81 ff 3c 09 3e 8b bd f7 01 5d 3d 96 6e 91 bc
       0.031189468 -0.06798942 0.053956952 -0.017752927
000390 cf 48 c6 bb c4 8d 2a 3d 65 d7 9e 3d cf 51 12 bd
       -0.00605116 0.041639104 0.07755927 -0.03572255
0003a0 23 71 13 3d 1d dc 49 bc 3a 84 ad 3c a6 38 43 3d
       0.035996567 -0.0123205455 0.021181215 0.047661446
0003b0 30 c3 9b bc b1 da 01 3d 6b 60 68 bd 99 b7 0c bc
       -0.019013971 0.0317027 -0.056732576 -0.008588695
0003c0 52 b4 a7 bd 35 6e 87 3d 1e 29 62 3d 4c 03 41 bd
       -0.0818869 0.06612817 0.055214994 -0.047122285
0003d0 f0 60 c6 3b 54 a8 fe 3b 8c 90 44 3b 29 98 a6 bd
       0.0060540363 0.007771531 0.0029993383 -0.08134491
0003e0 e2 17 4d bd a8 93 9c bd 10 19 ac bd 77 5a 5f bc
       -0.050071605 -0.07645351 -0.08403218 -0.013632408
0003f0 ff d3 92 3d 07 20 3e bd 58 bd 23 bd 1e 25 0c bd
       0.07169341 -0.046417262 -0.039975494 -0.034215085

4.bias f4 [4]
000000 15 1d 6f bd f9 ed 88 bd 44 f3 83 bd a4 73 e2 bc
       -0.058377344 -0.06686015 -0.064428836 -0.027643032
