dql_2048.pth (torch, 202322 bytes, 6 tensors)

0.weight f4 [128, 256]
00000000: e012 3a3b 6c1e eabc 20e4 4d3b 30c4 c8bc
00000010: 2cbb 31bd a8ec 14bc 8418 963c ec82 11bd
00000020: 20b9 d43b 70fe e6bc 2022 7ebd 7442 273d
00000030: 8ef3 4abd 2494 54bd e89a ba3c 2461 e7bc
00000040: e09f 4f3c 1073 603d 2e2d 5c3d a4be bf3c
00000050: a08c 6ebd 8ca8 793d 485f e9bc a836 ac3c
00000060: 9ef6 42bd e096 b73c 82ff 76bd 80aa 0e3a
00000070: 8a69 3fbd 0893 88bc 8014 80ba 5c5d 533d
00000080: 00bf 11bd 1898 08bc 5e24 27bd b8aa 7ebd
00000090: ac16 83bc 40fb 4d3d 684e 4c3d f02a fbbb
000000a0: e0e1 a5bc fc2a 47bd 0022 6d3c 7cf6 7cbd
000000b0: 30c1 41bd b43f 0fbd b252 213d 6e4f 0e3d
000000c0: 1059 543c 408d 183c 9830 233d b230 3c3d
000000d0: 04f6 303d c859 36bd c87f 27bc 4843 473c
000000e0: f87a 3cbd 3c3e 643d 24b9 973c 0cca 3b3d
000000f0: 4235 11bd 4ada 45bd 60fe 063d 70ee 723d
00000100: 305e 6d3d 2002 db3c e88e 18bc 502d 00bd
00000110: 5077 d13b 5abb 493d 441a c7bc e878 3d3c
00000120: 607f ad3c 4041 cfbb b2ac 36bd 80fc 14ba
00000130: cce8 e13c 7452 cd3c 9e0d 383d b8ee 42bc
00000140: f0c4 e33b d450 fcbc 0a74 5a3d bade 59bd
00000150: 8008 67bb 80e5 bd3a 80eb 113d 9a0a 3cbd
00000160: 80a3 2cbc 300f 6bbd 28a2 32bd 38cc d3bc
00000170: 3264 59bd 7495 78bd f8e9 553d 30be c53b
00000180: c895 d4bc 8cf2 83bc 041b fb3c 8e04 1d3d
00000190: ae31 7dbd 8c3d 7d3d 8033 5b3c 6070 2d3b
000001a0: 380d 0cbc 887c 35bc c80c 773d 70e3 11bc
000001b0: 2c00 37bd 1c71 b2bc a0fb 62bd d295 76bd
000001c0: 44ca 14bd c04c 713d d432 5dbd a0a1 37bb
000001d0: 20ec 583c f8b0 403c 4067 83bb a0e3 62bc
000001e0: c036 f63b 28f0 773d 58c4 2e3d 3c79 1d3d
000001f0: a478 bcbc 9082 d3bc b006 7b3c 24f3 e93c
00000200: c2d2 763d e48f 2a3d fcd2 2d3d f0c4 f33b
00000210: 6c88 523d 4022 f1ba 80bd 343b a8c8 4e3d
00000220: d08b b4bc 3aca 68bd 30ac 65bd 00ea 37bc
00000230: 5030 cbbc e06a b73c 3026 bebc 50bd df3b
00000240: c429 5a3d f8bc 2abd 042f d8bc 4665 38bd
00000250: c450 cabc 7a4b 323d 50e7 9f3c 64b4 c53c
00000260: f0ef 95bc b042 653c 5e78 343d a04a c7bb
00000270: 5463 b7bc d67f 66bd fe8b 783d f0cf 413d
00000280: 08cb 21bc 207e debb 7cee 7ebd faca 6b3d
00000290: 821f 24bd b850 73bc 181a 2abd 806e 2d3c
000002a0: d856 893c 9a1e 313d c05f a8ba 10c3 e93b
000002b0: 50c3 d23c e070 1dbd 0878 69bc 4682 2e3d
000002c0: 8a47 6cbd 9624 76bd 06a4 3c3d 007a aaba
000002d0: a0ec d43c a40f 603d 3419 22bd a818 723d
000002e0: 8c5d 1e3d 9a36 67bd 1c56 4f3d 00ab d73a
000002f0: 54f4 693d be3e 68bd b063 c8bc a222 683d
00000300: 5226 4abd e078 cdbc 9852 8bbc 82e6 213d
00000310: 8c73 dcbc b049 9fbc 3019 5f3c 9c59 60bd
00000320: a071 2f3c e6a9 71bd 2ef2 39bd d0b6 08bc
00000330: 98ac 1bbd 4c92 33bd b0ed 11bc febc 433d
00000340: 0c61 37bd 5ac7 65bd 180b 653c 38b7 943c
00000350: b4b7 e53c 507d 92bb b0a1 963b 6a36 58bd
00000360: fca4 96bc 7003 923b 808e 2ebc 8a84 373d
00000370: 9475 3fbd 684a 46bd 5e99 7d3d 068a 16bd
00000380: 6046 6f3c bc6e 873c c0ae 65bb 96fd 343d
00000390: 5e0a 4bbd 4c4c 123d 1e21 313d 5019 dd3b
000003a0: e2b3 443d 80be 22ba daa2 293d ea8a 033d
000003b0: 9c27 103d 0073 843c 367c 4fbd 5691 61bd
000003c0: daa7 5f3d 80d5 15bc 72d4 343d 64e1 d4bc
000003d0: 0654 313d 7058 e13c 76b6 413d 0050 76b8
000003e0: 2858 4bbd d006 f03b 747e 81bc f823 eb3c
000003f0: 544a a23c d840 82bc 08b8 68bd 248a 7abd
0.0028392598 -0.02857896 0.003141649 -0.024507612 -0.04339139 -0.009089626 0.018322237 -0.035525247
0.006491795 -0.028197497 -0.062044263 0.04083486 -0.049548678 -0.05189909 0.022778943 -0.028244562
0.0126723945 0.054797232 0.053754024 0.023406334 -0.05823958 0.060951754 -0.028487816 0.021022156
-0.047598474 0.02241081 -0.060302265 0.00054422766 -0.04673151 -0.016671672 -0.0009771734 0.051602706
-0.035582542 -0.008337043 -0.040806167 -0.06217453 -0.016002022 0.05028844 0.04987946 -0.0076650307
-0.020249307 -0.048624977 0.014473438 -0.061758503 -0.04730338 -0.03497286 0.039385505 0.03474372
0.012960687 0.00931102 0.039841264 0.045944877 0.04320337 -0.044519216 -0.0102233365 0.012162037
-0.04601571 0.055723414 0.0185209 0.045846984 -0.03545118 -0.04830388 0.032957435 0.059309423
0.057951152 0.026734412 -0.009311415 -0.031293213 0.006392397 0.049250938 -0.024304517 0.011564471
0.021178901 -0.006324917 -0.04459829 -0.00056833774 0.027576827 0.02506373 0.04493486 -0.011897735
0.006950967 -0.03080026 0.05333332 -0.053190924 -0.003525287 0.0014487952 0.03562498 -0.045908548
-0.010537028 -0.05738753 -0.043611676 -0.025854215 -0.05307407 -0.060689405 0.052225083 0.006034635
-0.025950328 -0.016106866 0.03065253 0.03833442 -0.061814956 0.061826274 0.013378978 0.0026464686
-0.0085480735 -0.011077054 0.060314924 -0.008904323 -0.0446779 -0.02178245 -0.05541575 -0.060201474
-0.036325708 0.058911085 -0.05400355 -0.002801992 0.01323989 0.011760943 -0.004010111 -0.013848215
0.007513851 0.060531765 0.042667717 0.038445696 -0.023006745 -0.025819093 0.015321419 0.028558321
0.060259588 0.04164113 0.04243754 0.0074392483 0.051399633 -0.0018397048 0.002757877 0.05048433
-0.022039324 -0.056833483 -0.056072414 -0.011225224 -0.02480331 0.02238983 -0.023211569 0.0068279877
0.053262487 -0.04168412 -0.026389606 -0.045018457 -0.024696715 0.04352901 0.019519478 0.024133869
-0.018302888 0.01399295 0.044060104 -0.006081894 -0.02238623 -0.056274258 0.060680382 0.047317445
-0.009875067 -0.0067899376 -0.062239155 0.05756662 -0.04006911 -0.014850788 -0.04152879 0.010585427
0.016765043 0.043242075 -0.0012845919 0.007133849 0.025727898 -0.038437724 -0.014249809 0.042604707
-0.057685412 -0.060093485 0.046054862 -0.001300633 0.025991738 0.054702416 -0.039574817 0.059105545
0.038663432 -0.056448556 0.05061923 0.001645416 0.057117775 -0.05670046 -0.024461597 0.056673653
-0.04935295 -0.025082052 -0.017007157 0.03952647 -0.026910566 -0.019444317 0.013616845 -0.05477296
0.010708243 -0.05899992 -0.045396976 -0.008344367 -0.038006395 -0.04384069 -0.008906767 0.04778766
-0.044770285 -0.05609832 0.013979696 0.018153772 0.028041698 -0.004470505 0.0045969114 -0.05278627
-0.018389218 0.004455976 -0.010654092 0.044804133 -0.04674299 -0.048410803 0.06191384 -0.036752723
0.014604181 0.016532294 -0.0035046786 0.04418715 -0.049570434 0.035717294 0.043244474 0.0067474023
0.048023112 -0.0006208196 0.041415073 0.0321149 0.035194024 0.016168118 -0.050655566 -0.055070244
0.054603435 -0.009145141 0.044147916 -0.02598638 0.04329302 0.02750799 0.04729315 -5.8725476e-05
-0.04964462 0.007325031 -0.015807368 0.028703675 0.019810833 -0.01590006 -0.05681613 -0.061166897

0.bias f4 [128]
00000000: f8ce 243d 2080 fb3c 369c 073d b0ce 5fbd
00000010: 58f5 bfbc b47a 8b3c c6cc 5b3d f81a d4bc
00000020: 14fe 033d d4ee c8bc f6d9 343d dc98 fabc
00000030: 20e7 563d 3aad 063d 844c e8bc 70f6 62bd
00000040: f47c eebc 8c5b 77bd 806d 95bb 04dc 5cbd
00000050: 2e2c 5dbd d045 ad3c b420 e1bc 8a7f 603d
00000060: 2a77 413d e047 d9bb dca8 9f3c 0085 6c3c
00000070: 846f 5cbd 381a 1b3d 1483 04bd f8fb debc
00000080: 109c d5bb 304a c6bb 5c38 e23c 0098 183a
00000090: e433 4d3d 5cc2 6d3d 0818 763c 6063 c23b
000000a0: a8aa 48bd dccf d83c 60df 1fbb 7209 59bd
000000b0: e804 30bc 80fb eb3b 245b 0f3d c0b5 41bd
000000c0: c090 97bb d093 64bc 4095 99bc b0a8 35bd
000000d0: b2a8 5e3d 3833 243c 28ac 6bbd bc40 1bbd
000000e0: 985f 753d e8d1 113c e0c9 28bd 9061 673c
000000f0: f8e8 8c3c 2006 f23b 2aa9 223d 703d 5abd
00000100: 9008 a9bb 2021 87bb ea2f 14bd 32b4 12bd
00000110: 001f 313b 80b6 4d3a 3cf5 4e3d c489 47bd
00000120: 5092 643c cc40 ddbc 402b 50bc 368b 05bd
00000130: 5092 0abd 5024 95bb 0090 173c 70c7 e4bc
00000140: 307c 45bd 4abc 0fbd d022 90bb 683b 68bd
00000150: 206d 953b 788c 34bc 2cd5 323d 96b3 5b3d
00000160: 1443 e73c 8818 35bd c47f 933c 60ad 5e3d
00000170: f4b7 a83c 5abf 78bd 0269 01bd 8298 0fbd
00000180: 182c e3bc a611 46bd 7025 853c ecf3 e2bc
00000190: 6a6f 17bd 38f1 613d c44a 4e3d f044 c73c
000001a0: 305d 9c3b 206a 763b 00fb eb3a be3f 0a3d
000001b0: 1618 67bd 0013 90b9 120a 60bd f0d0 693d
000001c0: 9615 1c3d 009f 7a3a a053 eabb 4098 5cbc
000001d0: 381f e6bc 80a6 39bc ce83 4fbd 9c9f 17bd
000001e0: c891 b4bc c456 093d 3475 78bd 8c9e f9bc
000001f0: 3855 163d fe3a 33bd 501d 5e3c 1c2a 76bd
0.040236443 0.030700743 0.03310796 -0.054640472 -0.023432419 0.017026283 0.053662084 -0.025891766
0.03222473 -0.024527945 0.044153176 -0.030590467 0.05246651 0.032880045 -0.028356798 -0.055410802
-0.029112317 -0.06039004 -0.0045601726 -0.05392076 -0.05399721 0.021151453 -0.027481414 0.05480913
0.047232784 -0.0066308826 0.019489698 0.014436007 -0.053817287 0.0378668 -0.03235157 -0.027219757
-0.0065188482 -0.0060513243 0.027614765 0.00058209896 0.050098315 0.058046684 0.015020378 0.0059322566
-0.048990875 0.026466303 -0.0024394616 -0.052987523 -0.010743357 0.007201612 0.034999028 -0.04729247
-0.00462541 -0.013951257 -0.018747926 -0.044350326 0.0543601 0.010021977 -0.057537228 -0.037903532
0.05990562 0.008900143 -0.041208148 0.014122382 0.017200932 0.007385984 0.03971211 -0.053281248
-0.0051584914 -0.004123822 -0.036178507 -0.03581638 0.0027026534 0.0007847324 0.050526842 -0.048715368
0.013950899 -0.027008437 -0.012705624 -0.032603465 -0.03383094 -0.004551448 0.009250641 -0.02792713
-0.048214138 -0.035091676 -0.004398681 -0.05669728 0.004560128 -0.0110198185 0.043660328 0.053638063
0.028230228 -0.044212848 0.01800526 0.054364562 0.020595528 -0.060729362 -0.031594284 -0.035057552
-0.027730986 -0.048356675 0.016253203 -0.027704202 -0.036971487 0.055161685 0.05036427 0.024324864
0.004771851 0.0037599877 0.0018003881 0.033752196 -0.056419455 -0.00027479976 -0.054697104 0.057084024
0.038106523 0.0009560436 -0.007151082 -0.013464034 -0.028091058 -0.011331201 -0.050662808 -0.03701745
-0.02204217 0.03353001 -0.06065865 -0.030471109 0.036702365 -0.04375743 0.013556793 -0.060098752

2.weight f4 [128, 128]
00000000: bd67 fabc 62c9 48bd 34b1 8dbd 35c7 0f3b
00000010: 9f5f 3ebd c1f2 3ebd fe69 d83b 460f 303d
00000020: 5207 7b3d b599 5f3d 4503 873c 6f63 f5bc
00000030: bd8c 7cbd d64a b2bc 1777 183d 5cbe 8c3d
00000040: 61b5 8a3d cddf 04bd e7a8 863d 82c2 aabd
00000050: 3bdf 473d 69ed 0b3d 2139 2f3c de87 7abd
00000060: 2520 ed3c f712 0abd 13e1 103c 9e90 943d
00000070: 255a 9ebc 7648 34bc bef5 0fbc 4885 bf3c
00000080: 115b 34bb ffde 06bd c3bd ae3c 475b a3bd
00000090: a29b 89bd 74fa 86bd ce02 0fbb 59eb 193c
000000a0: 711f 03bd 58f3 65bc d328 893d acc6 98bc
000000b0: 84a1 59bc ff62 35bd 4510 7dbd 5c94 39bd
000000c0: 3f3c b73c 65d1 473d ae12 053d 66cd 9f3c
000000d0: e103 d43c 0d2c 00bd 17aa ac3d 69e5 483d
000000e0: 5026 4fbd cd0f 0dbd 596a 75bc e2f9 7fbb
000000f0: 8d28 023d e6a0 4cbd 291d 3fbc ecd3 72bd
00000100: 7b8f ebb9 6112 e43c 968f 113d 6543 ad38
00000110: b815 7fbd 9538 3fbd 2851 5e3d 06e4 083d
00000120: e861 9fbd 8a83 8f3d 92bb 6abd bd6f d83b
00000130: 3b28 1bbd 1554 e3bc b992 f03c c4c1 7d3c
00000140: 9b2b 66bd 36cf 5e3c fa88 9c3b 9485 833d
00000150: 015d 803d fdf1 ef3c 92b5 fdbc 1658 1abd
00000160: 9d7c 833d 37b6 453d 6dbc 9ebd d461 acbd
00000170: 3e75 21bd 7bae d2bc 8691 82bd 31b1 603c
00000180: fa5f 463d cabc 9dbc dfd1 9d3b 7623 c7bc
00000190: 944b b839 3d4d ae3d 7938 02bd 90e9 1abd
000001a0: 95b5 37bd 052c 39bd 178e b03b 45bd 1cbd
000001b0: c23f 05bc 4939 57bd afa1 7fbd d3ef 473d
000001c0: b7c4 ac3d 23a9 5abd 56dd 8d3c d2e1 84bd
000001d0: 1053 883d 2d5f 56bc da3a a93d d169 a4bd
000001e0: 54e2 af3d a3ae bdbc bae7 8cbd 7a75 663d
000001f0: 540d 5ebd 767d 4d3d 2e3e f4bc c2cc 36bd
00000200: 7298 943c 5565 b4bd de77 02bd 27d1 1dbd
00000210: 24b7 93bd d7c6 1e3c 1e7f 883c 7388 8cbd
00000220: bea9 863d 6997 953d eb0f 773c 5a05 eb3c
00000230: a3f3 25bc 0429 71bd 3611 2d3d 12df 913d
00000240: 65bf 633d eb66 a63c d9c4 29bd c933 f6bc
00000250: 2d70 90bd 7972 983d a9aa 863c dfe3 01bc
00000260: b5f4 8a3d 827e 7a3d 7116 2a3c 1059 89bc
00000270: a588 e8bc e9d9 80bb ef52 a13d 7a44 80bd
00000280: 2125 143d 74b6 463c 5e01 823d 87da 7bbd
00000290: 3180 bcbc eafb 4dbc e10c 253d 197c 8fbd
000002a0: 395e a03d ccdb a8bd 47aa b03d 431c 5f3d
000002b0: 52cf 92bc 63d1 a83d 285e a7bd 6d12 31bd
000002c0: 1077 32bd 5c41 183c ce6c b43d 5be8 8b3d
000002d0: be4e 4a3d afdd 5abc 1976 dd3c 6ba3 463d
000002e0: 455d 8abd 3625 35bd 9d68 96bd 180b 4a3c
000002f0: d5db 4ebd 0acc 453d 9515 56bd 988c dd3b
00000300: 98c1 8d3d e5f7 973d 6215 a2bd bc7a 853c
00000310: 789d 3a3d ba5f 283d b522 ad3d 7923 c93c
00000320: 85ff 003d 32b8 9bbd d7da 61bc 18fa 5d3d
00000330: 38e3 143d f6f8 60bc dfae 79bd 648c 4fbd
00000340: ca3e 7a3d 5219 7fbd abd5 1e3d 3710 773d
00000350: c6d0 943d 50f4 7b3d 40be 273d 5e6f c2bb
00000360: 4c37 1ebd c482 493d 30fd a2bd e2d7 93bd
00000370: 2e4d a43d 8218 00bd 6411 dfbc 3a9f c7bb
00000380: df52 103d 93ae 973d bf11 523d 673f 753d
00000390: c30d f53c 2215 2b3b 20f4 86bd 41cb a23d
000003a0: b282 6bbd aeda a7bc 3af4 af3d 55bc a3bd
000003b0: 9970 f63c 5a91 d73c a13b ccbc a50e 0c3c
000003c0: f101 2f3d 4b66 b03c fd4c b03d 62cb a03d
000003d0: eb02 81bd 4fd9 213d 64f0 973d d96e 573d
000003e0: 9187 f43c 7128 823d 715d 56bd 70d0 0ebd
000003f0: 75f1 883d beb1 1f3d c020 043d 15a0 353d
-0.030567044 -0.04902018 -0.069185644 0.0021938805 -0.04647791 -0.046618227 0.006604432 0.042983316
0.061286278 0.054589946 0.016481051 -0.02995464 -0.061657656 -0.0217642 0.037222948 0.06872246
0.067728765 -0.032439996 0.06575184 -0.08337881 0.048796874 0.03416196 0.010694773 -0.06116473
0.028945992 -0.033709493 0.008842724 0.07254146 -0.019330094 -0.011003604 -0.008786617 0.023378983
-0.00275201 -0.03292751 0.02133072 -0.07976394 -0.06719138 -0.06590739 -0.002182174 0.00939449
-0.032012407 -0.014035068 0.0669724 -0.018649422 -0.013283137 -0.044283863 -0.061783094 -0.045307502
0.022367595 0.04878368 0.032488517 0.019507121 0.025880756 -0.03129201 0.084308796 0.049046908
-0.050573647 -0.034438897 -0.014978969 -0.0039058854 0.031776953 -0.049958132 -0.011664667 -0.059284136
-0.00044929594 0.027840795 0.035537325 8.261836e-05 -0.062276572 -0.04668482 0.054276615 0.033420585
-0.07782346 0.07007511 -0.057307787 0.006605117 -0.037880164 -0.027750054 0.029366838 0.015488092
-0.05619393 0.013599208 0.004777071 0.064219624 0.06267739 0.029290194 -0.030970369 -0.03768166
0.064202525 0.048269477 -0.07750783 -0.08417097 -0.03941845 -0.025717964 -0.06375413 0.013714121
0.048431374 -0.01925506 0.0048162783 -0.024308901 0.00035151525 0.08510826 -0.031792138 -0.0378204
-0.044850904 -0.045207996 0.005388032 -0.03826644 -0.008132877 -0.052544866 -0.062410053 0.0488127
0.08435958 -0.053383958 0.017317455 -0.06488384 0.06656468 -0.013084215 0.08263178 -0.080279954
0.085880905 -0.023154562 -0.06880136 0.056264378 -0.05421193 0.050168477 -0.029814806 -0.044628866
0.018139098 -0.0880839 -0.031852596 -0.03852954 -0.07212666 0.009690962 0.016662177 -0.06861963
0.065753445 0.0730427 0.015079479 0.028689075 -0.010128888 -0.058877006 0.04225274 0.071226254
0.05560245 0.020312747 -0.041447494 -0.03005399 -0.07052646 0.07443709 0.016438799 -0.007927864
0.067849554 0.061155804 0.010381327 -0.016766101 -0.02838547 -0.003932227 0.078771465 -0.06263061
0.03616822 0.012128461 0.06347917 -0.0614877 -0.023010345 -0.012572268 0.040295485 -0.070060916
0.078304715 -0.08245048 0.08626228 0.05447031 -0.017921124 0.08243062 -0.08172256 -0.043230463
-0.043570578 0.009292927 0.08809815 0.06831428 0.0493915 -0.013358518 0.027033852 0.04849569
-0.06756071 -0.04422494 -0.07344172 0.0123317465 -0.050502617 0.04829029 -0.052266676 0.006761145
0.06921691 0.07420329 -0.07914235 0.016293876 0.04556033 0.041106917 0.084538855 0.024553047
0.031493682 -0.07603492 -0.013785086 0.054193586 0.036349505 -0.013731232 -0.060957786 -0.050670996
0.061095037 -0.062280007 0.03877799 0.060318198 0.07266383 0.06151229 0.04095292 -0.005933686
-0.038626954 0.049196973 -0.07958448 -0.07218911 0.08022533 -0.031273372 -0.027229972 -0.0060919793
0.035235282 0.07406344 0.051286455 0.05987492 0.029913789 0.0026105125 -0.06589532 0.07948924
-0.057497688 -0.020490017 0.085915044 -0.07994906 0.030082988 0.026314426 -0.024930777 0.008548413
0.04272646 0.021533152 0.08608434 0.07851292 -0.06299385 0.039513882 0.07418898 0.052595947
0.0298498 0.0635537 -0.052335206 -0.03486675 0.06686679 0.038987868 0.032257795 0.04434212

2.bias f4 [128]
00000000: 8650 a53d 3807 49bd 7fb4 663d 5ca6 a63d
00000010: 4c99 b43d f008 1abd 360a a8bd a830 2b3d
00000020: c718 383d 8d7f abba be52 633d 5c0a 96bd
00000030: 50c9 573d cff0 4fbd bfbb 5dbc 105b 4e3d
00000040: 1386 1e3d 9e48 a33a b02e f53b e8cb 933d
00000050: 0328 b43d 5e00 febc fa23 c53a 3ba9 0dbd
00000060: e95b ad3d 6cfc 94bd e7f6 aabd c90e 583d
00000070: b5b4 143d 5e7b 99bd d132 88bc 04d4 9b3d
00000080: c52f ba3c a802 e2ba 9028 7abd b815 68bd
00000090: 28be a03d e2ea aabc acd1 73bd 9530 aa3c
000000a0: 81e6 a9bd e257 ae3d b463 ce3c 622f 793d
000000b0: cfca 153d 401b b13d ff04 af3d f9c4 203d
000000c0: dcdf 433c 2e81 523d d74a 683c 7c4b 803d
000000d0: 0c9e d5bb 7eb2 95bc 7bd1 723d f523 91bd
000000e0: be84 10bd bf6a 143c 858a 73bd e396 ae3d
000000f0: 02b0 6bbd e2dd 75bd 9c55 5e3d e22f 42bd
00000100: 849a d83c 0ee9 9dbd ded6 9ebd e3d5 ab3c
00000110: 2439 5d3d c978 993d dc47 ec3c e0fa 853d
00000120: 0de4 3ebd 527d b83c 3172 a53d 5fbb a43d
00000130: 6595 62bd 7efc 80bd 5ba5 2a3d a666 053c
00000140: 1d74 9dbd e2ce 6abd ebf0 433d 2d5a 1c3d
00000150: 019d 41bb 293a 95bd ecdd 70bd a2ec 81bd
00000160: b9fc 70bc e196 6ebd d955 a5bd 3dea 2b3c
00000170: 88a3 a3bd fffb 02bd 678b 41bd fe43 8f3c
00000180: 2914 afbd 0393 9ebd 2c6a a43d c7ff 8c3d
00000190: 8e65 9b3d f604 9ebc 1eb4 6bbc e227 983d
000001a0: e67a 473b 59ad 0ebd e44a d23c e711 ef3c
000001b0: fb03 34bd 3b51 a23d de63 113d 64fc b4bd
000001c0: e1f0 6cbd 50f9 aabd b4d1 023d 9d73 a83a
000001d0: 86d4 90bb 2657 87bd 4b57 a0bd 679e bbbb
000001e0: f5ce 663d 2540 ab3d 1c08 72bd 6abe 963d
000001f0: 4a69 66bd f434 fbbc 922d a13d cae6 b8bb
0.08071999 -0.04907915 0.05632448 0.08137199 0.088183016 -0.03760618 -0.082050726 0.04179445
0.044945505 -0.0013084278 0.05549883 -0.07326195 0.05268222 -0.050766762 -0.013533532 0.050379813
0.038702082 0.0012457555 0.007482372 0.072166264 0.08796694 -0.031006034 0.0015040629 -0.03458522
0.08464796 -0.07274708 -0.08347874 0.052748475 0.03630515 -0.074942335 -0.016625794 0.07608798
0.022727856 -0.0017243223 -0.06107384 -0.056661338 0.078487694 -0.020863954 -0.05952613 0.020775119
-0.08295918 0.08512856 0.025194027 0.060836203 0.036570366 0.08647776 0.08545875 0.039250348
0.011955228 0.051392727 0.014177999 0.062643975 -0.006519085 -0.018273588 0.059281807 -0.070869364
-0.035282843 0.009058653 -0.059458274 0.08524873 -0.0575409 -0.060026057 0.054280862 -0.047408946
0.026440866 -0.07710467 -0.077558264 0.020976013 0.05400957 0.07493741 0.028842859 0.06541991
-0.046604205 0.022520695 0.08078421 0.08043551 -0.055318255 -0.06298159 0.0416616 0.008142149
-0.076881625 -0.057326205 0.04783718 0.038171936 -0.0029543045 -0.07286484 -0.05880539 -0.06343962
-0.014708691 -0.058249358 -0.08073015 0.0104928585 -0.079901755 -0.031978603 -0.047252085 0.017488476
-0.08548767 -0.07742884 0.08028063 0.06884723 0.075877294 -0.019289475 -0.014386205 0.07429482
0.0030438243 -0.034833286 0.025670476 0.029183341 -0.04394911 0.0792565 0.03549563 -0.08837202
-0.057846908 -0.08348334 0.03193827 0.0012851838 -0.004419866 -0.06608419 -0.0782915 -0.00572567
0.056349713 0.08361844 -0.059089765 0.07360537 -0.056252755 -0.030664898 0.0787002 -0.0056427466

4.weight f4 [4, 128]
00000000: 755c 86bc 4288 6a3c 6f0e 5ebb 6e6e 33bd
00000010: 92f6 78bd b167 dd3c 355f 2e3c 1a2d 92bd
00000020: f69b 703d a212 c93b 6451 803d ac06 8cbd
00000030: 7fc8 593c 88a9 efbc b592 8e3c e679 24bd
00000040: 5882 1b3d f76c 8cbd 0c32 14bd 9e25 16ba
00000050: 54af ea3a 3f4c fa3a 59af f73c 0ef3 c03c
00000060: 2ee9 8d3d acb9 aabd a70c aa3d 23d2 433d
00000070: e71f b2bc 2279 ec3c 9322 fa3c 6c51 a33d
00000080: 3448 2cbd 375c 8dbd aa08 973c 687a 203d
00000090: b19f 833d e54a 573d fbce 87bd 9afc a13d
000000a0: 07c8 8ebb d18b 89bc e93d 643c f114 473c
000000b0: bb21 243d 06b0 8bbd 9ded 08bd 86f1 133b
000000c0: e9ce 1fbd bd5a 2f3d e775 88bc dbeb 523d
000000d0: aea2 a73d f0fa 8c3d d41d 1e3d ac27 03bd
000000e0: 8a3d 9cbd b3cd b4bd 3286 dbbb 5b9d ce3a
000000f0: 2cf9 5a3d fd89 6d3c 7353 913c 4b7a 7fbc
00000100: 2683 afbd 90e6 a8bc 99db 903d b164 03bd
00000110: 3609 793d b49d b0bd b8a7 3b3d d0b1 823d
00000120: 0b56 2dbd f41c 25bd 66d2 973d 539a adbd
00000130: d5d9 0b3d 4990 69bd c435 1fbd 8110 be3c
00000140: e8e2 58bc 0f33 9abd 3f3d 38bd 7c5a 873d
00000150: e4a9 823d 05dc a43c 5754 293c 46cf 543d
00000160: e4a2 743d b11f b0bd e6e0 87bd c3ea 2cbd
00000170: e499 663d 9466 b1bd e029 393c 80fb 11bd
00000180: 52b8 59bc faf2 aebd e203 993c 4b83 a9bd
00000190: c8fe 903d 7a12 3d3c 5318 a93d aa51 9a3d
000001a0: e8b6 013d de7a e23a 2c1b 84bd 837f 923d
000001b0: 7872 953d d2bd 753d 19da 113d 7122 6d3d
000001c0: b720 6e3d abbc b1bd 3f6e 473d 4227 973d
000001d0: 855f 36bc c540 82bb 6941 a9bd 202c 823d
000001e0: 31f5 13bc 1687 833d 33ad a63d 0cd8 9bbc
000001f0: b93f 88bc d6e9 0cbd 1f8b 40bd 3b8f a83d
00000200: 49a7 ffbc ea68 33bd 6183 373d a74d 9bbc
00000210: c194 843d b0fc 813d 5660 2abd 154d 55bc
00000220: abff a3bd 11f7 893d d954 4dbd 6529 0c3d
00000230: 00b8 6a3d f681 6e3b 612b 91bd 15d5 c63c
00000240: 8756 a33d 85d5 7dbc 87e2 6ebd f232 783d
00000250: 7532 c43c 1f2c 9e3d ce62 9cbd a1cc d53b
00000260: d630 50bd 8402 a83d 2d0e 9e3c a9ff 3a3b
00000270: 0eb7 8abd 935c 483d 9243 b4bd b6d3 a43d
00000280: 6cb6 203d 5ca4 6b3d 4fd4 5f3d 608a 8a3c
00000290: c291 e2bc 4a31 a7bd 5d1a 4a3d 2201 903d
000002a0: faae e9bc 3729 413b 693e 2dbd f814 033d
000002b0: 57c6 9cbd 9665 b4bb 1492 e03c 514b 203d
000002c0: e985 3dbd 7c75 363c 9786 9abd 4ed1 5d3d
000002d0: 6f8a 793d 0426 273d a1b9 843c d97b 4bbc
000002e0: 4288 afbd 1d4b 49b9 1a5a 8a3d f942 a3bd
000002f0: 92e3 81bd 1af3 89bc e999 603d 1fb7 67bd
00000300: ea61 6bbc a2fc 9dbd 61e7 8abd e0f1 7abd
00000310: d80d 313d 8cd3 613d 94aa 633d c985 aabd
00000320: a3e7 b33d 7f70 8bbc be36 4d3d 60b1 abbd
00000330: e445 42bd 0f2c 53bd d2be 0dbc abcf f8bc
00000340: 5002 8dbd 08ec 0d3b e1e9 c93c 8ef1 8b3d
00000350: b8b0 7dbd 272d 7d3d d816 183c 39e8 b4bc
00000360: 03fa 88bd 4336 88bd 9081 83bd 1295 fcbc
00000370: 4d78 a3bd d651 b73c c286 1abd 5936 09bd
00000380: a2ee de3c 595b f43b 6972 b2bd 0f8c eabb
00000390: 4b0b 023a dea0 a13d 5ff5 8a3d 0c39 523d
000003a0: 9e91 29bd 2687 63bd 3125 413d 382f b1bc
000003b0: bd4f 7ebd c4f8 27bd e997 b03d c309 f5bc
000003c0: 34f6 86bd ec89 953c d94f ee3b 3bbb d2bc
000003d0: 7698 84bd cca9 86bd b0e2 19bd 7047 db3c
000003e0: 9f46 dfba 46e8 f6ba 14fa 493c 1965 153d
000003f0: 0c7b 8e3d fb1b a3bb 34aa a43d 72b4 b23d
-0.016401509 0.014314713 -0.0033883115 -0.043806486 -0.060782023 0.027026983 0.010642816 -0.07137509
0.058742486 0.0061362544 0.06265524 -0.0683721 0.013292431 -0.029255643 0.01740394 -0.040155314
0.037966102 -0.06856721 -0.03618054 -0.00057276513 0.0017905035 0.001909621 0.03023498 0.023553398
0.06929241 -0.08336195 0.083031945 0.047807824 -0.021743728 0.028866354 0.030534064 0.07974514
-0.042061046 -0.06902354 0.018436749 0.039179236 0.06426943 0.05256166 -0.06631275 0.07909508
-0.004357341 -0.016790302 0.013930776 0.012150989 0.04007123 -0.06820683 -0.03342973 0.002257438
-0.039015684 0.042811144 -0.016657783 0.05149446 0.081853256 0.068838 0.038602665 -0.032020256
-0.07628925 -0.088282965 -0.006699347 0.0015763448 0.053460285 0.014498231 0.017739987 -0.015593122
-0.085699365 -0.020617753 0.07073135 -0.03207845 0.0607998 -0.086238295 0.045814246 0.06381571
-0.042318385 -0.040310815 0.07413177 -0.08476701 0.034143288 -0.057022367 -0.038869634 0.023201229
-0.013237692 -0.0752927 -0.044980284 0.066090554 0.0638006 0.020124445 0.01033505 0.051955484
0.059725657 -0.08599795 -0.06634693 -0.042216074 0.056299105 -0.08662143 0.011301488 -0.03564024
-0.013288574 -0.08542438 0.01867861 -0.08276995 0.07079846 0.01154005 0.082565926 0.075351074
0.031668574 0.0017279049 -0.06450495 0.07153227 0.07297224 0.05999548 0.035608385 0.057894174
0.058136668 -0.08678564 0.048689123 0.07380535 -0.011131172 -0.0039750063 -0.08264429 0.063560724
-0.009030626 0.0642225 0.08138504 -0.019023918 -0.016631948 -0.03440269 -0.047007676 0.08230444
-0.031207697 -0.043801226 0.044803027 -0.018957926 0.06473685 0.063470244 -0.04159578 -0.013018866
-0.08007749 0.06736577 -0.050129745 0.034219164 0.057304382 0.003639338 -0.07088352 0.024271527
0.07975488 -0.015492802 -0.058321502 0.06059546 0.023949841 0.07723259 -0.07636033 0.006524638
-0.050827824 0.08203605 0.019293869 0.0028533733 -0.06773196 0.04891641 -0.088019505 0.08048193
0.03923647 0.057529792 0.054645833 0.016911685 -0.027657393 -0.08163698 0.04934155 0.07031466
-0.028525818 0.002947403 -0.042295847 0.03200242 -0.07655018 -0.005505274 0.027413405 0.039134327
-0.046270285 0.011136409 -0.07545202 0.054154687 0.060923036 0.04080774 0.016201796 -0.012419664
-0.08570911 -0.00019196836 0.06755467 -0.079717584 -0.06342234 -0.016839553 0.05483428 -0.056571122
-0.014366606 -0.077142015 -0.06782413 -0.061265826 0.043226093 0.055133387 0.055582598 -0.08326299
0.087844156 -0.017021416 0.050101034 -0.08383441 -0.047429934 -0.05155569 -0.008651452 -0.030372461
-0.06885207 0.0021655578 0.024647655 0.06833182 -0.06193611 0.06181064 0.00928279 -0.022083389
-0.06688311 -0.066509746 -0.064211965 -0.030832801 -0.0798193 0.02237789 -0.03772617 -0.033499096
0.027213398 0.0074571786 -0.08713228 -0.0071578096 0.0004960789 0.07892011 0.06785082 0.051323935
-0.041398637 -0.05554881 0.04715461 -0.021628961 -0.062087763 -0.041008726 0.086227246 -0.029911881
-0.06589928 0.018254243 0.007272702 -0.025724044 -0.06474392 -0.06575355 -0.0375697 0.026767462
-0.0017034597 -0.0018837533 0.01232769 0.036473367 0.06957063 -0.0049777008 0.08040276 0.087258235

4.bias f4 [4]
00000000: 032a 5e38 99b9 58bd be69 973d a8e4 a93d
5.296805e-05 -0.052911375 0.073932156 0.08295566
