dql_2048.pth (torch, 202322 bytes, 6 tensors)

0.weight f4 [128, 256]
000000 b8 31 ca 3c fa c8 2b bd d8 8c 90 bc d0 cd 63 3d
       0.02468191 -0.041939713 -0.017645285 0.0556162
000010 ce b8 75 bd 80 c7 8d 3c 98 5b db bc 8e 3f 3c bd
       -0.059990697 0.017307043 -0.026777074 -0.045959048
000020 10 af 37 3d 00 eb 97 3a d0 ab 04 bd 40 fa c5 3c
       0.044844687 0.0011590421 -0.032390416 0.02416718
000030 18 c5 08 3d d0 c4 d6 bc 26 41 18 bd 00 f9 bf 39
       0.03339109 -0.026216894 -0.037171505 0.00036615878
000040 94 b6 6c bd 88 fb 52 3d c6 0f 17 bd 40 54 cd 3c
       -0.057791308 0.05150941 -0.036880277 0.025064588
000050 e4 8f c5 3c ca 6f 7e bd c0 28 04 3c b0 39 62 3d
       0.024116464 -0.06211833 0.008066356 0.055230796
000060 aa 0d 25 bd 94 01 d0 bc 28 8b d1 3c fc 97 a9 bc
       -0.040296234 -0.025391378 0.02557905 -0.020702355
000070 c0 29 e1 ba 70 e0 c5 3c 92 93 43 3d 60 d3 16 3d
       -0.001717858 0.024154872 0.047748156 0.036822677
000080 54 8b 58 bd ec 2b cc 3c 94 87 59 3d 5a 05 0f 3d
       -0.05286725 0.024923287 0.053107813 0.034917213
000090 6c 1b e2 3c 8e bb 72 3d 9e 60 49 bd 20 a9 72 bc
       0.027600966 0.059260897 -0.049164407 -0.01481083
0000a0 f8 e7 6c 3d f0 c4 da bb 00 50 3c bc 8a 68 1d 3d
       0.05783841 -0.006676309 -0.011493683 0.038429774
0000b0 00 59 26 3a 60 c2 52 bb 4e 0c 0f bd 4a b6 78 bd
       0.00063456595 -0.0032159314 -0.034923844 -0.06072072
0000c0 ca 6b 2a 3d 12 d7 76 bd 50 88 d7 bc 32 00 4d bd
       0.041606702 -0.0602637 -0.026310116 -0.050049014
0000d0 b8 19 25 3d f8 89 2f bc a0 35 5f bb 0c da e4 3c
       0.04030773 -0.010714047 -0.0034059063 0.027936004
0000e0 98 7e 3f bc 26 4f 36 bd 00 96 ad b9 32 1f 26 bd
       -0.011687897 -0.044509076 -0.0003310889 -0.040557094
0000f0 8a 2d 77 bd 90 95 90 bb 1c f2 ec 3c d0 db 55 bd
       -0.060346164 -0.0044123605 0.02892404 -0.052211583
000100 80 a7 f1 3c 86 96 08 3d 60 73 a1 3b ea ee 6a bd
       0.029498816 0.033346675 0.004927084 -0.057356752
000110 7e 23 4e bd 18 32 92 bc 0a 33 06 bd ce b0 35 3d
       -0.050326817 -0.017846152 -0.03276352 0.044358067
000120 38 9c 00 bd 90 d4 62 bc 8e 8f 56 bd de de 4c 3d
       -0.03139898 -0.013844624 -0.052383 0.05001723
000130 a0 99 1a 3c 2a 23 25 bd 60 a8 d8 bc 30 92 68 3c
       0.009436041 -0.04031674 -0.026447475 0.01419501
000140 d4 f9 6a 3d 60 46 9a 3b 2c c0 49 bd d4 13 d0 bc
       0.05736716 0.0047080964 -0.049255535 -0.02540008
000150 fc ec 01 bd 80 75 9d 3a e8 24 ff bc cc 69 04 3d
       -0.031720147 0.0012013167 -0.031145528 0.03232746
000160 b8 8b 38 bc 4c 2c a2 bc 34 8d bd bc 60 69 ab bc
       -0.01126378 -0.019796513 -0.02313862 -0.02092427
000170 3a 90 12 bd 00 74 79 3d ec 1b ad 3c 0e 52 67 3d
       -0.035782076 0.06090164 0.021131478 0.056474738
000180 6a 21 14 3d 68 89 24 3c 50 09 34 bc ac 39 eb bc
       0.03616468 0.010042526 -0.010988548 -0.028714024
000190 a8 6e 43 bd 88 19 25 3c 9c 5f 2d 3d 98 bf 7e 3d
       -0.047712952 0.010076888 0.04232751 0.062194437
0001a0 bc 0c 4e bd 28 a6 09 3c 60 21 a2 bb a0 ac 5f bb
       -0.050305113 0.008401431 -0.0049478263 -0.0034129992
0001b0 68 e8 49 bd 40 d9 77 bc 6e 6d 39 bd 38 c0 ae 3c
       -0.049293905 -0.01512748 -0.045270376 0.021331891
0001c0 b8 53 44 bd 22 d8 49 3d b8 1f 6b 3c 28 ec 66 bc
       -0.047931403 0.049278386 0.014350824 -0.01409439
0001d0 a8 0e 41 bd b8 a5 70 3c b0 24 2b bd ac 52 dc 3c
       -0.047133118 0.014687948 -0.041783035 0.02689489
0001e0 20 2c 79 bb 30 d0 13 3c 0e 92 5e 3d a0 17 5b bb
       -0.0038020685 0.009021804 0.054338507 -0.003343083
0001f0 fc 21 b0 bc a2 68 06 3d 24 3d ad 3c a8 13 b3 3c
       -0.02150058 0.03281463 0.021147318 0.021859959
000200 cc 11 5c bd cc 70 10 3d 2a 72 7b 3d 96 db 78 bd
       -0.05372791 0.03526382 0.061388172 -0.06075629
000210 10 ad 30 bc ac c6 bb bc 24 d3 98 bc cc e4 5b 3d
       -0.010783449 -0.022921883 -0.018655367 0.053684995
000220 9e 1e 35 bd 70 ed ff 3c a8 29 20 3d b4 73 ff 3c
       -0.044218652 0.031241149 0.039102226 0.031183101
000230 3c d2 b7 3c b0 f6 03 3d 00 58 97 39 50 35 dd 3c
       0.022439115 0.03221768 0.0002886653 0.02700296
000240 48 5e 26 bc 44 cf da bc c2 65 47 3d 4e 25 26 3d
       -0.010154314 -0.02671016 0.04868103 0.04056292
000250 70 65 6b 3c 80 cb 86 3b f0 46 bb 3c 62 59 56 3d
       0.014367446 0.0041136146 0.022860974 0.052331336
000260 86 32 21 bd 70 79 f5 3b 40 fa 40 bc 5e a0 7f bd
       -0.039354824 0.007491283 -0.011778414 -0.062408797
000270 62 8a 20 bd 58 3f 05 bc 88 1b 5b 3d 10 60 f6 3c
       -0.039194472 -0.008132778 0.053493053 0.030075103
000280 70 b5 e9 3c 22 f1 44 bd fc 13 8b 3c 80 7a c4 3a
       0.028528899 -0.048081525 0.016977303 0.0014990121
000290 60 fd a0 bc 36 a5 78 bd 50 1c fe bc 08 df 07 3c
       -0.019652069 -0.060704432 -0.03101936 0.008292921
0002a0 c0 44 b0 bb 16 9a 40 3d 60 e1 0c 3b a6 cd 71 3d
       -0.0053792894 0.047021948 0.0021496639 0.059034012
0002b0 c8 26 c2 3c d4 4c 9c 3c 44 8d c2 3c ca c8 28 bd
       0.023700133 0.019079603 0.023749001 -0.041207112
0002c0 14 14 a6 bc 68 da 01 bc 18 cf 59 3d 52 98 78 3d
       -0.020273246 -0.007925607 0.053176016 0.06069214
0002d0 32 e1 6b bd a0 4a 59 bb 32 72 03 bd c0 11 d5 ba
       -0.05758781 -0.0033156052 -0.032091327 -0.00162559
0002e0 50 d9 66 bd 4c 87 31 3d 5e 74 49 3d 08 95 be 3c
       -0.05635959 0.04334192 0.049183242 0.023264423
0002f0 98 f1 f4 3c 28 cd ec 3c 40 2e 29 3b 30 79 4c bd
       0.029900357 0.02890642 0.002581492 -0.04992026
000300 84 ac 18 3d 54 87 9b 3c b8 1e 1e 3c d6 16 43 bd
       0.0372739 0.018985428 0.009650879 -0.0476292
000310 80 07 7b bb 80 fa 7f 3c 2a b4 61 3d ac b3 59 bd
       -0.003830403 0.015623689 0.05510346 -0.053149864
000320 ca cb 5c bd 96 06 1a 3d a4 eb e4 bc 68 5a 52 3d
       -0.053905286 0.037603937 -0.027944393 0.05135575
000330 00 9b d5 bc 86 42 0d bd de cb 16 bd 60 3b d1 3c
       -0.026074886 -0.03448727 -0.036815517 0.025541008
000340 34 cf e8 3c 38 0b a5 bc 00 c7 ee 39 c0 80 ef 3a
       0.028419115 -0.020146951 0.00045543164 0.0018272623
000350 d0 01 be bc 4c 47 e7 bc 24 c6 e5 3c 5c 43 62 bd
       -0.023194224 -0.02823224 0.028048582 -0.05524002
000360 6c 79 7f bd a0 69 96 3c e4 92 7e bd 18 0a 47 3d
       -0.062371656 0.018360913 -0.062151805 0.04859361
000370 da 06 2e bd 98 3c 49 bc a2 81 21 3d 9a c2 2d bd
       -0.042487003 -0.012282513 0.039430268 -0.042421915
000380 e4 43 23 bd bc f9 ac bc 98 c5 66 bc 24 33 83 3c
       -0.039859667 -0.021115176 -0.014085196 0.016015597
000390 ea 06 3b 3d 2c bf b4 3c a8 8c ea bc 5e 80 62 bd
       0.04566089 0.022063814 -0.028631523 -0.0552982
0003a0 c8 1f 2e 3c 28 03 04 3d e4 c5 87 3c cc 2c 41 bd
       0.010627694 0.032229573 0.016573854 -0.047161862
0003b0 64 30 14 3d 68 58 a3 3c 9c 47 1a 3d 2c e0 f7 3c
       0.03617896 0.019939616 0.03766595 0.03025826
0003c0 6c e8 83 3c d0 af 61 bc fc a8 a9 3c 8c 92 4b 3d
       0.016102038 -0.013774827 0.02071046 0.049700305
0003d0 30 9c 3b bd 1c 8d e4 bc c0 00 24 3c 60 a8 5d bb
       -0.04580325 -0.027899317 0.010009944 -0.0033822283
0003e0 5e dd 70 3d 00 40 32 b9 26 1c 47 bd 00 90 7a bc
       0.058804862 -0.00016999245 -0.04861083 -0.015293121
0003f0 d8 aa 52 3c d6 41 73 bd 50 dd a5 3b 6c b8 57 bd
       0.012858115 -0.059388958 0.005061783 -0.052666113

0.bias f4 [128]
000000 e8 89 cc 3c 70 e1 83 3b 70 43 2f bd 70 de f6 bc
       0.024968103 0.004024677 -0.042788923 -0.030135363
000010 30 47 7d bc 70 a0 17 3c fa 62 49 3d e8 48 16 3d
       -0.015458867 0.00925456 0.049166657 0.036690623
000020 28 df 73 bc 32 3a 35 bd b4 d6 87 3c 18 0c 9d bc
       -0.014884748 -0.044244952 0.01658187 -0.019170806
000030 e0 0d 07 3d 58 8e 30 3c 0a b3 31 bd 0e e5 78 bd
       0.032972217 0.010776125 -0.043383636 -0.06076532
000040 ce 57 4a bd a0 4e 6d bd 78 cd 90 bc d4 78 67 3d
       -0.049400143 -0.05793631 -0.0176761 0.056511715
000050 da af 30 3d f6 97 1f bd 5c 5e 4b bd 5c 5c 81 3c
       0.043136455 -0.03896328 -0.049650535 0.01579111
000060 18 3d d7 3c f6 2c 13 3d 50 f4 26 bc 6e d2 0f bd
       0.026274249 0.03593155 -0.010190085 -0.03511279
000070 74 18 a4 bc d2 24 1c 3d 18 4a 13 3c 7c 72 51 3d
       -0.020031191 0.038121052 0.008989833 0.05113457
000080 6e bf 57 3d fc 99 a1 3c d0 0a c3 bb f4 39 e1 3c
       0.052672796 0.019726746 -0.0059522167 0.027493455
000090 e0 bb 34 bb a6 a8 6a bd ec 96 bf 3c c0 5f 45 3d
       -0.0027577803 -0.057289742 0.023387395 0.048187017
0000a0 22 72 35 bd 34 17 1b 3d 3e 70 72 3d f0 48 5f bc
       -0.0442983 0.037863925 0.059189074 -0.0136282295
0000b0 10 95 e0 3b aa 35 53 bd 42 99 65 bd ec 6e 73 3d
       0.006853707 -0.05156485 -0.05605436 0.059431955
0000c0 dc 68 a1 bc 74 3c f0 bc 28 c9 fe bc 60 a3 b7 3c
       -0.019703321 -0.029325701 -0.031101778 0.02241677
0000d0 7a c4 30 3d 64 7b df bc 8c 1c 97 3c 5e d9 23 bd
       0.043156125 -0.027280517 0.01844623 -0.04000222
0000e0 08 90 cd bc 20 aa b0 3c 9a d3 3c 3d 40 6f 3b 3c
       -0.025093094 0.021565497 0.046100236 0.011440098
0000f0 f8 d5 54 bc 74 01 67 bd 00 90 97 3a 70 c8 ae 3c
       -0.012990467 -0.05639787 0.0011563301 0.02133581
000100 14 07 23 bd 88 e3 24 bc be a4 32 bd 28 be 54 3c
       -0.039801672 -0.010064013 -0.04361414 0.01298479
000110 70 06 33 3d e4 6d 2a 3d 08 fc bc 3c f8 c3 3f 3c
       0.04370731 0.041608706 0.023069397 0.011704437
000120 40 c9 77 bc 66 8b 57 bd a8 a3 66 3d f0 ca 3c 3c
       -0.015123665 -0.052623175 0.05630842 0.011522993
000130 f0 e8 82 3c 78 7e 01 3d 1a 13 00 3d 20 40 16 bc
       0.015980214 0.03161475 0.031268217 -0.009170562
000140 9e 53 04 3d c4 f4 75 bd 10 f1 10 bc e0 3b 13 bc
       0.032306306 -0.06004788 -0.008846536 -0.008986443
000150 7e 98 78 3d 34 5d 83 3c 44 73 05 bd b0 98 1d bd
       0.060692303 0.016035654 -0.03258063 -0.038475692
000160 50 da f9 3c 40 52 9a 3a 4e 02 1c bd 02 79 68 bd
       0.030499607 0.001177378 -0.038088135 -0.056756027
000170 9a 88 09 3d fc 9d 7c bd 24 94 98 bc 1c 0e 47 bd
       0.03357754 -0.061674103 -0.018625326 -0.04859744
000180 00 92 c5 3a 8e 9f 33 3d 12 0b 39 3d 62 6e 6c 3d
       0.0015073419 0.043853335 0.045176573 0.057722457
000190 20 8b 78 3b 58 c0 b1 bc bc 39 42 3d c6 21 22 bd
       0.0037924722 -0.021698162 0.04741834 -0.03958299
0001a0 f4 64 12 3d 34 d9 2b 3d 40 4a 02 bc 14 2c ed bc
       0.035740808 0.041955188 -0.007952273 -0.028951682
0001b0 48 9e 18 bc 04 c6 96 3c 00 c4 a9 3a f2 0d 56 3d
       -0.009315081 0.018404968 0.0012952089 0.052259393
0001c0 58 5b 13 bd c8 5e dd 3c 8c 92 84 bc 38 00 22 3c
       -0.035975784 0.027022734 -0.01618316 0.0098877475
0001d0 56 6d 12 bd 1c 7b 8f bc 60 bf 28 3b f8 2b 52 bc
       -0.035748802 -0.017514758 0.0025748834 -0.012827866
0001e0 58 5e cd 3c 24 7f f4 bc 6c 9e 0f 3d 80 8f 0d 3b
       0.0250694 -0.029845782 0.035063192 0.0021600425
0001f0 dc df 68 bd c6 ef 39 3d 12 b9 76 bd cc 79 7e bd
       -0.056854114 0.04539468 -0.06023509 -0.062127873

2.weight f4 [128, 128]
000000 09 48 42 3d 70 33 64 bd bf 02 b3 bd b2 fb 2d bd
       0.04743198 -0.055713117 -0.08740758 -0.042476363
000010 bb 5f 62 bc ad 39 43 bd 8f fb 9e 3d a7 a9 fe 3b
       -0.013816769 -0.047662426 0.07762825 0.007771689
000020 ff 42 59 bd 1a c6 00 bd ed bb 54 bd 2d 59 88 3b
       -0.053042408 -0.031438924 -0.051937032 0.004161021
000030 22 f3 0f bc 23 f9 50 bd 5c c4 23 3d 6b c2 80 bd
       -0.008785995 -0.051018845 0.039982185 -0.06287082
000040 0d e9 23 3d 12 37 60 3d 3b 6e 09 3c bb c7 b4 bd
       0.040017176 0.05474002 0.008388097 -0.08827158
000050 29 96 07 3d 6e 7e 2c bd 9c 15 6e 3d 4d fc ad bb
       0.03310219 -0.04211276 0.058126077 -0.0053096176
000060 ed 43 9d 3d 38 0c 1e bd ed d4 2d bd 80 d0 04 bd
       0.076789714 -0.03858587 -0.04243939 -0.032425404
000070 2b 5a 04 3d fb f1 a7 bd dc ab 22 3d 7b e6 01 bc
       0.032312553 -0.08200451 0.03971468 -0.007928486
000080 38 f9 40 3c 23 7a a7 3d 12 bc 0f 3b 2d 0f 12 bd
       0.011778168 0.081775926 0.0021932167 -0.035659004
000090 60 ff 9b 3d 11 7a 26 bd 8c 66 66 3d 48 76 97 3d
       0.07617068 -0.040643755 0.05625014 0.07395607
0000a0 e8 ab ad 3d 9d 07 f6 3c d3 7f af bd 40 b7 ec bc
       0.08480054 0.030032927 -0.085693024 -0.028895974
0000b0 f8 d0 ba 3c 13 45 0f bd fd ee 05 3c a9 af f6 3c
       0.022804722 -0.034977984 0.008174655 0.030113058
0000c0 f2 07 ad 3d 56 13 35 3d fc 36 8e 3d c1 36 29 bd
       0.08448781 0.044207893 0.06944081 -0.041311983
0000d0 50 ae 37 3d df 24 ae 3d b2 1b 38 bd ef 96 5d b8
       0.04484397 0.08503126 -0.044948287 -5.2831074e-05
0000e0 e1 5a ae 3c ae 7a 03 bc 7b 6a a5 3d 92 28 52 3c
       0.021283569 -0.008024855 0.0807695 0.0128270555
0000f0 a0 03 78 3d d4 77 49 3d a7 20 87 bd d0 70 57 3d
       0.060550332 0.049186543 -0.06598025 0.05259782
000100 7b e8 be bb 9b 93 ad bc a1 0d 81 bd 8b cb 90 3d
       -0.0058260537 -0.021188548 -0.06301428 0.07070073
000110 ac fa 1b 3c 1b d0 c7 bc 08 e8 78 3d 0c bd 96 3d
       0.009520214 -0.024391225 0.060768157 0.073602766
000120 ba a5 6e 3d 48 b4 9d 3d 72 f3 80 3d 22 45 bf 3c
       0.058263518 0.077004015 0.062964335 0.023348395
000130 20 8c a3 3c 87 27 53 3d 8e c4 b4 3d 2d 8d ec 3c
       0.019964278 0.051551368 0.08826552 0.028875912
000140 c4 6c 58 bd b6 09 42 bd 5e 84 f3 bc 01 e9 95 3c
       -0.052838102 -0.047372542 -0.029726204 0.018299581
000150 42 54 ac bd ef fd a5 bd 36 e9 ad 3c ac 31 79 bd
       -0.084145084 -0.081050746 0.021229368 -0.060838386
000160 7f 34 73 3d 61 5c 1b 3d f1 7c 88 3d 4a 52 20 bc
       0.059376236 0.037929896 0.06664456 -0.009785244
000170 25 d3 de 3c 8f 1f 98 3d c8 ae 1d bd d0 de a6 3d
       0.027200291 0.07427894 -0.038496763 0.08147967
000180 e2 33 fd bc e9 a9 51 bc f6 b8 89 bc 06 39 78 3d
       -0.030908529 -0.012796857 -0.016811829 0.060601257
000190 62 5c 4d 3d d5 85 91 bc 13 28 2e bd 0a b3 9e bd
       0.05013693 -0.017764011 -0.042518687 -0.07748993
0001a0 52 4b 91 bb f5 e7 75 bd 93 dc 2a bd cc 1e 9b 3d
       -0.0044340277 -0.060035665 -0.041714262 0.075742334
0001b0 95 1c 2f 3c c8 6b 93 3d 17 2b b2 bd cf 43 84 bb
       0.010687967 0.07198292 -0.08699625 -0.0040364037
0001c0 ad fa 0e b9 b9 e6 f7 bc cd 59 9a bd 14 bb ab 3d
       -0.0001363556 -0.030261384 -0.075366594 0.08385292
0001d0 97 98 96 3d 83 c5 d9 3c 9e fd c4 3b cd 31 34 3d
       0.07353323 0.026583439 0.006011679 0.043992806
0001e0 67 bc 7c 3c dc ba 8e 3b fb c6 ac bd ad 46 c8 3c
       0.015425778 0.0043557715 -0.0843639 0.024447763
0001f0 39 2d f2 bc f6 9a 5c 3d b4 2c 90 3d 91 83 3d 3d
       -0.02956258 0.05385872 0.070397764 0.04626805
000200 5a 8e 83 3d 43 56 23 bd 4a 9c 94 3b 17 ee a1 bd
       0.06423636 -0.039877187 0.0045352327 -0.0790674
000210 c4 b5 96 3d 98 3f 48 3d 86 37 c3 3c b3 20 01 bd
       0.07358888 0.048888773 0.023830187 -0.031525325
000220 1d 1c ef bc 36 bc 74 3d b8 de ad bd 6d 3a 74 bd
       -0.02918821 0.059749804 -0.08489746 -0.05962603
000230 b6 6d 9d bd be 57 10 bd a4 e7 a5 3d 4e 4e 1b 3d
       -0.07686941 -0.035239927 0.081008226 0.037916474
000240 97 8d 88 bc ae 3c 35 bc 64 e3 0b 3d 40 93 f1 bc
       -0.016669078 -0.01106183 0.034152403 -0.02948916
000250 c7 24 95 bd ab 39 9d 3c 22 a8 60 3d 11 16 86 3d
       -0.07282405 0.019192537 0.054847844 0.065471776
000260 ca 38 48 bd ba c1 17 3c e4 42 8a 3d b7 0d a1 3c
       -0.048882283 0.009262497 0.067510396 0.01965986
000270 52 b9 3d bd 1a d6 80 3d d6 d9 2c 3d 30 22 85 bd
       -0.046319313 0.06290837 0.042199932 -0.065006614
000280 8a be 29 3b 22 8e 99 3d c3 a9 ab bd 6f 71 03 bd
       0.0025900924 0.07497813 -0.08381989 -0.0320906
000290 bc 03 93 bc e0 d2 ef 3c af d7 58 3d 00 47 86 3c
       -0.017946117 0.029275358 0.052940067 0.016391277
0002a0 bc d5 90 bd 18 7d 04 3d 8d 25 e6 3a 80 eb 0d 3d
       -0.070720166 0.03234586 0.0017558798 0.03464842
0002b0 18 87 aa 3c 3e 23 07 3c 42 b5 cf 3c 0c 36 a8 3d
       0.02081637 0.0082481485 0.025354985 0.082134336
0002c0 87 3a 8a bd f2 7d f1 bc 44 41 61 3b 13 6a 33 3c
       -0.067494445 -0.029479 0.0034371177 0.010950583
0002d0 28 55 08 bd b4 7c 01 bd 46 67 9d bc 31 23 17 3d
       -0.033284336 -0.031613067 -0.019214284 0.036898796
0002e0 2d e4 b9 3c 2b e4 5e bd 5a db e4 3c d9 24 c8 bc
       0.02269181 -0.054416817 0.027936626 -0.024431633
0002f0 0b 8d be bc dc ef a9 3c f3 0b 25 bd f6 28 32 bc
       -0.023260614 0.020744257 -0.0402946 -0.010874024
000300 a8 10 5c 3c 9e a5 35 3d 58 25 65 bd 34 2a 03 3d
       0.013431706 0.044347398 -0.055943817 0.03202267
000310 a2 db 6e 3d 40 9a e5 bb 73 6b 3d bd 41 d0 d9 bc
       0.058314927 -0.0070069134 -0.04624505 -0.026588561
000320 e0 78 30 bd 90 12 a5 bd fd ec 07 bd c7 cf 83 3c
       -0.043084025 -0.08060181 -0.033184994 0.016090287
000330 8b 53 36 bc ee e2 36 3d 23 12 25 3d 6f 5e a3 3d
       -0.011128317 0.04465001 0.0403005 0.07976996
000340 1e 74 05 3d 6a 5f 70 bd 47 88 9b 3c 71 a6 a4 3d
       0.03258144 -0.058684744 0.01898588 0.08039559
000350 67 98 05 3d 85 5d c1 bc 99 f4 62 bd b1 55 4c 3d
       0.032616045 -0.023604164 -0.055409048 0.04988641
000360 71 2f 87 bd da 27 92 3d 2e ce c3 bc aa ca 8d bc
       -0.066008456 0.07136507 -0.023902025 -0.017308552
000370 ce 3d 4e 3c 86 78 8f bd cf a3 6b bc 73 2b 51 bd
       0.012587978 -0.0700541 -0.014382317 -0.051066827
000380 99 55 a5 3d fd d3 ee 3b 1b 0c a5 bc 5e 86 29 3c
       0.08072967 0.0072884546 -0.020147374 0.010346977
000390 3c 91 a3 3d f1 9c c0 3c fa 52 aa 3d 65 83 b3 3d
       0.07986686 0.023512335 0.08316608 0.08765296
0003a0 a4 17 94 bc c9 0b b0 bd 77 23 31 3a 32 33 ba bc
       -0.018077679 -0.08595998 0.0006757299 -0.02272949
0003b0 23 7a 49 3d a1 fa 6b bd ae d6 2b bd 67 77 02 bd
       0.049188744 -0.057612065 -0.04195278 -0.031852152
0003c0 c3 85 80 3d 3e 0b 9f bd 76 64 83 bd bb ef ae bd
       0.06275513 -0.07765816 -0.06415646 -0.08541819
0003d0 cb 86 0f bd 40 61 48 bd a4 73 e2 3c 49 94 a6 3c
       -0.035040658 -0.04892087 0.027643032 0.02033438
0003e0 eb 9e ad 3d 31 93 6b 3d 64 9f de 3c 5d b7 84 bd
       0.08477577 0.05751342 0.027175613 -0.06480286
0003f0 ea a5 aa 3d 95 4e b3 3d 2a 0d 08 3d 86 ec 6c bc
       0.08332427 0.08755223 0.03321568 -0.014460688

2.bias f4 [128]
000000 0a 57 af 3d cf 44 b0 3d 2e 7f 90 bd aa 32 f9 bc
       0.08561523 0.08606874 -0.070555076 -0.030419666
000010 cf 3e 80 3d 5d d5 27 bd 95 18 61 3d 07 a9 77 bd
       0.0626198 -0.040974963 0.054955084 -0.06046393
000020 67 22 a9 bd 0f a1 17 bd 3a fd 73 3d 6c ff 02 3d
       -0.08258515 -0.03701883 0.059567668 0.03198187
000030 ae eb ae bd 47 85 20 bd cf e5 8f bc c5 25 8d 3d
       -0.08541046 -0.039189603 -0.017565636 0.068919696
000040 77 b1 9b bc fa 6a 9f 3d be f2 89 bd fd b8 2a 3d
       -0.01900552 0.07784076 -0.067357525 0.041680325
000050 06 5c 89 3c 64 14 03 3d e2 d7 64 bd d2 69 9f 3d
       0.016767513 0.032001868 -0.055869944 0.077838555
000060 b0 ae 0d bd 03 20 b0 3d bf 30 b1 bc 2a a0 8b bd
       -0.034590423 0.08599856 -0.02162969 -0.06817658
000070 ad 59 da 3b 9f 75 9b bd 8a 02 98 bc e3 ba 48 3d
       0.006663522 -0.07590794 -0.018555898 0.049006354
000080 93 e4 4e 3d 87 c7 50 bd e6 52 95 bb 79 35 57 bc
       0.050510954 -0.050971534 -0.0045570014 -0.0131353075
000090 0f 82 ba bb 73 a3 33 3d 70 bf 31 bd 68 39 ab 3d
       -0.0056917737 0.04385705 -0.04339546 0.08360559
0000a0 9e 1a 99 3c 9d ea ee 3a f9 7e ac 3d 2b 0c 32 3d
       0.01868945 0.0018227879 0.084226556 0.043468636
0000b0 85 fc f5 bc d3 59 1e bd db 5e 84 3b 9b ec 61 3d
       -0.030027637 -0.03865988 0.004039628 0.055157285
0000c0 be 54 87 bd 7b 50 eb bc a7 46 91 3d 40 77 7a 3c
       -0.0660796 -0.0287249 0.07093554 0.0152872205
0000d0 ff d1 23 bd 59 c3 5d bc c1 51 88 bc 7d fb 06 3d
       -0.03999519 -0.013535344 -0.016640546 0.03295468
0000e0 0d b0 b4 bc 08 a8 9b 3d 0a 9c 80 3d 3b e8 78 3d
       -0.022056604 0.07600409 0.06279762 0.060768347
0000f0 ee 7b 2f bd 11 31 1e 3c 7c 8c 69 3d a5 54 26 3d
       -0.042842798 0.009655253 0.057018742 0.040608067
000100 aa 63 71 bd 3c 7f df 3c c4 8d 93 3d d9 71 67 bc
       -0.058932938 0.02728235 0.07204774 -0.0141262645
000110 de 69 39 3d 4c 74 8f b7 34 a1 b2 3d ff 4a ad 3c
       0.04526698 -1.7101083e-05 0.08722153 0.021153925
000120 7a 75 9e 3c 27 36 2e 3c 41 6f 93 bd c5 25 5e 3d
       0.019343127 0.010633028 -0.071989544 0.05423524
000130 b5 4d 99 bd a5 66 ef bc 77 b8 5d 3d f3 dd f7 bc
       -0.074855246 -0.02922375 0.054130998 -0.0302572
000140 0d 61 b9 bc 63 ed 3e bd 5f 64 0a bd 49 da 6c bd
       -0.022629285 -0.04661311 -0.033787128 -0.05782536
000150 37 84 42 bd 3c ee 1f bd ef a5 8b 3d c8 56 16 bd
       -0.04748937 -0.039045557 0.06818759 -0.036703855
000160 ed 84 48 bd ac 26 a4 bc d8 7d a3 3d 1b a4 97 bd
       -0.048954893 -0.020037971 0.07982987 -0.074043475
000170 5c 69 a2 bd a8 cb 16 bc 00 72 69 3d 4a 1d 91 3d
       -0.07930252 -0.009203829 0.056993484 0.070856646
000180 c0 b9 93 bc 2d 97 44 3d 3c b6 f0 3b 68 31 64 bc
       -0.018032908 0.047995735 0.007345943 -0.013927795
000190 b0 2b 0f 3c af 2b aa 3d c9 6c 37 3d 2e 2d 54 3d
       0.008738443 0.08309113 0.04478148 0.0518009
0001a0 5b 33 a3 bd 86 54 ce bc 63 47 0f 3d 1c a3 07 bd
       -0.0796878 -0.025186788 0.03498019 -0.033114538
0001b0 bd 05 2c bd 41 56 84 3d 0d 36 85 3d 0b e2 3f bd
       -0.04199766 0.06461764 0.0650445 -0.04684643
0001c0 02 ef 94 bd f5 a3 9d bd e6 25 7a 3d cb 1c 8b 3c
       -0.072721496 -0.07697288 0.0610713 0.016981503
0001d0 4e a2 b9 3c fa 91 8a bc 8d 91 b1 bc 24 ae 8b bd
       0.0226604 -0.01691531 -0.02167585 -0.06820324
0001e0 a7 82 54 3d fe da 6a 3c 8b 84 12 3d 1b 62 4f bb
       0.051882412 0.014334438 0.035770934 -0.0031644169
0001f0 f0 63 02 bd 14 9e 40 3d f8 f5 b2 3d 28 f9 78 bd
       -0.03183359 0.047025755 0.08738321 -0.06078449

4.weight f4 [4, 128]
000000 4a 42 db 3c ad 09 ad bc 26 c1 31 bb b8 63 f1 bc
       0.026765008 -0.021122778 -0.0027123182 -0.029466495
000010 b5 af ed bc 98 dd 9f 3c 75 d7 85 3d 27 7c 9b bd
       -0.029014448 0.019514844 0.06535236 -0.075920396
000020 9c 72 26 bb 5b 3c 7b 3d a5 3e 4e 3d 0b 96 b2 3d
       -0.0025397902 0.061336856 0.05035271 0.08720025
000030 5d 7c a4 bc b4 2e 39 bd d0 48 1d bd a6 e8 89 3d
       -0.020078832 -0.045210555 -0.038399518 0.06733827
000040 19 b6 49 bd a0 8f 27 bd e9 4b 3c bc 83 58 ae 3d
       -0.049245927 -0.040908456 -0.011492708 0.08512976
000050 37 ce 89 bd ed f6 4e 3d d5 20 66 bd be b7 b3 bd
       -0.067287855 0.050528456 -0.056183655 -0.087752804
000060 41 65 a7 bd 5b c5 53 3d dc 95 97 bd ca bc 69 3b
       -0.081736095 0.051701885 -0.0740163 0.0035665506
000070 b8 fa 23 3d 58 28 a1 bd 36 56 4e bd 94 50 5d 3b
       0.040034026 -0.07869023 -0.050375186 0.0033769952
000080 e2 fc a3 3c d6 e3 2e 3d 1e f1 8d 3d e8 cc 31 3d
       0.020018045 0.04269775 0.06930755 0.043408304
000090 1a d1 51 bd c0 db 92 3d d5 58 84 3d 31 97 83 bd
       -0.051224805 0.0717082 0.06462256 -0.06425322
0000a0 14 ec b0 bd e9 a9 4b 3d 6a 3d b4 bc b8 15 83 3d
       -0.08638778 0.049722586 -0.02200194 0.06400627
0000b0 c9 26 9d bd f9 3a 68 3d ba ad 8f bd b0 10 9f 3b
       -0.07673413 0.056696866 -0.070155576 0.004854284
0000c0 5e 95 d8 3c 15 20 f9 bb 79 1a f4 bc 61 05 07 3d
       0.026438411 -0.0076027014 -0.02979778 0.032964114
0000d0 70 c4 c7 3b 5d 17 23 bd 37 a1 90 bd f2 12 7d 3d
       0.006096415 -0.039817203 -0.07061999 0.061785646
0000e0 64 3a 22 3d 86 b9 03 3c 87 f5 16 bd c3 04 3b 3d
       0.039606467 0.008039838 -0.036855247 0.045658838
0000f0 23 a3 90 3d bb 6a a9 bd 71 38 62 bd 2b cc 4e 3d
       0.07062366 -0.0827231 -0.055229608 0.05048768
000100 d6 48 1b bd be be 8f bd 4c 0a 46 bd 3a 7e 1c 3d
       -0.03791126 -0.07018803 -0.048349664 0.038206317
000110 38 53 a7 bd 54 0e 2b bc e7 19 8e bb d5 f6 62 3c
       -0.081701696 -0.010440428 -0.004336584 0.013852795
000120 32 2c a7 3d 62 d8 12 3d 39 89 b2 3d d8 22 25 3d
       0.081627265 0.03585089 0.087175794 0.040316433
000130 d8 34 4c bc 8f b5 88 bd 28 eb 59 3d 02 a6 b6 3c
       -0.012463771 -0.066752546 0.053202778 0.022295956
000140 9a ba 69 bd 07 41 e4 bc e1 8d 84 3b ac 81 0a 3d
       -0.057062723 -0.027863039 0.0040452336 0.03381507
000150 f8 bb bb 3c 7c 24 a9 3d bb e0 67 3b 77 eb 6a bd
       0.022916779 0.08258912 0.0035381753 -0.057353463
000160 b2 5e 46 3d fb 69 3f 3d 61 7b 50 bd b6 94 a9 bd
       0.048430152 0.04673193 -0.050898913 -0.082803175
000170 76 f8 7c bd 52 47 fe bc c7 5a 91 bd cd 42 26 3d
       -0.06176039 -0.031039868 -0.070973925 0.04059105
000180 16 9f 9f bd b7 7f a3 bd 7b d5 39 3d b5 de 37 3d
       -0.07794015 -0.07983344 0.045369606 0.044890124
000190 dd cc f4 3c 4f 63 9d bd 34 56 ac 3d f4 24 01 bc
       0.029882843 -0.07684957 0.084148794 -0.0078823455
0001a0 c9 54 2d 3d e2 f7 2f bd ad 70 b0 3c d8 20 94 bd
       0.042317186 -0.04296101 0.021538103 -0.07232827
0001b0 ee 64 a2 3d 80 4b 9b bd 11 d6 3b bd 04 dc 49 bd
       0.07929407 -0.0758276 -0.045858447 -0.04928209
0001c0 6d 12 9c bd 0b 4c 5e bc 8d 29 85 bd de 88 51 3d
       -0.07620702 -0.013567935 -0.06502066 0.051155917
0001d0 79 e2 07 bd 4d 56 7a 3d 0a 8c 44 3c b5 e7 97 3d
       -0.033174966 0.06111746 0.011996279 0.074172415
0001e0 32 6e 27 3d f0 42 8a bc d1 b3 8d bb 4e 7d 2a 3d
       0.040876575 -0.016877621 -0.0043244143 0.041623406
0001f0 8d 79 6f bd f0 66 31 3d 5c c6 0c bc 16 5e 93 3d
       -0.05846553 0.04331106 -0.008592214 0.0719568
000200 8e d5 55 3b 96 1f 22 bd 56 7f 8d bc 36 07 57 bd
       0.003262851 -0.039580904 -0.017272633 -0.05249711
000210 8a 2f 09 bd 89 ce 3a 3d e8 fe a1 3d ac b7 13 3c
       -0.033492602 0.045607124 0.07909948 0.009015959
000220 7b cd f8 3c 9b f3 03 3d 41 93 44 bd 33 0b d3 b9
       0.030371418 0.032214742 -0.047991995 -0.000402534
000230 28 18 97 b9 f2 29 8a 3d b9 b1 4d bd a7 44 f5 bc
       -0.00028818962 0.06746282 -0.050218318 -0.029939963
000240 f6 53 8b 3d 30 48 14 bc 96 f7 9e 3d ea 81 a5 3d
       0.06803124 -0.009050414 0.07762067 0.0808142
000250 3f ee a0 bd 32 53 31 3c c2 e9 06 3d aa c6 aa bd
       -0.07857942 0.010823058 0.032937773 -0.083386734
000260 35 fc a6 3c df 1a 35 3b 7a b6 8d bd c7 cb 96 bd
       0.020383934 0.0027634425 -0.0691957 -0.07363086
000270 59 20 83 bc 37 26 d9 3c d1 e9 80 bd 1b 86 57 bd
       -0.016006636 0.02650748 -0.06294597 -0.052618127
000280 b7 d5 98 bd 23 22 05 3d 25 e1 b3 3d 48 24 2d b9
       -0.07462638 0.03250326 0.08783177 -0.00016512081
000290 cb 2b 57 3d 27 08 68 3c 42 d1 5d bd 66 f1 2d 3d
       0.052532 0.0141621 -0.054154642 0.042466544
0002a0 eb 0f b0 bd c6 25 1c 3d 90 bf 5a bd e6 02 47 bd
       -0.08596786 0.03812196 -0.053405344 -0.04858675
0002b0 6d bc 30 bd 0d 7b 85 3d 47 24 0e bd 0a 10 98 3c
       -0.043148447 0.06517611 -0.034702566 0.018562336
0002c0 fc 13 9f 3d e2 5f c1 bc db 48 a1 3d 7d 8d 24 3d
       0.077674836 -0.02360529 0.07875224 0.040173996
0002d0 0c df 6c 3d 03 9c 38 3b 33 3a ba bb 14 56 76 bc
       0.0578299 0.0028169162 -0.0056832074 -0.015035171
0002e0 ed a5 40 bd 22 2e 1f 3d 23 0c 12 3c 23 e1 8d 3c
       -0.04703324 0.038862355 0.008914026 0.017319268
0002f0 ec a1 a6 3d b0 2c 23 bd fb 53 bb b9 f1 61 8e 3b
       0.08136353 -0.03983754 -0.0003572999 0.0043451716
000300 c9 16 82 bd cc e7 48 3d 6a 7d 2c 3d 4a 55 8c bc
       -0.06352002 0.049049184 0.04211179 -0.017130513
000310 ab 57 9c 3d 61 5e 82 3a 31 05 57 3d 57 3e 60 3d
       0.07633909 0.000994634 0.052495185 0.054746952
000320 cf 67 94 3d f2 ce 66 bd e7 64 9a bd 36 e6 7c 3d
       0.072463624 -0.056349702 -0.07538777 0.061742984
000330 4e bf f6 bc 53 bf ac bd ee a4 b3 3d a3 a3 9b bd
       -0.030120518 -0.0843493 0.08771692 -0.075995706
000340 2a 13 f3 3a 90 34 0a 3d 71 92 19 bd 17 1a 8a 3d
       0.001854514 0.033741534 -0.037493173 0.067432575
000350 3e 93 9e bc e0 1d 8d bd 74 0e 86 3d 2d 4b 13 bd
       -0.01935732 -0.06890464 0.065457255 -0.035960365
000360 3c 64 91 bd 67 85 3b 3d 29 ce ba bb ac 36 86 3d
       -0.07099196 0.04578152 -0.0057008457 0.065533966
000370 66 15 9a 3c 50 ab 45 bd c1 a3 34 bd d2 06 04 3d
       0.018809032 -0.04825908 -0.04410148 0.032233067
000380 52 87 57 3c ca ca 45 3d 20 7a 30 3d f7 2c 9c bd
       0.0131548215 0.048289098 0.043085217 -0.07625764
000390 f0 e0 d0 bc 56 58 96 3d 17 bd 1b bd 6f e4 10 bd
       -0.025497884 0.073410675 -0.038022127 -0.0353741
0003a0 a8 54 02 3b b4 82 7f 3d ab 5d b1 3d 15 1b 45 3d
       0.0019886885 0.062380508 0.08660444 0.04812153
0003b0 65 b4 45 bd d9 bb 22 3d ad ec 90 bc fd bd 1a 3d
       -0.04826774 0.039729927 -0.01769098 0.037778843
0003c0 7a f3 9d bd f1 52 37 bc eb b8 a2 3c 6c 16 06 bd
       -0.07712455 -0.011189208 0.019863566 -0.032736227
0003d0 3d ff 14 3d 26 ef 85 bd 6e 11 66 3d 0a 7c 91 3d
       0.036376227 -0.065397546 0.056168966 0.07103737
0003e0 dc dd 6b bd c0 bb 91 bb fb fe a4 3d 25 8a 99 3d
       -0.05758463 -0.0044474304 0.08056446 0.07497052
0003f0 77 a3 d8 3c 60 49 95 3c 3a 66 b1 3d 94 9f a3 bd
       0.026445134 0.018223464 0.08662076 -0.079894215

4.bias f4 [4]
000000 30 d8 74 3d e9 74 a9 3b 21 7e b3 3d 23 21 d8 bc
       0.059776485 0.0051714075 0.087642916 -0.026382988
