dql_2048.pth (torch, 202322 bytes, 6 tensors)

0.weight f4 [128, 256]
0	0x3d53c9f2	0.051706262
1	0x3d732d5e	0.059369437
2	0xbba9b590	-0.0051791146
3	0xbc1d0b70	-0.009585246
4	0xbd69a456	-0.05704149
5	0x3ca8cc40	0.020605206
6	0xbd1bc2b8	-0.038027495
7	0xbd11f322	-0.03563226
8	0xbcc0ec7c	-0.023550265
9	0xbc5f4068	-0.0136261955
10	0xbc84dc80	-0.016218424
11	0x3c79bed8	0.015243255
12	0x3cf8ed00	0.030386448
13	0x3c3d0230	0.011536166
14	0x3b1839c0	0.002322778
15	0x3d25ba24	0.04046072
16	0x3d38a74e	0.04508143
17	0x3b760be0	0.00375437
18	0x3d744718	0.059638113
19	0x3d7015f0	0.05861467
20	0xbc467b20	-0.012114316
21	0xbd2782e6	-0.04089632
22	0x3d685388	0.056720287
23	0xbcd71834	-0.026256658
24	0xbbea4550	-0.007149376
25	0x3a81d8c0	0.0009906515
26	0xbc9bde14	-0.019026794
27	0xbd40c018	-0.047058195
28	0xbb99ba40	-0.004691392
29	0x3d55c7b2	0.052192397
30	0xbce91e18	-0.028456733
31	0xbb821230	-0.0039694533
32	0xbd656228	-0.056001812
33	0xbcbbfb04	-0.022946842
34	0xbc3acd58	-0.011401497
35	0xbd5cf670	-0.05394596
36	0xbd1539f8	-0.036432236
37	0x3b41c1a0	0.0029564872
38	0xbd40322a	-0.04692284
39	0xbd16ed16	-0.036847197
40	0xbd2669e0	-0.040628314
41	0x3d741926	0.059594296
42	0xbc85c78c	-0.016330503
43	0xbd57f630	-0.052725017
44	0xbc94eb04	-0.01817847
45	0x3b285380	0.0025684536
46	0x3ca00058	0.019531414
47	0x3ce87ca0	0.028379738
48	0x3d37f912	0.044915266
49	0x3c8020a4	0.015640564
50	0xbc732948	-0.014841385
51	0x3cba52bc	0.022744529
52	0x3b6f0b60	0.0036475286
53	0xbd2c772c	-0.04210584
54	0xbd4c419e	-0.049867265
55	0x3d534474	0.051578954
56	0xbb1d33c0	-0.0023987144
57	0xbd635b68	-0.055507094
58	0xbd40bd98	-0.04705581
59	0x3d6e478a	0.058173694
60	0x3cc30e98	0.02381067
61	0xbd1a67ee	-0.03769677
62	0x3c5cc3c8	0.013474412
63	0xbc87c818	-0.016574904
64	0x3d35b162	0.04435862
65	0x3d23b7ae	0.039970092
66	0xbbaafa00	-0.0052177906
67	0x3d0e34f4	0.03471847
68	0x3d1e1766	0.038596533
69	0x3c8ca788	0.017169729
70	0xbcd4851c	-0.025942378
71	0xbbfe3aa0	-0.0077584535
72	0xbc2d19b0	-0.010565206
73	0x3d7ba9f4	0.061441377
74	0x3d4fb346	0.050708078
75	0x3cc3c270	0.023896426
76	0xbcc96f28	-0.024589136
77	0xbd3a9968	-0.045556456
78	0x3b9c8420	0.0047764927
79	0xbd313c9c	-0.043270692
80	0xbcbabca8	-0.022795036
81	0xbc856450	-0.016283184
82	0xba9a0900	-0.001175195
83	0x3c8c6e48	0.01714243
84	0xb8bef400	-9.1053545e-05
85	0xbb65cf20	-0.0035066083
86	0xbd46892e	-0.04847067
87	0xbd7d32d4	-0.06181605
88	0x3d48720a	0.04893688
89	0xbd4a7bd0	-0.049434483
90	0x3d088bf2	0.033336587
91	0xbd69c976	-0.057076894
92	0x3d4b241a	0.049594976
93	0xbd6398b6	-0.05556556
94	0xbb4da5c0	-0.0031379312
95	0xbd3bbc72	-0.045834012
96	0xbc5b1b18	-0.013373159
97	0xbd0ede28	-0.034879833
98	0x3d333e96	0.04376086
99	0x3c8fcba0	0.01755315
100	0xbd365a26	-0.044519566
101	0x3c9937c8	0.018703356
102	0xbcbfcde0	-0.023413599
103	0xbd33556e	-0.043782644
104	0x3c848f9c	0.01618176
105	0xbcbce954	-0.023060478
106	0x3c00a4a0	0.00785175
107	0xbc8261d0	-0.015915781
108	0xbb5cb500	-0.003367722
109	0xbc9c564c	-0.019084118
110	0xbd43f9ce	-0.047845654
111	0xbcc50580	-0.024050474
112	0xbd39e77e	-0.045386784
113	0x3d3a3766	0.04546299
114	0xbd75e5a8	-0.06003347
115	0xbd576a88	-0.05259183
116	0x3d727c34	0.05920048
117	0x3c74b670	0.014936075
118	0x3b3ad6c0	0.0028509349
119	0x3d4d1296	0.050066553
120	0x3b928480	0.0044713616
121	0x3d1005fc	0.035161957
122	0x3c98e94c	0.018665932
123	0x3d725dac	0.059171364
124	0xbc6ada68	-0.014334299
125	0xbc529318	-0.012852453
126	0xbbbc8510	-0.005753167
127	0xbd2c4034	-0.042053416
128	0xbbc3ced0	-0.0059755817
129	0x3d2c5fea	0.04208366
130	0x3c1d5f48	0.009605236
131	0x3d74220c	0.059602782
132	0x3d4eee6c	0.050520346
133	0x3c2b9a88	0.010473855
134	0x3d26b90c	0.04070382
135	0x3cf7cfa0	0.03025037
136	0xbd589e64	-0.052885428
137	0xbaf54080	-0.0018711239
138	0x3cd0f7d8	0.025508806
139	0xbd11c164	-0.035584822
140	0x3cb7696c	0.022389136
141	0xbc781838	-0.015142493
142	0x3d75f2ea	0.060046114
143	0xbae4b780	-0.0017449707
144	0xbc613fd0	-0.013748124
145	0xbd7c96a8	-0.061667114
146	0xbc0803a8	-0.008301653
147	0xbd4f9740	-0.050681353
148	0xbd1cf70e	-0.038321547
149	0xbbc2d7b0	-0.005946122
150	0x3c934960	0.017979324
151	0xbce82610	-0.028338462
152	0xbbd7b4d0	-0.006582834
153	0xbd0f2154	-0.034943894
154	0xbd1e0034	-0.038574412
155	0xbbed4d40	-0.007241875
156	0xbc92318c	-0.017845891
157	0x3d1016b8	0.035177916
158	0x3c4179c8	0.01180882
159	0x3d3f5314	0.04671009
160	0x3d386f5e	0.045028083
161	0xbceb1a3c	-0.028699033
162	0x3bb242a0	0.005440071
163	0xbc9512f8	-0.018197522
164	0xbd6e2f74	-0.058150724
165	0xbcde1920	-0.02711159
166	0xbd32a384	-0.043612972
167	0x3d711aea	0.058863558
168	0xbd2be00c	-0.041961715
169	0xbd577248	-0.05259922
170	0xbd20164e	-0.03908377
171	0xbd6ebd42	-0.05828596
172	0xbc7816a8	-0.01514212
173	0xbc8263d0	-0.015916735
174	0x3d7f6664	0.062353507
175	0xbd0104b4	-0.031498626
176	0x3ca8d3b4	0.02060876
177	0x3ca2a584	0.019854315
178	0x3d6819a2	0.05666507
179	0x3b88d040	0.004175216
180	0xbd6f6db8	-0.058454245
181	0x3d4ad96a	0.04952375
182	0xbbea0ce0	-0.007142648
183	0xbce93408	-0.028467193
184	0xbc0284c0	-0.00796622
185	0xbd42b48a	-0.047535457
186	0xbd4a7990	-0.049432337
187	0x3cbfcf68	0.023414329
188	0x3d1a0052	0.03759796
189	0x3d199ad2	0.037501164
190	0xbcb9f47c	-0.022699587
191	0x3cb47b34	0.022031404
192	0xbd21e982	-0.03952933
193	0xbd5fda3c	-0.054651484
194	0xbce8055c	-0.028322868
195	0xbd2607e6	-0.040534876
196	0x3c8588f4	0.016300656
197	0xbcde2f4c	-0.027122162
198	0xbd40cca2	-0.047070153
199	0xbc859740	-0.016307473
200	0x3d71c518	0.059025854
201	0xbd2cdab0	-0.042200744
202	0xbd2cd9a4	-0.042199746
203	0x3d159276	0.03651663
204	0xbc68ec28	-0.01421646
205	0x3bbb1000	0.0057086945
206	0x3cc09e34	0.023512937
207	0x38e30400	0.000108249485
208	0x3d2b5d92	0.041837282
209	0x3c2902c8	0.0103156045
210	0xbd319f12	-0.043364592
211	0x3d12aac6	0.035807393
212	0xbd14769c	-0.036245927
213	0x3d5ee014	0.054412916
214	0xbd64ea90	-0.05588776
215	0x3d56ee60	0.052473426
216	0x3cf237e8	0.029567674
217	0xbc4c0000	-0.012451172
218	0xbcb63c2c	-0.022245489
219	0x3d58b6f6	0.05290886
220	0xbd639134	-0.0555584
221	0x3d6eb038	0.058273524
222	0x3cde9f54	0.027175583
223	0xbcfac45c	-0.03061121
224	0x3bb5f6c0	0.0055530965
225	0xbc9ce084	-0.019150026
226	0x39c07d00	0.00036714226
227	0xbd067126	-0.03282275
228	0xbd672b46	-0.056437753
229	0x3d2d3eba	0.04229615
230	0x3ce861dc	0.028366975
231	0xbd4ca3aa	-0.04996077
232	0x3d71bd6a	0.05901853
233	0x3c9fef0c	0.019523166
234	0x3c696028	0.014244117
235	0x3d133c34	0.035946086
236	0x3d57ddae	0.052701645
237	0xbd32ce30	-0.043653667
238	0x3ca0de28	0.019637182
239	0xbd3436f0	-0.043997705
240	0xbd7b3d96	-0.06133803
241	0xbd3bff42	-0.04589773
242	0x3d0550aa	0.03254763
243	0xbd627aa4	-0.05529274
244	0x3c98b13c	0.0186392
245	0x3ccaf5d4	0.024775423
246	0xbd3d75e6	-0.046255015
247	0xbd1d5e1c	-0.038419828
248	0x3d43d076	0.047806226
249	0xbd644bc8	-0.055736333
250	0xbcbb22c0	-0.022843719
251	0x3cf20f94	0.029548444
252	0x3ca07f0c	0.01959183
253	0xbd65e3d0	-0.056125462
254	0xbc66c858	-0.014085852
255	0xbd03c17e	-0.03216695

0.bias f4 [128]
0	0x3c799870	0.015234098
1	0x3d0b8aea	0.034068026
2	0x3d4a3690	0.04936844
3	0x3d7ca602	0.061681755
4	0xbcaa5450	-0.020792156
5	0x3ce482ec	0.02789446
6	0x3ab1df40	0.0013570562
7	0x3c200d48	0.0097687915
8	0x3d3fc7e4	0.04682149
9	0x3d7c39f8	0.06157872
10	0xbc8e8bb8	-0.017400607
11	0x3d504abc	0.050852522
12	0xbc89f754	-0.016841568
13	0x3d004e62	0.03132475
14	0x3cdc0268	0.026856616
15	0x3c8eab7c	0.017415754
16	0xbcf5da74	-0.030011393
17	0x3d5a44ea	0.053288378
18	0x3b62d520	0.0034611896
19	0xbd60e914	-0.05490978
20	0x3d0c14f0	0.034199655
21	0x3d767602	0.060171135
22	0x3d1cb6c6	0.038260244
23	0xbd656fba	-0.056014754
24	0xbd6aa2f4	-0.05728431
25	0x3d2ebb8c	0.042659327
26	0x3ca14e38	0.019690618
27	0x3bc437b0	0.005988084
28	0x3d1ee4b2	0.03879232
29	0x3d003ec8	0.031309873
30	0x3ce58fa8	0.028022602
31	0xbd71e68c	-0.059057757
32	0xbc682a10	-0.014170185
33	0x3ba63900	0.005072713
34	0xbcb188f4	-0.02167175
35	0x3c5d37d8	0.013502084
36	0xbce0dd48	-0.027449265
37	0xbcc1188c	-0.023571275
38	0xbce0f3e8	-0.027460054
39	0xbd527072	-0.051376767
40	0x3be7ef80	0.007078111
41	0x3d0d6daa	0.034528412
42	0x3d69f5d2	0.0571192
43	0xbcbdebf0	-0.023183793
44	0x3c44e990	0.012018576
45	0x3b653fe0	0.00349807
46	0x3ca1b028	0.019737318
47	0x3cc8b068	0.02449818
48	0xbc863fc4	-0.016387828
49	0x3cae4510	0.021273166
50	0xbd37a882	-0.044838436
51	0xbd42844c	-0.04748945
52	0x3c81b748	0.015834466
53	0x3d214004	0.03936769
54	0xbd02da2c	-0.031946346
55	0xbd02da48	-0.03194645
56	0x3d5c11c4	0.05372788
57	0xbc093270	-0.008373842
58	0xbd350246	-0.04419162
59	0x3d7a2b10	0.061076224
60	0xbd5943a4	-0.053043023
61	0x3d5e8f5e	0.054335944
62	0x39caf500	0.00038710982
63	0x3c447268	0.011990167
64	0x3cfccf80	0.030860662
65	0x3cf8b268	0.030358508
66	0xbcdaf768	-0.0267293
67	0x3c7273e8	0.014798142
68	0x3ce16254	0.027512707
69	0xbd577aa0	-0.05260718
70	0xbc33e030	-0.010978743
71	0x3d6cc560	0.05780542
72	0x3ca6bcec	0.020353757
73	0x3cc02f2c	0.023459993
74	0x3ccdeeac	0.025138222
75	0xbd039190	-0.03212124
76	0x3c4507e8	0.012025811
77	0xbca54728	-0.020175532
78	0xb9f37000	-0.00046432018
79	0xbd1ef244	-0.03880526
80	0xbd51540c	-0.051105544
81	0xbd63f38a	-0.05565218
82	0x3d7b125c	0.061296806
83	0xbcac7fdc	-0.021057062
84	0x3d32ba6a	0.04363481
85	0x3b98d2e0	0.00466381
86	0x3a857680	0.001018241
87	0x3d7c2b72	0.06156487
88	0xbbafea90	-0.005368538
89	0x3cf8c084	0.030365236
90	0xbd797338	-0.060900897
91	0x3d3e04f2	0.046391435
92	0x3c6683f0	0.014069542
93	0xbcd2b2d8	-0.025720045
94	0xbd1b51bc	-0.037919745
95	0xbd09f580	-0.033681393
96	0xbc625fa8	-0.013816752
97	0x3c184228	0.009293117
98	0x3ce9f4e0	0.028559148
99	0x3c464378	0.012101047
100	0xbd6770e2	-0.056504138
101	0xbc054b10	-0.008135572
102	0xbc330950	-0.010927513
103	0xbd3c5428	-0.045978695
104	0x3c47b138	0.012188248
105	0xbd4aef54	-0.049544647
106	0x3c9bbf78	0.019012198
107	0xbd200b94	-0.03907354
108	0xbc509290	-0.012730256
109	0x3d32c198	0.043641657
110	0x3d35a092	0.044342585
111	0x3d3f4cb4	0.04670401
112	0xbd70d08e	-0.058792643
113	0x3ce01068	0.027351573
114	0xbd4e6bfa	-0.050395943
115	0xbd4ecb64	-0.050486937
116	0xbca460f4	-0.020065762
117	0x3d3738b4	0.04473181
118	0xbd4c756a	-0.049916662
119	0x3cf72290	0.030167848
120	0xbd1cabb4	-0.038249686
121	0xbd2ed726	-0.04268565
122	0xbd6900a4	-0.056885377
123	0x3d2aa632	0.041662402
124	0xbc779a08	-0.0151124075
125	0xbce39160	-0.027779281
126	0xbcad1fe8	-0.021133378
127	0xbd33694e	-0.0438016

2.weight f4 [128, 128]
0	0xbcf00e19	-0.029303597
1	0xbdb3329a	-0.08749886
2	0x3d835e5e	0.064144835
3	0x3d4da09e	0.050202005
4	0xbd4e9416	-0.050434195
5	0xbd6ff321	-0.058581475
6	0xbd4fc854	-0.050728157
7	0xbcf963b3	-0.030443048
8	0x3cac9210	0.021065742
9	0xbd5a4227	-0.053285744
10	0xbcfd2322	-0.030900542
11	0xbd9ecfaf	-0.07754456
12	0xbdac8827	-0.084244065
13	0x3d5d298e	0.053994708
14	0xbd866274	-0.06561747
15	0xbd63d5bc	-0.055623755
16	0xbd95ea7c	-0.07320115
17	0x3dacc00e	0.08435069
18	0x3da71ec4	0.08160165
19	0x3d97f48d	0.07419691
20	0xbd99dc22	-0.0751269
21	0xbd8589ed	-0.06520448
22	0x3baad716	0.0052136285
23	0x3b4744a0	0.0030405894
24	0xbd87f626	-0.06638746
25	0xbd10b8b2	-0.03533239
26	0xbc6827b5	-0.014169623
27	0xbda2e753	-0.07954278
28	0x3ad14bf4	0.001596807
29	0xbd88bfcd	-0.06677208
30	0x3d1dcc2e	0.0385248
31	0x3d373c07	0.04473498
32	0xbd7c2148	-0.061555177
33	0x3cad2e0c	0.02114012
34	0xbda98589	-0.08277423
35	0x3d671cd7	0.05642399
36	0x3cdd48c1	0.02701223
37	0xbd9b1da6	-0.07574014
38	0x3d98b99a	0.07457276
39	0x3d21d80a	0.03951267
40	0xbd33b1b7	-0.043870654
41	0xbd69740c	-0.056995437
42	0xbc3fb70b	-0.011701356
43	0xbdadfb60	-0.084952116
44	0x3d97f0d9	0.07418985
45	0xbcf4d3bc	-0.029886119
46	0xbd0a7b05	-0.033808727
47	0xbcf62966	-0.030049037
48	0xbcf187a6	-0.029483628
49	0xbccc0047	-0.024902476
50	0xbd9a2a9e	-0.0752766
51	0x3d003624	0.031301633
52	0xbd805849	-0.06266839
53	0x3bef1b24	0.0072969366
54	0xbd6b40a9	-0.05743471
55	0xbc878ed0	-0.01654759
56	0x3d8b6086	0.0680552
57	0xbd46d18e	-0.04853969
58	0xbdb1b63a	-0.08677335
59	0x3db341fb	0.08752819
60	0xbd0ede8e	-0.034880213
61	0x3dae65a2	0.08515479
62	0x3bdf0e95	0.0068071582
63	0x3ad9f8a0	0.0016629882
64	0xbd62cb33	-0.055369567
65	0x3dad9db9	0.08477349
66	0x3d9eb373	0.07749071
67	0x3d2aee27	0.041731026
68	0xbc84c82b	-0.016208729
69	0xbd3338d2	-0.04375536
70	0x3d4e06da	0.050299503
71	0xbd83aeca	-0.06429823
72	0xbd5648db	-0.052315574
73	0xbd7fe2c2	-0.062472112
74	0xbd9d20fa	-0.076723054
75	0xbc680c70	-0.014163122
76	0xbd5d9aa0	-0.05410254
77	0xbd728854	-0.059212044
78	0x3b9e580b	0.004832273
79	0xbd8aec8b	-0.06783398
80	0x3d2244b3	0.039616298
81	0xbcd0dbbf	-0.025495408
82	0x3d32fb2c	0.043696567
83	0x3ccf9757	0.02534072
84	0xbd87ce0f	-0.066310994
85	0x3d9cb932	0.07652511
86	0x3cd0e403	0.02549935
87	0xbb373034	-0.0027952315
88	0x3d25e7b2	0.040504165
89	0x3d8df7e7	0.06932049
90	0x3d677aeb	0.056513708
91	0xbd84439a	-0.064582065
92	0x3da49eb8	0.08038086
93	0x3d9954cd	0.074868776
94	0x3dafb71c	0.08579847
95	0x3cf62840	0.03004849
96	0x3d73c070	0.059509695
97	0xbd444e96	-0.047926508
98	0x3dabb97e	0.08384989
99	0xbbc1483d	-0.005898504
100	0x3d8305e0	0.06397605
101	0xbd88be19	-0.06676883
102	0xbbcd241d	-0.0062604086
103	0xbbf26647	-0.0073974463
104	0x3d46a110	0.048493445
105	0x3d663e47	0.056211736
106	0xbc718f18	-0.014743589
107	0xbc93583c	-0.01798641
108	0x3d6da901	0.058022503
109	0x3da147d2	0.07875027
110	0xbd0e659c	-0.03476487
111	0xbd3fce36	-0.046827517
112	0x3d891755	0.06693903
113	0xbda41c19	-0.08013172
114	0x3d10640d	0.035251666
115	0xbcd1f7ea	-0.02563091
116	0xbd9b332d	-0.075781204
117	0x3d9f3b71	0.077750094
118	0x3ccff913	0.025387323
119	0x3d48e88d	0.049049903
120	0x3cd2305a	0.025657821
121	0x3d91dc2a	0.07122071
122	0xbc4a83e0	-0.012360543
123	0x3c78c8ee	0.015184624
124	0x3dafaad7	0.08577507
125	0xbd80e045	-0.06292776
126	0x3c9490ee	0.018135514
127	0xbce7a380	-0.028276205
128	0x3d0c7817	0.034294214
129	0xbd864971	-0.065569766
130	0xbd2ef25d	-0.042711604
131	0x3ca2e77a	0.019885767
132	0xbda8ef45	-0.08248762
133	0x3c863c43	0.016386157
134	0x3d85c519	0.06531734
135	0xbd24f155	-0.040269215
136	0xbc862285	-0.016373882
137	0xbd4d9551	-0.050191227
138	0xbcdc9214	-0.026925124
139	0xbd2a4b27	-0.041575577
140	0x3d4747e6	0.048652552
141	0x3d9c16d9	0.07621545
142	0x3d2fe224	0.042940274
143	0xbdb3b68e	-0.08775054
144	0x3d7885a5	0.06067433
145	0x3d04ae43	0.03239275
146	0x3d7b7224	0.06138815
147	0xbd87c241	-0.06628848
148	0x3d9cccfd	0.07656286
149	0x3cc8fcf5	0.024534682
150	0xbb4ef9fc	-0.0031582108
151	0xbda5de80	-0.08099079
152	0xbd02c8b3	-0.031929683
153	0x3b337d91	0.0027388076
154	0xbd87a06c	-0.06622395
155	0xbd204814	-0.03913124
156	0x3d91a2f9	0.07111163
157	0xbc96fa37	-0.018429859
158	0xbb8bc2b8	-0.0042651556
159	0xbda69366	-0.08133583
160	0xbd8361a9	-0.064151116
161	0x3cf3d319	0.029763745
162	0x3d3917b3	0.045188617
163	0xbda7b607	-0.08189016
164	0xbd4b1c94	-0.0495878
165	0xbd425c41	-0.04745126
166	0xbd869fad	-0.065734245
167	0xbc5b312a	-0.013378421
168	0xbdaf6f08	-0.085660994
169	0x3cd002c1	0.025391938
170	0x3c45456f	0.01204048
171	0x3d3e06e1	0.04639328
172	0xbd17900b	-0.037002604
173	0x3daf0d17	0.085474186
174	0x3d89fa77	0.067372255
175	0x3d09097d	0.033456314
176	0x3d8fde3f	0.07024812
177	0x3cb50c05	0.022100458
178	0xbbd6ec28	-0.0065589137
179	0x3da377c3	0.07981827
180	0xbd6251e0	-0.055253863
181	0xbd9c87fd	-0.07643125
182	0xbd6877cc	-0.056754872
183	0x3cf6dc2a	0.03013428
184	0xbcac7b0a	-0.021054763
185	0x3d6d05d9	0.057866905
186	0x3d5fb2e6	0.05461397
187	0xbd029643	-0.031881582
188	0x3d162c26	0.036663197
189	0xbd46b02b	-0.04850785
190	0x3d2cf9d8	0.042230457
191	0x3da7adeb	0.08187469
192	0xbd346e91	-0.044050757
193	0x3daf75c2	0.085673824
194	0xbcb8bfcf	-0.022552399
195	0xbd9b1e3e	-0.075741276
196	0xbd95ac88	-0.07308298
197	0x3d7d9f7c	0.061919674
198	0x3c6bc37f	0.014389872
199	0x3d9a28ef	0.07527339
200	0xbd8db397	-0.0691902
201	0xbd53d084	-0.051712528
202	0x3d1ae106	0.037812255
203	0xbd2e16eb	-0.042502325
204	0xbd13c3d3	-0.036075424
205	0x3d754b7d	0.059886444
206	0xbd096496	-0.03354319
207	0x3cfa627a	0.030564535
208	0x3d706e52	0.05869896
209	0x3d9311d7	0.07181137
210	0xbd442451	-0.047886197
211	0xbd2f73be	-0.04283499
212	0x3d77b690	0.06047684
213	0x3d1c3286	0.03813412
214	0xbcc58315	-0.024110356
215	0xbc421b39	-0.011847311
216	0xbd9a65cd	-0.07538948
217	0xbd86181a	-0.06547566
218	0x3cf1ee7d	0.029532665
219	0xbc9ae0e4	-0.018906064
220	0xbda5ce0a	-0.080959395
221	0xbbdc9cb5	-0.006732548
222	0xbd0762d1	-0.033053223
223	0x3d92c3f5	0.07166282
224	0xbd0b3048	-0.03398159
225	0xbda7fde4	-0.08202723
226	0x3d52f950	0.051507294
227	0xbd874900	-0.066057205
228	0xbc82ff8e	-0.015990999
229	0x3d90f24d	0.07077465
230	0x3cb39aab	0.021924337
231	0x3d984ce4	0.07436541
232	0x3d91362b	0.0709041
233	0xbd811c14	-0.063041836
234	0xbd7d2198	-0.061799616
235	0xbd75b2ed	-0.05998509
236	0x3cc7ac1c	0.02437406
237	0x3a1cb22b	0.0005977477
238	0xbdb08e30	-0.0862087
239	0x3b3fa99c	0.0029245382
240	0xbba85689	-0.005137269
241	0x3d1fb451	0.038990323
242	0xbd475128	-0.04866138
243	0xbd7faf18	-0.06242284
244	0x3d875b33	0.06609192
245	0xbca5b94d	-0.02022996
246	0xbc259b13	-0.010107773
247	0xbbaf92b6	-0.0053580655
248	0xbd9efc34	-0.07762948
249	0xbd9d5f72	-0.076842204
250	0x3d6f025c	0.05835186
251	0x3d5700df	0.052491065
252	0x3db28e6a	0.087185696
253	0x3d9ef975	0.07762424
254	0xbd03d9c6	-0.032190107
255	0x3c559aa5	0.013037358

2.bias f4 [128]
0	0x3d6fcc3f	0.058544394
1	0x3d1efbc6	0.03881433
2	0xbcca459b	-0.024691394
3	0x3d953023	0.07284572
4	0x3d451080	0.04811144
5	0xbd90facf	-0.07079088
6	0xbd2500d3	-0.04028399
7	0xbd8d833b	-0.06909796
8	0xbd713964	-0.058892623
9	0xbd00c039	-0.031433318
10	0x3da7cccd	0.081933595
11	0xbd15174b	-0.036399167
12	0x3b52bfb7	0.0032157728
13	0x3d4bf45b	0.049793582
14	0x3cda3553	0.026636755
15	0xbd1ece4f	-0.03877097
16	0xbd9f1b6a	-0.07768901
17	0xba67a9c0	-0.00088372454
18	0x3c807044	0.015678532
19	0xbb618827	-0.0034413429
20	0xbd844050	-0.06457579
21	0xbdacb8c9	-0.084336825
22	0x3c36e4b9	0.01116293
23	0xbc3c6607	-0.011498935
24	0x3d92ad5a	0.071619704
25	0x3dac1a3b	0.084034406
26	0xbd97eb37	-0.074179105
27	0x3ce5357d	0.027979607
28	0xbd8a2440	-0.067451954
29	0xbd8642de	-0.06555723
30	0x3d16eb99	0.036845777
31	0x3d363537	0.044484343
32	0x3caa7de6	0.020811986
33	0xbafd42f9	-0.0019322328
34	0x3d31ebcc	0.043437764
35	0x3da54aa4	0.08070877
36	0x3d9f1ee7	0.07769566
37	0xbc84ec90	-0.016226083
38	0xbd95c78e	-0.07313453
39	0xbcfc5809	-0.030803697
40	0xbd14b4ea	-0.036305346
41	0x3d8de189	0.06927783
42	0x3d494e81	0.049147133
43	0xbcbd5e83	-0.023116356
44	0x3db4e744	0.08833173
45	0xbd62d826	-0.055381916
46	0xbd15767a	-0.03648994
47	0xbc8593a4	-0.016305752
48	0xbd7b82ec	-0.061404154
49	0xbda896f5	-0.08231918
50	0xbd178953	-0.036996197
51	0x3d8b390a	0.06797989
52	0x3da83995	0.08214108
53	0x3b7fdaf2	0.0039040414
54	0x3d8f3f80	0.069945335
55	0x3db50483	0.08838751
56	0x3cfc2a95	0.030782023
57	0x3cbd2b94	0.023092069
58	0x3bbabcd6	0.0056987805
59	0xbda19d83	-0.07891371
60	0x3cab489e	0.02090865
61	0xbdab859a	-0.08375092
62	0xbd0a8c03	-0.03382493
63	0xbdab789f	-0.08372616
64	0x3c68d711	0.014211432
65	0xbc9a47fb	-0.018833151
66	0xbb3b238b	-0.002855512
67	0x3d407d3b	0.04699443
68	0x3cda7c25	0.026670525
69	0x3db4c3a1	0.08826376
70	0x3d0d4b76	0.034495793
71	0xbd51e36e	-0.051242284
72	0x3c869fe6	0.016433667
73	0x3d595696	0.05306109
74	0xbd538b00	-0.051646233
75	0x3d893cfd	0.06701086
76	0xbcd47edf	-0.025939403
77	0x3da8cb8c	0.082419485
78	0xbd9f53e1	-0.077796705
79	0xbcd204e8	-0.025637105
80	0x3d89f86e	0.06736837
81	0xbc527aff	-0.012846707
82	0xbd018e97	-0.031630125
83	0x3d2e20c9	0.042511735
84	0xbbf7bad1	-0.007560112
85	0xbcf8a763	-0.030353254
86	0x3d8f98ae	0.07011543
87	0x3d9a0484	0.075203925
88	0x3db3ce8d	0.08779631
89	0x3d5dfbc9	0.0541952
90	0x3ccb1aa5	0.024792979
91	0xbd3f574f	-0.046714123
92	0x3d90c99c	0.07069704
93	0x3d909ad6	0.070607826
94	0xbca70539	-0.020388233
95	0x3d198ece	0.037489705
96	0xbd51d2de	-0.05122649
97	0xbd105772	-0.035239644
98	0x3d3acbe3	0.045604598
99	0x3d71eb3d	0.05906223
100	0x3dadac7d	0.08480165
101	0xbbe32a68	-0.0069325455
102	0x3da15b33	0.07878723
103	0xbcefb6b4	-0.029261924
104	0x3d4e2b41	0.05033422
105	0xbd36bfd7	-0.044616546
106	0x3c060d87	0.008181936
107	0xbc8b8d9f	-0.017035304
108	0xbd66e6f4	-0.056372598
109	0xbd2e3610	-0.042532027
110	0x3d723cd8	0.059140056
111	0xbb492a0e	-0.0030695233
112	0xbd299df5	-0.041410405
113	0xbd740115	-0.059571344
114	0x3d914a00	0.070941925
115	0xbd45813a	-0.048218943
116	0xbd823e7b	-0.063595735
117	0xbc6c8621	-0.014436276
118	0xbd0e44e2	-0.03473366
119	0x3d875f34	0.066099554
120	0x3daa7e83	0.083249114
121	0xbcf5d5bd	-0.030009145
122	0xbbbf9e35	-0.005847717
123	0xbd83f75b	-0.06443664
124	0x3d172471	0.036899988
125	0xbcac431d	-0.021028096
126	0x3d6dd113	0.058060717
127	0x3d5bacf4	0.053631738

4.weight f4 [4, 128]
0	0xbd42759c	-0.047475442
1	0x3d1892fa	0.037249543
2	0xbd921167	-0.071322255
3	0x3d9dcf87	0.07705598
4	0x3d3a1565	0.04543056
5	0x3cd5aec6	0.026084315
6	0x3c2c99dd	0.010534731
7	0xbd3e75f6	-0.046499215
8	0xbd71a159	-0.058991764
9	0xbca54df4	-0.020178773
10	0x3c9968e9	0.018726783
11	0xbda78d23	-0.081812166
12	0xbcba8c66	-0.022772025
13	0xbd16b534	-0.036793903
14	0x3d8dae9e	0.06918071
15	0xbcc87cdc	-0.0244736
16	0x3da39340	0.0798707
17	0x3d3579ca	0.0443056
18	0xbd8bb61a	-0.068218425
19	0xbd82dff9	-0.06390376
20	0xbc933bc6	-0.017972838
21	0xbd8e2005	-0.06939701
22	0xbbad7473	-0.005293423
23	0xbd65a739	-0.05606768
24	0x3b354b7c	0.00276634
25	0xbd126692	-0.03574235
26	0xbd939dfd	-0.07207868
27	0xbc2f4357	-0.010697207
28	0xbd308482	-0.04309512
29	0x3d298448	0.04138592
30	0xbd8568bb	-0.065141164
31	0x3c8b1d6f	0.016981808
32	0xbd3098f9	-0.043114636
33	0xb9c96492	-0.00038412638
34	0xbcda8fec	-0.026679955
35	0x3c89cb7b	0.01682066
36	0x3c6fe231	0.014641331
37	0x3d865d90	0.065608144
38	0x3d6cedaf	0.05784386
39	0x3c2a5fe4	0.010398839
40	0xbd1e7a3b	-0.038690787
41	0xbd544812	-0.051826544
42	0xbcc954d6	-0.024576586
43	0x3bb27b08	0.0054467954
44	0xbd82eea2	-0.06393172
45	0xbbca1b2e	-0.006167791
46	0xbd97f916	-0.07420556
47	0xbcb7f5f4	-0.022456147
48	0xbd37beff	-0.044859882
49	0xbd2cd21d	-0.042192567
50	0xbd9e63ec	-0.07733902
51	0x3d399881	0.045311455
52	0xbd885165	-0.0665615
53	0xbd6214d0	-0.05519563
54	0xbd2e34a1	-0.04253066
55	0xbd8ec7c3	-0.06971695
56	0x3da43721	0.080183275
57	0x3d022197	0.031770315
58	0x3d678148	0.056519777
59	0xbd9f5469	-0.07779772
60	0x3ccbe754	0.02489058
61	0xbd93d07d	-0.072175
62	0x3cd77bc3	0.026304131
63	0xbd2d4641	-0.042303327
64	0x3d861d3b	0.06548544
65	0xbd69fcea	-0.057125963
66	0x3c9b8b64	0.018987365
67	0x3d317670	0.04332584
68	0x3c2b690f	0.01046206
69	0xbd8030bf	-0.062592976
70	0xbd381938	-0.044945925
71	0x3db422f1	0.08795727
72	0xbcabbcf6	-0.020964127
73	0xbd8c59c1	-0.06853057
74	0x3d2ecb87	0.042674568
75	0xbd86cf8e	-0.06582557
76	0xbd9e838c	-0.07739934
77	0x3d2a4a29	0.04157463
78	0x3c873a67	0.01650734
79	0x3ca29a67	0.019849015
80	0xbcefe5c5	-0.029284367
81	0xbd2e44d9	-0.042546127
82	0xbd24e79c	-0.040259942
83	0xbd7454b0	-0.059651077
84	0x3d1c013f	0.038087126
85	0xbd954cd5	-0.07290045
86	0xbdad2dbd	-0.084559895
87	0x3d2aed5e	0.041730277
88	0x3d8f8cf1	0.07009304
89	0xbcefda97	-0.029279036
90	0x3d932104	0.071840316
91	0xbaa6a366	-0.0012713491
92	0x3da7e89d	0.08198664
93	0xbd855cd8	-0.06511849
94	0xbce64fc1	-0.028114202
95	0xbd07e5cc	-0.033178136
96	0xbcf205e9	-0.029543834
97	0xbc5e06ca	-0.013551423
98	0xbd500ef9	-0.05079553
99	0x3d2b04df	0.041752692
100	0xbd9efd63	-0.077631734
101	0x3c65b28f	0.0140196225
102	0xbd5a9c8d	-0.053371955
103	0xbd8c516f	-0.0685147
104	0xbca50503	-0.020143991
105	0x3d06bb7f	0.032893654
106	0xbd7030b3	-0.058640193
107	0xbcdfe8cb	-0.027332684
108	0xbd9d3fb3	-0.07678165
109	0x3d8524a9	0.06501133
110	0xbb9e5e96	-0.004833053
111	0xbd0cb150	-0.034348786
112	0x3abb194b	0.0014274506
113	0xbc9e2873	-0.019306397
114	0x3d8831c4	0.06650117
115	0xbd61603f	-0.055023428
116	0xbcab746a	-0.020929534
117	0xbdade812	-0.084915295
118	0x3d069591	0.03285748
119	0xbd1202c8	-0.035647184
120	0x3d40df58	0.047087997
121	0xbd7838ef	-0.06060117
122	0x3d5ce099	0.05392513
123	0xbcb31714	-0.02186159
124	0xbd29fc34	-0.041500285
125	0x3d9af496	0.07566182
126	0x3d727682	0.05919505
127	0x3c7630a6	0.015026247
128	0xba0bf026	-0.0005338214
129	0x3d95c220	0.07312417
130	0x3cc71984	0.024304159
131	0xbcdc2069	-0.026870923
132	0xba28faac	-0.00064460444
133	0xbd30b235	-0.0431387
134	0x3c9dfecb	0.019286534
135	0xbd86b3d3	-0.065772675
136	0xbd964999	-0.073382564
137	0x3d6fd420	0.058551908
138	0xbc009e40	-0.00785023
139	0x3c126ca8	0.0089370385
140	0x3dabf13f	0.083956234
141	0x3d718b2c	0.058970615
142	0xbcc5b736	-0.024135213
143	0xbbb86af5	-0.0056279846
144	0xbc6a8c1b	-0.01431563
145	0x3d262953	0.040566754
146	0x3c8c9362	0.017160121
147	0x3d88f6a3	0.06687667
148	0x3d90c839	0.070694394
149	0xbc9cb767	-0.019130422
150	0xbd9c13bf	-0.07620954
151	0xbd86e7ea	-0.06587203
152	0xbd0611f2	-0.032731958
153	0x3d6b364c	0.05742483
154	0xbd4350ab	-0.047684353
155	0xbcd0a26d	-0.025468076
156	0xbb0f977a	-0.0021910355
157	0xbd519c44	-0.051174417
158	0x3d887a0c	0.066639036
159	0x3d77b315	0.06047352
160	0xbd80c13c	-0.062868565
161	0x3da121fe	0.078678116
162	0x3bb67cf4	0.005569095
163	0x3da0a005	0.07843021
164	0x3d228ca3	0.039684903
165	0xbd1b9f72	-0.037993856
166	0x3d30a27f	0.04312372
167	0x3c3b72a7	0.0114409095
168	0x3c8e681b	0.017383626
169	0x3cef8578	0.029238448
170	0x3bde6333	0.006786728
171	0x3d30287c	0.04300736
172	0xbc173c16	-0.009230634
173	0xbd925187	-0.07144456
174	0x3d4ade49	0.049528394
175	0x3d59fbac	0.05321853
176	0xbc8fc050	-0.017547756
177	0x3b8c5e1b	0.004283679
178	0xbdaf8b22	-0.08571459
179	0xbda93dfb	-0.08263775
180	0xbc936ef9	-0.017997252
181	0xbd486904	-0.048928276
182	0x3d04830d	0.032351542
183	0xbd1b4b5e	-0.037913673
184	0xbd270df3	-0.040784787
185	0xbdab0ee7	-0.08352452
186	0x3d7e2bde	0.062053554
187	0x3cc8e16c	0.024521552
188	0x3c2ad3e7	0.010426498
189	0x3d88169c	0.066449374
190	0x3d992a82	0.07478811
191	0xbd5bf883	-0.053703796
192	0x3db1f415	0.08689133
193	0xbd173f99	-0.036925886
194	0x3b9592ce	0.0045646196
195	0x3d82d61e	0.06388496
196	0x3dab7762	0.0837238
197	0x3daee3f1	0.0853957
198	0xbc96b15c	-0.018395118
199	0xbd8a4ce6	-0.067529485
200	0xbd46b907	-0.0485163
201	0xbcd9b7a8	-0.026576832
202	0xbd9540c2	-0.07287742
203	0x3c81cfad	0.015846098
204	0xbd6e0c10	-0.058116972
205	0xbd14f817	-0.03636941
206	0xbc703053	-0.014659959
207	0xbd0b5aeb	-0.034022253
208	0x3ca029c9	0.019551175
209	0x3da518f8	0.08061403
210	0x3cb521d5	0.022110859
211	0xbd5b1101	-0.053483013
212	0x3d29c087	0.041443374
213	0xbd2dc7cf	-0.04242688
214	0xbd033398	-0.032031626
215	0xbb8acc78	-0.0042358004
216	0x3d7167ba	0.058936812
217	0xbc34358c	-0.010999095
218	0x3d872ae2	0.06599976
219	0xbd910ea1	-0.07082868
220	0xbd59fc56	-0.053219162
221	0x3cdd6882	0.027027372
222	0xbda6f0c8	-0.08151394
223	0x3cf87304	0.030328281
224	0xbc0b39e5	-0.00849769
225	0xbd845cf3	-0.06463041
226	0x3d7749fd	0.060373295
227	0x3d6636d7	0.056204643
228	0x3cae81e7	0.021302177
229	0x3d2e93a8	0.042621285
230	0x3c631a3b	0.013861234
231	0x3cd9f7c3	0.0266074
232	0xbd8d0196	-0.06885068
233	0xbc9a52f0	-0.018838376
234	0xbd4a71e1	-0.04942501
235	0x3d978ebd	0.07400272
236	0xbcfab77c	-0.03060507
237	0xbd61d269	-0.055132303
238	0xbd824c30	-0.06362188
239	0xbd0a7f10	-0.033812582
240	0xbdb2eeaa	-0.08736928
241	0x3bf82dfc	0.007573841
242	0x3b7de15d	0.0038739063
243	0x3db22758	0.086989105
244	0x3c751fe2	0.014961215
245	0x3d57ec75	0.052715737
246	0x3da325f1	0.07966221
247	0x3d530ca9	0.051525746
248	0xbdafa0ad	-0.08575568
249	0x3d6f8491	0.058476035
250	0x3d9fb15e	0.07797502
251	0xbd965460	-0.07340312
252	0xbd082099	-0.033234213
253	0xbd82ccfa	-0.063867524
254	0xbd7e5d13	-0.06210048
255	0xbda30619	-0.079601474

4.bias f4 [4]
0	0x3d35cdc7	0.044385698
1	0xbbd39149	-0.0064565283
2	0x3d8a0f62	0.06741215
3	0xbdb43f97	-0.08801191
