dql_2048.pth (torch, 202322 bytes, 6 tensors)

0.weight f4 [128, 256]
0.06234464 0.01886563 0.04260292 0.045045115 0.01204437 0.05712644 0.02588386 0.008004941
0.043267906 -0.012514442 -0.058581732 0.040262274 -0.039340787 -0.057915412 -0.026232623 -0.056748606
0.0044793338 -0.035059422 -0.034975596 -0.039612085 0.061583348 0.009737365 0.05316919 0.009133264
0.060731202 0.012946069 -0.015891105 -0.021431543 0.061605237 0.04103542 -0.021964774 -0.018081807
0.01772134 -0.04077018 0.04324358 0.052971438 -0.015358143 0.060338877 0.024814948 -0.009368904
-0.020788208 0.02168274 0.05829929 -0.061843894 0.058241352 0.054288827 -0.059871383 -0.047548547
-0.023392156 0.041815713 0.036554255 -0.022961661 0.039176695 0.059447087 0.06180285 0.017506048
-0.0354094 -0.036795467 -0.014443651 0.015881553 0.04417243 0.046250112 0.046300232 -0.016219392
0.055438712 0.026562095 0.06108588 -0.010121241 -0.054379947 0.04338146 0.060064636 0.00947763
0.05331812 -0.05895268 -0.028816536 -0.050849915 0.028988838 -0.036862522 -0.053547613 0.010303415
-0.020074442 0.051564947 0.03566643 -0.03599915 -0.04497513 0.022171207 -0.044808187 0.009844191
-0.044307835 0.05420942 0.02285096 -0.020047516 -0.028822504 -0.0031913072 -0.058384955 0.017855369
0.026554123 -0.03185218 -0.025990888 -0.032049797 -0.0030705854 -0.025689192 0.013661057 0.023145415
0.033890888 -0.04443705 0.023990072 0.044172227 0.05346545 -0.010333799 -0.04892849 0.04007838
-0.045803085 -0.04160416 -0.049006462 0.059580363 0.054029703 0.047512844 0.05184699 0.009332031
-0.028956495 -0.008736074 0.03862407 -0.02494549 0.02065219 0.052869484 -0.018780716 -0.02758231
-0.014057897 -0.015939139 0.008296095 -0.021303698 0.035195127 -0.034906007 -0.04070618 -0.020045511
0.055872887 0.03015887 0.044250943 -0.013354719 -0.0047022477 0.05845365 -0.009763271 0.016305752
0.02932205 -0.013783835 0.04934845 -0.056792438 0.048899435 0.0018484071 0.052653365 -0.045346737
-0.02598536 -0.024780564 -0.058606908 0.06245844 0.040547304 -0.019355781 -0.040685043 0.052823126
0.004705243 -0.030794226 0.03326995 0.014352612 -0.021538347 0.040316813 0.016981237 -0.014252
0.0152262375 -0.0028248802 -0.016521506 -0.029700398 0.010352321 0.03760559 -0.0026988536 -0.04240656
0.010530278 -0.0043238252 0.05213903 0.021785647 0.032767795 0.001246199 -0.0017958283 -0.014142148
0.0037653744 0.007046677 0.013266116 0.04365833 0.00047175586 -0.05169691 -0.018402219 -0.0551195
-0.057440676 0.018982671 0.012716942 0.022735067 -0.04132127 0.009602159 0.043610796 -0.04508342
0.03219796 0.05250033 -0.049336 0.05744642 0.0007595271 0.01418566 0.033874705 -0.042374738
-0.010911539 -0.009543695 -0.018757068 0.036019243 -0.005659744 0.057289638 0.05834979 -0.036252327
-0.03687779 0.024784483 0.00058813393 -0.029193975 -0.0010195673 -0.062205113 0.057699822 0.0015996322
0.05842056 0.034377553 0.005674891 0.023799561 0.0017078817 0.04316611 -0.0192682 0.05431565
-0.005589679 -0.03305067 -0.05617863 0.0015832707 -0.008336045 -0.031755604 0.01081121 -0.06045495
-0.017486453 -0.010297306 0.044469498 -0.04944171 -0.024323195 -0.055456437 -0.01852233 0.035435326
0.060206607 -0.025601938 0.015530206 -0.017656744 -0.047265366 -0.06203486 0.0075442493 -0.016607001
00000000: 185d 7f3d 188c 9a3c 6680 2e3d 3a81 383d
00000010: c055 453c 6afd 693d 640a d43c 2827 033c
00000020: b039 313d 6009 4dbc 66f3 6fbd 0eea 243d
00000030: ce23 21bd b638 6dbd cce5 d6bc 3a71 68bd
00000040: 60c7 923b 789a 0fbd 9242 0fbd 4840 22bd
00000050: d23e 7c3d 7889 1f3c f0c7 593d b0a3 153c
00000060: 48c1 783d c01b 543c 102e 82bc 3491 afbc
00000070: c655 7c3d c214 283d 78ef b3bc 4c20 94bc
00000080: 582c 913c a2fe 26bd 2e20 313d 94f8 583d
00000090: b8a0 7bbc e625 773d b848 cb3c 0880 19bc
000000a0: 084c aabc 00a0 b13c 3ccb 6e3d 0650 7dbd
000000b0: 7c8e 6e3d f65d 5e3d b23b 75bd 44c2 42bd
000000c0: e8a0 bfbc f446 2b3d eab9 153d 181a bcbc
000000d0: be77 203d ca7e 733d fc24 7d3d d868 8f3c
000000e0: 7209 11bd d8b6 16bd 10a5 6cbc 081a 823c
000000f0: 26ee 343d c270 3d3d 50a5 3d3d 88de 84bc
00000100: b413 633d c098 d93c 3035 7a3d 90d3 25bc
00000110: 82bd 5ebd c2b0 313d 5606 763d 1048 1b3c
00000120: 1a64 5a3d 5e78 71bd a810 ecbc 0048 50bd
00000130: 007a ed3c 28fd 16bd be54 5bbd a8cf 283c
00000140: 2873 a4bc c435 533d f616 123d d873 13bd
00000150: d837 38bd 64a0 b53c ca88 37bd 8849 213c
00000160: 227c 35bd b20a 5e3d f031 bb3c b03a a4bc
00000170: 2c1d ecbc 4025 51bb 1025 6fbd 6c45 923c
00000180: 0888 d93c 6e77 02bd d8ea d4bc a646 03bd
00000190: e03b 49bb 2472 d2bc a0d2 5f3c 749b bd3c
000001a0: 2cd1 0a3d a003 36bd d486 c43c f0ed 343d
000001b0: 96fe 5a3d 184f 29bc 3e69 48bd 3a29 243d
000001c0: 049c 3bbd 2069 2abd 00bb 48bd 8a0a 743d
000001d0: 404e 5d3d d49c 423d 825d 543d 60e5 183c
000001e0: 2c36 edbc c021 0fbc 4634 1e3d 7c5a ccbc
000001f0: c82e a93c ac8d 583d 04da 99bc 4cf4 e1bc
00000200: 1853 66bc cc92 82bc 58ec 073c 1885 aebc
00000210: c428 103d 9af9 0ebd 86bb 26bd 7c36 a4bc
00000220: f8da 643d bc0f f73c 7a40 353d c0cd 5abc
00000230: 5015 9abb 186d 6f3d 20f6 1fbc a493 853c
00000240: cc34 f03c 98d5 61bc 9a21 4a3d 309f 68bd
00000250: c64a 483d 4046 f23a 0eab 573d 80bd 39bd
00000260: 40df d4bc 9c00 cbbc cc0d 70bd 6cd4 7f3d
00000270: ee14 263d 0490 9ebc 5ca5 26bd 105d 583d
00000280: 702e 9a3b 2c44 fcbc 1246 083d 3827 6b3c
00000290: 3071 b0bc 3e23 253d 3c1c 8b3c 3881 69bc
000002a0: 7877 793c a021 39bb 1c58 87bc 404e f3bc
000002b0: c89c 293c 5208 1a3d 40df 30bb 80b2 2dbd
000002c0: 3087 2c3c e0ae 8dbb bc8f 553d d077 b23c
000002d0: 8637 063d 8057 a33a 0062 ebba 78b4 67bc
000002e0: 80c4 763b d0e7 e63b 205a 593c 14d3 323d
000002f0: 0056 f739 24c0 53bd 40c0 96bc fcc4 61bd
00000300: ea46 6bbd 8c81 9b3c b85a 503c e43e ba3c
00000310: 7e40 29bd 6052 1d3c 3ca1 323d 64a9 38bd
00000320: 02e2 033d 960a 573d 8c14 4abd f04c 6b3d
00000330: 001b 473a f86a 683c 34c0 0a3d 2291 2dbd
00000340: 50c6 32bc 285d 1cbc 6ca8 99bc ea88 133d
00000350: 6075 b9bb 8aa8 6a3d 3000 6f3d 527d 14bd
00000360: 2a0d 17bd d408 cb3c 002d 1a3a 3428 efbc
00000370: 00a3 85ba caca 7ebd a656 6c3d c0aa d13a
00000380: 664a 6f3d 7acf 0c3d 70f4 b93b 4cf7 c23c
00000390: 00db df3a f2ce 303d 58d8 9dbc 167a 5e3d
000003a0: a029 b7bb 2460 07bd 901b 66bd c085 cf3a
000003b0: e893 08bc 2a12 02bd 8021 313c 9c9f 77bd
000003c0: c03f 8fbc 08b6 28bc a625 363d 6483 4abd
000003d0: 7041 c7bc 4a26 63bd 24bc 97bc a224 113d
000003e0: 349b 763d 28bb d1bc 6872 7e3c e0a4 90bc
000003f0: 5499 41bd 4418 7ebd c035 f73b 680b 88bc

0.bias f4 [128]
-0.007833384 -0.02971854 0.0024568513 0.0054326877 0.032446742 0.01787094 0.021906674 0.03943704
-0.016423628 0.0013638809 0.022000708 -0.01775007 0.042734414 0.04954225 -0.060364135 -0.06175392
-0.036404625 0.051117398 -0.05555833 -0.04805886 -0.010204889 0.022252992 -0.048791982 -0.015765473
-0.036633812 0.061785847 -0.027352266 0.048176758 0.01118885 0.013178013 0.013354629 -0.041649282
0.030389793 0.016274154 0.05351852 0.025396012 -0.034408852 -0.047903307 -0.057976544 -0.06016583
0.011528149 -0.030492716 0.045185328 -0.038930215 -0.044261076 0.017473675 -0.05353389 -0.054987162
0.050054334 -0.021737099 0.05603759 -0.008258171 0.010475896 -0.023049988 -0.052182578 0.01331576
0.001349315 -0.015999697 -0.038253434 0.052398168 0.013717741 -0.031008855 -0.050102152 -0.04279437
-0.05991549 -0.0117549375 0.031031117 0.010972001 0.012752518 -0.034005515 0.048885345 0.020507127
0.02242332 0.0021895617 0.041943647 0.050092645 -0.021292642 -0.02358026 0.021500237 -0.035397172
-0.02749116 -0.044130012 0.024945907 -0.057786487 0.009915367 -0.0052713305 -0.0008151084 0.029023401
-0.05179455 -0.05203045 -0.027118787 -0.04432799 -0.02465231 0.055708118 0.04761084 -0.046697862
-0.050709642 -0.034489207 0.029764786 0.03802725 -0.044062488 0.019790314 -0.04144966 0.033749543
-0.062183514 0.033844247 0.046928614 -0.016486518 0.0006064102 -0.034333028 -0.053987063 0.0231651
0.0007377714 -0.05705057 0.04876881 0.0065230206 0.058727108 0.01670625 -0.020141654 -0.0034936443
0.05900708 0.0034578145 0.032216363 0.03546109 -0.039018586 -0.008581191 0.026384309 -0.032389678
00000000: 9857 00bc 4c74 f3bc 2003 213b b004 b23b
00000010: e0e6 043d 1466 923c a075 b33c bc88 213d
00000020: d88a 86bc 40c4 b23a d43a b43c 9868 91bc
00000030: 480a 2f3d d0ec 4a3d 6240 77bd aef1 7cbd
00000040: 041d 15bd 7a60 513d 2291 63bd 5ed9 44bd
00000050: 6832 27bc e84b b63c 1ada 47bd 9826 81bc
00000060: 560d 16bd 2813 7d3d dc11 e0bc fe54 453d
00000070: 7051 373c 98e8 573c 60cd 5a3c 7098 2abd
00000080: 04f4 f83c 6051 853c 3c36 5b3d 4c0b d03c
00000090: 4cf0 0cbd 4236 44bd d078 6dbd 7270 76bd
000000a0: 90e0 3c3c dccb f9bc 4014 393d 4a75 1fbd
000000b0: 1a4b 35bd f424 8f3c 5a46 5bbd 383a 61bd
000000c0: c605 4d3d 0012 b2bc ac87 653d 484d 07bc
000000d0: 18a3 2b3c 54d3 bcbc 66bd 55bd 582a 5a3c
000000e0: 80db b03a cc11 83bc a2af 1cbd 769f 563d
000000f0: 60c0 603c 4806 febc ea37 4dbd 2649 2fbd
00000100: f269 75bd c897 40bc f834 fe3c e8c3 333c
00000110: f0ef 503c 5e49 0bbd 003c 483d 90fe a73c
00000120: 1cb1 b73c c07e 0f3b 1acd 2b3d f22d 4d3d
00000130: e86d aebc 642b c1bc 4421 b03c a0fc 10bd
00000140: 2435 e1bc acc1 34bd 5c5b cc3c 86b1 6cbd
00000150: 1074 223c 20bb acbb 00ad 55ba 7cc2 ed3c
00000160: 8626 54bd e21d 55bd 3828 debc 4491 35bd
00000170: a4f3 c9bc 322e 643d 9603 433d 4246 3fbd
00000180: eab4 4fbd 8e44 0dbd 48d5 f33c 76c2 1b3d
00000190: de7a 34bd 4c1f a23c 1ec7 29bd f63c 0a3d
000001a0: 24b4 7ebd 44a0 0a3d 3838 403d bc0e 87bc
000001b0: 80f7 1e3a caa0 0cbd 8a21 5dbd bcc4 bd3c
000001c0: 0067 413a dcad 69bd cec1 473d 10bf d53b
000001d0: d68b 703d 8cdb 883c 1c00 a5bc a0f5 64bb
000001e0: 68b1 713d 809c 623b 4ef5 033d a63f 113d
000001f0: f4d1 1fbd 2098 0cbc e823 d83c 0aab 04bd

2.weight f4 [128, 128]
-0.082691096 0.07541406 0.017744433 0.027831059 -0.06554079 0.023900172 0.021962069 -0.08526623
0.059453882 0.06955966 0.017553562 -0.064027846 -0.00042120507 0.011712851 -0.014262504 -0.010272188
-0.015730215 0.029400999 -0.0718757 -0.08528424 -0.027419759 0.019835455 0.0814099 0.07368385
-0.08600191 0.020470409 0.01662377 -0.007483721 -0.020042954 0.085138686 -0.044312857 0.08831699
0.05111848 -0.026807997 -0.06655099 0.034728706 0.0037965144 0.010083233 -0.038950566 -0.06591824
0.073751085 -0.0009612853 0.033521704 0.035676632 -0.087245144 -0.030277526 -0.067075275 -0.008437525
0.08079817 -0.032142892 0.08767596 0.057977363 0.0001307606 -0.08635946 0.0724464 -0.065142944
0.00404242 -0.055675384 -0.081545204 0.005519109 -0.011034213 -0.019644814 -0.00095561653 -0.031343915
-0.011334868 0.02840336 -0.05169213 -0.043292094 -0.08256952 0.048103493 -0.006456149 0.009610767
0.08446461 0.042421296 -0.009685378 0.042759895 -0.048068713 0.016622791 0.042730477 -0.07391845
0.06504536 0.0007262007 -0.015340125 0.018640319 0.033188336 0.030034445 0.07365178 0.044647105
0.00909588 0.061394606 0.08489031 -0.07859581 0.026797388 -0.07571308 -0.06980239 0.01748227
-0.078983635 0.005996917 0.006669749 -0.06970165 0.036294654 -0.028693479 0.035133917 -0.020499889
0.049639177 0.029428467 -0.037647586 -0.08131715 -0.072838224 -0.07415911 -0.014752135 -0.046775572
-0.055668652 0.0063889246 0.08791302 0.04649262 -0.08745787 0.04975407 -0.05892324 0.033056352
-0.01343102 0.040867765 0.062370446 -0.08337785 -0.06588051 -0.04105748 0.03477507 0.058673132
0.0590918 0.01183945 0.0028633936 0.038531408 -0.08194325 0.04240817 -0.08189289 -0.06485141
-0.030753775 0.083090544 -0.057804666 0.049065128 0.054050982 -0.030905461 -0.06981383 -0.047236353
-0.020754172 0.0682048 -0.00660675 -0.061339214 0.046864588 0.0762842 -0.05573531 -0.07437717
-0.06258498 -0.08000606 0.08501626 -0.046197012 -0.010616802 -0.07929893 -0.06400147 0.009290313
0.021897174 0.028978707 -0.04333585 0.06212633 0.0031829933 0.06528926 0.036051244 -0.087033115
-0.04365517 0.00077591295 0.06893717 -0.034361705 0.06551996 -0.042304013 0.05130439 0.034321263
0.07965754 -0.04522283 -0.0018263177 0.025563307 -0.010008854 0.04470574 0.0020688202 0.04674372
0.0014949065 0.010429532 0.08268728 -0.071160756 -0.05976875 -0.087510385 -0.009046442 0.07012462
-0.07937181 0.08204024 -0.049173307 0.06004414 0.06556157 0.00024804473 -0.07521964 -0.08167465
-0.040284388 0.08527147 0.0407434 -0.030588381 -0.025410967 -0.0057165036 0.03422089 0.04927432
-0.08108549 0.06252403 -0.056517594 0.07026898 0.0021819319 0.06586621 0.010607066 -0.010119152
-0.015989808 0.048624977 -0.08676249 0.029983057 -0.045898654 -0.028190782 -0.08454982 -0.06056403
0.067226544 -0.05616545 -0.021492932 -0.08368605 0.07360307 -0.03479824 0.0062926086 -0.061020058
-0.02300199 -0.07587501 0.035616204 -0.00368139 -0.04700505 -0.0620378 -0.003522075 0.08225352
0.06513021 0.05779201 0.022727773 -0.07769597 -0.062543966 -0.044473752 -0.021052467 -0.01831684
0.020863723 0.046606395 -0.009806486 -0.013209854 -0.027609283 0.060071807 0.0033315714 0.03038577
00000000: f359 a9bd b072 9a3d c65c 913c f6fd e33c
00000010: 403a 86bd 4bca c33c cce9 b33c 10a0 aebd
00000020: ea85 733d 4c75 8e3d 7dcc 8f3c 0821 83bd
00000030: 30d5 dcb9 42e7 3f3c 47ad 69bc ae4c 28bc
00000040: a7dc 80bc 5dda f03c 9133 93bd 81a9 aebd
00000050: 679f e0bc f77d a23c 3cba a63d 8fe7 963d
00000060: c521 b0bd 8fb1 a73c 932e 883c 003a f5bb
00000070: 1f31 a4bc 315d ae3d 6681 35bd 8adf b43d
00000080: 9c61 513d 729c dbbc e34b 88bd b03f 0e3d
00000090: f1ce 783b 2534 253c a18a 1fbd 2400 87bd
000000a0: cf0a 973d c4fe 7bba 0e4e 093d a921 123d
000000b0: 95ad b2bd 9308 f8bc c35e 89bd 8b3d 0abc
000000c0: 8379 a53d 44a8 03bd 748f b33d ac79 6d3d
000000d0: c81c 0939 3bdd b0bd c75e 943d aa69 85bd
000000e0: 4776 843b df0b 64bd 2c01 a7bd a4d9 b43b
000000f0: d8c8 34bc 29ee a0bc 5782 7aba 7a62 00bd
00000100: e2b5 39bc 2aae e83c 20bb 53bd 0d53 31bd
00000110: 351a a9bd 2b08 453d 1a8e d3bb 7a76 1d3c
00000120: c8fb ac3d f4c1 2d3d 6baf 1ebc 0025 2f3d
00000130: b3e3 44bd 852c 883c 2706 2f3d 8e62 97bd
00000140: 8036 853d 815e 3e3a 2655 7bbc 95b3 983c
00000150: 7ef0 073d cc0a f63c bfd6 963d e2df 363d
00000160: e306 153c e978 7b3d f9da ad3d d7f6 a0bd
00000170: 3286 db3c 760f 9bbd 8ef4 8ebd fa36 8f3c
00000180: 2cc2 a1bd c981 c43b e98d da3b bdbf 8ebd
00000190: b4a9 143d 960e ebbc 95e8 0f3d 62ef a7bc
000001a0: 7352 4b3d f813 f13c 5b34 1abd 9b89 a6bd
000001b0: 352c 95bd bbe0 97bd f0b2 71bc be97 3fbd
000001c0: d004 64bd 2f5a d13b be0b b43d 0c6f 3e3d
000001d0: 1d1d b3bd ecca 4b3d 7f59 71bd 1966 073d
000001e0: c80d 5cbc f564 273d 2778 7f3d 02c2 aabd
000001f0: 5cec 86bd e32b 28bd 4e70 0e3d 3d53 703d
00000200: 3e0a 723d 41fa 413c c6a7 3b3b 1cd3 1d3d
00000210: ddd1 a7bd 30b4 2d3d 76b7 a7bd d1d0 84bd
00000220: 57ef fbbc 602b aa3d 96c4 6cbd 84f8 483d
00000230: 9064 5d3d 732d fdbc 8efa 8ebd e87a 41bd
00000240: a704 aabc f5ae 8b3d 707d d8bb d43e 7bbd
00000250: 15f5 3f3d e43a 9c3d b54a 64bd 0f53 98bd
00000260: 8e2c 80bd 38da a3bd 011d ae3d 1439 3dbd
00000270: 18f2 2dbc 7a67 a2bd 3413 83bd 6636 183c
00000280: b461 b33c c164 ed3c ef80 31bd 2e78 7e3d
00000290: c499 503b 60b6 853d 78aa 133d 6b3e b2bd
000002a0: c3cf 32bd a366 4b3a ee2e 8d3d dcbe 0cbd
000002b0: 542f 863d f946 2dbd 8d24 523d 7494 0c3d
000002c0: 7e23 a33d 933b 39bd 0e61 efba 246a d13c
000002d0: 2dfc 23bc 5e1d 373d 0b95 073b 5876 3f3d
000002e0: bdf0 c33a a1e0 2a3c f357 a93d bbbc 91bd
000002f0: 14d0 74bd a538 b3bd 8737 14bc 7f9d 8f3d
00000300: b08d a2bd b704 a83d f369 49bd d8f0 753d
00000310: 2545 863d 000c 8239 c10c 9abd 0a45 a7bd
00000320: 3e01 25bd cfa2 ae3d 8de2 263d 7c94 fabc
00000330: a92a d0bc 8251 bbbb 342b 0c3d dfd3 493d
00000340: 2610 a6bd 990c 803d fe7e 67bd 2fe9 8f3d
00000350: befe 0e3b dde4 863d 42c9 2d3c cdca 25bc
00000360: 0ffd 82bc fc2a 473d 88b0 b1bd 079f f53c
00000370: 3a00 3cbd 5bf0 e6bc 7528 adbd fd11 78bd
00000380: 12ae 893d be0d 66bd f211 b0bc 9763 abbd
00000390: 35bd 963d 9988 0ebd 3a32 ce3b 2bf0 79bd
000003a0: ab6e bcbc 5b64 9bbd 4ce2 113d 7a43 71bb
000003b0: 5e88 40bd 591b 7ebd 9dd2 66bb 8974 a83d
000003c0: fd62 853d 51b7 6c3d 982f ba3c 111f 9fbd
000003d0: 0d17 80bd 1c2a 36bd 3976 acbc 330d 96bc
000003e0: 66ea aa3c 59e6 3e3d 62ab 20bc 256e 58bc
000003f0: dd2c e2bc db0d 763d 7e56 5a3b 94eb f83c

2.bias f4 [128]
-0.06412909 -0.06599276 0.008433332 -0.012834579 -0.036141176 0.061130684 -0.069074266 -0.0029829538
-0.042213958 -0.0835329 -0.025021678 -0.03584817 -0.058474526 0.033338513 -0.0046092216 -0.071575284
0.06699573 0.017418059 -0.04551496 -0.07511422 -0.026646238 0.051151257 0.04625094 -0.02018501
-0.035988867 0.059361972 -0.05111769 0.08422331 0.01867668 0.079095565 -0.02129618 -0.08650024
0.06095371 -0.068012856 -0.008214599 0.07248209 -0.055158835 -0.066197336 0.079435 0.021572737
0.059476104 0.018312395 0.08795158 -0.08522785 -0.026991284 0.053528585 0.054048136 -0.031870246
-0.07200358 -0.08359386 0.067849524 -0.07173742 0.025992677 0.034424543 -0.026260247 0.01605207
-0.029580176 0.023943508 0.019024033 -0.08703221 -0.031052776 -0.054543816 0.049624164 0.0029769477
-0.07489338 0.054360848 -0.030523349 -0.010249482 0.0751679 0.07023033 -0.07083038 -0.03509133
0.002131229 -0.020034831 0.07243554 -0.015792245 -0.0036026177 0.051002942 -0.068072766 0.025622396
0.06411797 0.08342899 -0.06540194 -0.0090920655 0.05352181 -0.0476617 0.041559435 -0.02437662
0.0138036935 -0.026812308 0.07303939 0.06861002 0.034575008 -0.05266022 -0.05261543 -0.06993557
-0.020539844 -0.0030221187 0.028377598 0.035573024 -0.04317381 0.045164373 -0.08460314 0.072931655
-0.0816573 -0.05999707 0.033919256 -0.0047546173 -0.0039551337 0.0255451 0.04414775 0.06537315
-0.016565165 -0.02543302 -0.015748601 0.049200322 0.01589955 0.00059492385 0.03992099 -0.04809698
-0.06742311 -0.013093551 -0.062267583 0.06502696 0.029624281 -0.030333824 -0.010412663 -0.042975843
00000000: 1d56 83bd 3627 87bd f52b 0a3c 2048 52bc
00000010: c508 14bd 2b64 7a3d cf76 8dbd a97d 43bb
00000020: 8be8 2cbd 4c13 abbd 43fa ccbc 88d5 12bd
00000030: fc82 6fbd f78d 083d f408 97bb 1096 92bd
00000040: 0f35 893d 51b0 8e3c e56d 3abd 7cd5 99bd
00000050: 3649 dabc fb83 513d a071 3d3d 095b a5bc
00000060: 1069 13bd 8a25 733d c860 51bd 457d ac3d
00000070: d6ff 983c dbfc a13d 5475 aebc 0a27 b1bd
00000080: 99aa 793d 534a 8bbd 8796 06bc 7d71 943d
00000090: 3bee 61bd 7892 87bd d1ae a23d 4fb9 b03c
000000a0: 379d 733d e003 963c f51f b43d f08b aebd
000000b0: d31c ddbc ca40 5b3d 9461 5d3d 608a 02bd
000000c0: 9d76 93bd 4233 abbd b1f4 8a3d 12eb 92bd
000000d0: 98ee d43c c000 0d3d bb1f d7bc a17f 833c
000000e0: 2052 f2bc 2d25 c43c 4ad8 9b3c f13d b2bd
000000f0: 6462 febc 5669 5fbd b542 4b3d e518 433b
00000100: b361 99bd 7ba9 5e3d 1a0c fabc 71ed 27bc
00000110: a1f1 993d ebd4 8f3d 850f 91bd edbb 0fbd
00000120: 17ac 0b3b 1620 a4bc 1659 943d bd5e 81bc
00000130: e519 6cbb 76e8 503d bc69 8bbd 0fe6 d13c
00000140: 4850 833d d1dc aa3d 74f1 85bd e3f6 14bc
00000150: af39 5b3d ea38 43bd 3a3a 2a3d 7ab1 c7bc
00000160: e328 623c 7ca5 dbbc ad95 953d 6983 8c3d
00000170: 869e 0d3d 3eb2 57bd 4783 57bd 613a 8fbd
00000180: 2d43 a8bc bd0e 46bb 2378 e83c 05b5 113d
00000190: 05d7 30bd 47fe 383d 6944 adbd 315d 953d
000001a0: f13b a7bd 7dbf 75bd ebee 0a3d 9fcc 9bbb
000001b0: 119a 81bb f543 d13c 45d4 343d 5ce2 853d
000001c0: abb3 87bc e958 d0bc 3603 81bc 4786 493d
000001d0: c63f 823c aaf4 1b3a 3184 233d 5701 45bd
000001e0: 2115 8abd 5586 56bc 4b0c 7fbd db2c 853d
000001f0: 9fae f23c a47e f8bc e099 2abc 7007 30bd

4.weight f4 [4, 128]
-0.0246187 0.011926125 -0.0100076 -0.05885154 -0.011077603 0.010645419 0.01883627 -0.029605158
-0.081021875 0.023846466 0.024137605 0.03386514 0.056688163 -0.067536026 0.030575484 -0.079353295
0.08182051 0.041210808 -0.013035641 0.034675337 0.05852918 -0.054495063 0.064273655 -0.013274582
0.025060631 0.085210495 -0.0821783 -0.056529924 0.070505194 0.027726177 -0.042485636 -0.013527989
0.079519406 0.07386177 0.017411737 0.061987635 0.054806285 0.0717519 0.08002641 0.014759057
0.033408582 0.0031807804 0.0555408 -0.020253288 -0.046709232 0.03323339 0.05993758 -0.024484547
0.023156121 -0.087576374 -0.0536265 0.03393285 -0.020557778 0.04386386 -0.024369929 0.00734825
-0.005267924 -0.03845923 0.08204107 0.07527918 0.08007782 0.08448754 0.04213568 0.028080642
-0.041751944 0.0011065761 -0.06438087 -0.056065824 0.08127162 -0.042347066 -0.06581144 -0.034747496
0.037610203 -0.07092349 -0.018774524 0.062492605 0.08218049 -0.073349014 0.07956599 -0.04408943
-0.014642226 0.07118446 0.03076154 0.029782923 0.00782746 0.0021440312 -0.06462804 -0.07352792
-0.0055008275 -0.07416676 0.07305162 -0.087124385 -0.01022414 -0.054946613 0.03691001 -0.07239632
0.015911888 -0.013751979 0.043169055 -0.016758313 -0.068618126 0.05954631 0.026684675 -0.069564596
0.06795649 -0.03369221 0.0565254 -0.035809584 -0.040703855 0.05861759 -0.08273005 -0.02240791
0.046002768 0.0054390086 -0.06528483 0.05957558 -0.06642655 -0.08813247 0.070368685 -0.031153655
-0.04759634 -0.016941251 -0.027505727 0.01369232 -0.006559651 -0.07027814 0.009606878 -0.039419778
0.0057150703 -0.03451024 0.023193873 0.08742054 0.027259022 -0.014417119 0.0041987957 -0.06235351
0.050860908 0.07796571 -0.023646425 -0.029514404 0.07408247 -0.0040986757 0.03607019 -0.043402467
0.056478355 -0.07717251 -0.061737325 0.057059973 0.022019599 0.06746961 -0.07355712 0.043706987
-0.029711388 0.041713748 -0.052904766 0.057615615 -0.07089575 0.08660896 0.068238854 -0.034948397
-0.045905724 -0.026695803 0.013221476 -0.08732527 -0.08610019 0.08112736 0.015753808 -0.061364587
-0.083703406 -0.031664222 0.06230046 -0.018554991 -0.049158987 0.07506341 0.058447354 0.057914205
0.00863945 -0.06527625 -0.004664824 0.042001452 0.06925585 -0.018341212 -0.010936095 0.056930162
-0.06881747 -0.039035134 -0.03212791 0.006804956 0.05201553 0.08476694 -0.030740552 -0.015911035
-0.081150815 -0.042744312 -0.019348532 0.029315766 0.051525563 0.07068419 -0.065840386 0.08125836
-0.0818893 0.06783085 0.051844362 -0.037615325 0.0120498575 0.06663222 -0.038100876 0.021233128
0.052266665 0.03171776 0.087718315 -0.08716201 0.08688634 0.034431152 0.022339104 0.015462593
0.023280611 -0.046097502 0.024699666 -0.022412524 0.07886268 0.05729042 0.06223221 0.036414415
-0.039376892 0.07218988 -0.02372818 -0.042808544 -0.060228836 -0.085102186 0.068684295 0.03489582
-0.068857394 0.009043438 -0.038166005 -0.083350904 0.032357063 -0.06881667 0.018788444 -0.043480974
0.08151543 0.08373436 0.007169379 -0.056913987 0.07224175 0.034339566 0.08259499 0.00157743
-0.042389434 0.08462817 0.04190971 -0.048699323 0.024495263 0.04108223 -0.009357106 -0.0097051235
00000000: 28ad c9bc cb65 433c ebf6 23bc 500e 71bd
00000010: d67e 35bc 206a 2e3c 854e 9a3c 8486 f2bc
00000020: ccee a5bd aa59 c33c 3abc c53c 2cb6 0a3d
00000030: d931 683d 5450 8abd 7079 fa3c fb83 a2bd
00000040: 8391 a73d aacc 283d 7193 55bc ba07 0e3d
00000050: 4bbc 6f3d 3736 5fbd e8a1 833d a27d 59bc
00000060: f44b cd3c d782 ae3d 194d a8bd ec8b 67bd
00000070: 0765 903d 0222 e33c 6b05 2ebd 80a4 5dbc
00000080: 12db a23d d744 973d 0fa3 8e3c bfe6 7d3d
00000090: 8e7c 603d a9f2 923d e3e4 a33d f9cf 713c
000000a0: 70d7 083d a474 503b c07e 633d 39ea a5bc
000000b0: 2e52 3fbd bc1f 083d 1c81 753d d193 c8bc
000000c0: e8b1 bd3c 3e5b b3bd 76a7 5bbd 2cfd 0a3d
000000d0: c968 a8bc 97aa 333d 72a3 c7bc 97c9 f03b
000000e0: 8d9e acbb 6d87 1dbd 2605 a83d f92b 9a3d
000000f0: d7ff a33d ce07 ad3d 7696 2c3d 6009 e63c
00000100: 1604 2bbd 880a 913a 1eda 83bd 47a5 65bd
00000110: bc71 a63d 1e74 2dbd 26c8 86bd 6453 0ebd
00000120: 280d 1a3d 5640 91bd 08cd 99bc 3ff8 7f3d
00000130: 3f4e a83d 0238 96bd 7ef3 a23d 1e97 34bd
00000140: f2e5 6fbc 28c9 913d a0ff fb3c 51fb f33c
00000150: bf3e 003c e082 0c3b b55b 84bd ce95 96bd
00000160: 4940 b4bb bee4 97bd 169c 953d 456e b2bd
00000170: 2783 27bc b30f 61bd f32e 173d 8644 94bd
00000180: a659 823c fb4f 61bc 09d2 303d bb48 89bc
00000190: a987 8cbd d5e6 733d d299 da3c e277 8ebd
000001a0: c62c 8b3d d800 0abd 2e87 673d 12ad 12bd
000001b0: 16b9 26bd 0019 703d 5f6e a9bd cb90 b7bc
000001c0: 666d 3c3d b639 b23b 0eb4 85bd 8605 743d
000001d0: a50a 88bd cc7e b4bd 751d 903d f335 ffbc
000001e0: 61f4 42bd 61c8 8abc b153 e1bc c155 603c
000001f0: 57f2 d6bb fced 8fbd 2b66 1d3c a276 21bd
00000200: 7c45 bb3b 9c5a 0dbd 1401 be3c 8a09 b33d
00000210: 504e df3c c835 6cbc 0d96 893b 6566 7fbd
00000220: 8753 503d 7cac 9f3d 26b6 c1bc 31c8 f1bc
00000230: 8db8 973d 2f4e 86bb 56be 133d c9c6 31bd
00000240: d955 673d 9f0c 9ebd 47e0 7cbd b8b7 693d
00000250: 7262 b43c 822d 8a3d 1ea5 96bd 1906 333d
00000260: 4c65 f3bc 09dc 2a3d abb2 58bd 5afe 6b3d
00000270: ca31 91bd 0a60 b13d d0c0 8b3d 0d26 0fbd
00000280: a407 3cbd 28b1 dabc e49e 583c 97d7 b2bd
00000290: 4c55 b0bd 1a26 a63d 210e 813c 6f59 7bbd
000002a0: b16c abbd 58b2 01bd c42e 7f3d a300 98bc
000002b0: ef5a 49bd d8ba 993d 7e66 6f3d 7237 6d3d
000002c0: 7b8c 0d3c 8eaf 85bd 61db 98bb b709 2c3d
000002d0: 03d6 8d3d 4f40 96bc 4f2d 33bc 9a2f 693d
000002e0: 2cf0 8cbd 4ee3 1fbd 8e98 03bd 1cfc de3b
000002f0: 3d0e 553d 4a9a ad3d 9cd3 fbbc dc57 82bc
00000300: 6632 a6bd a914 2fbd d080 9ebc 9e27 f03c
00000310: 780c 533d dfc2 903d 53d7 86bd c86a a63d
00000320: 94b5 a7bd e7ea 8a3d c15a 543d 8712 1abd
00000330: c46c 453c 7976 883d aa0f 1cbd 19f1 ad3c
00000340: 9215 563d 7bea 013d a9a5 b33d ff81 b2bd
00000350: 77f1 b13d ae07 0d3d 7f00 b73c d156 7d3c
00000360: fbb6 be3c bcd0 3cbd f456 ca3c 789a b7bc
00000370: c282 a13d 5ca9 6a3d 34e7 7e3d 4827 153d
00000380: aa49 21bd 4ad8 933d 9a61 c2bc 0358 2fbd
00000390: 83b2 76bd 0e4a aebd 5aaa 8c3d ebee 0e3d
000003a0: 1b05 8dbd ee2a 143c f553 1cbd e1b3 aabd
000003b0: d788 043d c1ef 8cbd 39ea 993c 1b19 32bd
000003c0: 90f1 a63d ec7c ab3d 1ced ea3b a41e 69bd
000003d0: 7cf3 933d a5a7 0c3d 9027 a93d c5c1 ce3a
000003e0: 8ba0 2dbd 8951 ad3d 84a9 2b3d f178 47bd
000003f0: 4aaa c83c d745 283d 8c4e 19bc 3d02 1fbc

4.bias f4 [4]
0.011475775 -0.063708514 0.05444219 0.0346673
00000000: e404 3c3c 9c79 82bd c6fe 5e3d 4cff 0d3d
