g2048.pth (torch, 680552 bytes, 8 tensors)

conv.0.weight f4 [64, 16, 2, 2]
000000 d8 88 b9 3c 88 e1 d0 3d 30 01 1c bc 12 fb 9e bd
       0.02264826 0.10199267 -0.0095217675 -0.077627316
000010 88 d8 f5 3d 1d 4f 7d 3d 6d 62 c8 3d 65 af ab 3d
       0.12004191 0.061843026 0.09784398 0.08383063
000020 e1 0d ca 3d 27 5f 34 3e 61 84 23 3e 6e da fa 3d
       0.098659284 0.17614423 0.15968467 0.122486934
000030 6d 15 4f bf 9c ef 88 bb 25 ac 59 3e 3f 25 81 bd
       -0.8089207 -0.0041789543 0.21257074 -0.06305932
000040 f8 45 50 bf 36 95 07 bf 35 a6 58 bf 1b b2 7d bf
       -0.81356764 -0.5296205 -0.8462861 -0.9909989
000050 60 58 f6 3e e4 28 ae 3e dd e3 78 3e 87 4b 65 3e
       0.481143 0.34015572 0.24305673 0.22392093
000060 cc 56 e1 3d 3f 17 1b 3e d2 46 a9 3d b1 ee 32 3e
       0.11002883 0.15145586 0.08265461 0.17473866
000070 da d4 b0 3b 27 5e 2e bd c4 da 47 be c0 e5 2c 3e
       0.0053964676 -0.04257026 -0.19517046 0.16884518
000080 09 7b 31 3e 29 a8 51 3c c4 d3 88 bd b4 0c cc bd
       0.1733209 0.01279644 -0.06681016 -0.099633604
000090 35 b4 42 be b8 ee 40 3b 3f 96 15 bf 55 b3 7a bc
       -0.19014056 0.0029439162 -0.5843238 -0.015301545
0000a0 18 5a 76 be c8 56 d6 3d c5 14 b1 be ee a1 64 bb
       -0.24057806 0.10465771 -0.34586158 -0.0034886557
0000b0 3a 1c 92 3d 48 6c 0d 3d 40 ae 64 bc 18 1c ce bd
       0.0713429 0.034527093 -0.01395756 -0.10063952
0000c0 b8 cd e5 3c 40 d2 f4 bb 00 38 ad b8 00 df 17 3b
       0.028052196 -0.007471353 -8.259714e-05 0.002317369
0000d0 c0 c3 d3 3c f0 d7 5c 3d 00 ff ec ba 60 7b e7 bb
       0.025850177 0.05391687 -0.0018081367 -0.007064268
0000e0 e4 eb 8a bd 00 0a ae bd 10 be b3 bd 50 87 43 bd
       -0.06783274 -0.08498001 -0.08776486 -0.047736466
0000f0 e2 44 fa 3d b4 f6 78 bd 50 7e f5 3d 28 7b ae 3c
       0.122201696 -0.06078215 0.11986983 0.02129896
000100 18 02 e2 3d 0c 2a 14 3d 48 7c bb bc 8c d3 fe 3d
       0.110355556 0.03617291 -0.02288641 0.12442693
000110 f7 d9 61 bc 12 76 67 3e 33 2e 38 bd b1 24 59 3e
       -0.013784877 0.22603634 -0.044965934 0.21205403
000120 5e 1c 27 3d f5 93 b7 3c 89 3c 87 3e 00 4d 1b 3c
       0.040798537 0.022409419 0.26413372 0.009478807
000130 aa 87 60 be 89 62 7e 3e d9 95 81 3e 2f 93 2d be
       -0.21926752 0.24842276 0.25309637 -0.16950677
000140 27 e5 3b 3d f6 df be 3c 4b bf 4d 3e 80 04 a4 bb
       0.045872834 0.023300152 0.20092504 -0.0050054193
000150 bd a6 c5 3e 66 c0 20 bc 27 bd 2f be f6 47 93 3d
       0.38603774 -0.009811496 -0.17162 0.0719146
000160 4c cf 0a 3f 6d ea 1e bf 79 bd 61 bf f9 37 14 3f
       0.5422256 -0.62076455 -0.8817974 0.5789791
000170 98 01 36 be 26 07 ca 3d f2 1f 31 3e 0c ca 19 bf
       -0.17774045 0.09864645 0.17297342 -0.60073924
000180 90 65 6a bb 78 d9 8b bc d0 e1 9b 3d 65 73 8e be
       -0.0035766102 -0.01707147 0.0761143 -0.27822414
000190 e0 cc 9a 3c 35 95 f3 bd e3 07 36 3e b7 d1 6f be
       0.01889652 -0.11893693 0.17776446 -0.23419844
0001a0 68 84 e4 bd 9d 3e 24 bf ea f7 47 bd 1a d2 aa be
       -0.11158067 -0.6415804 -0.048820414 -0.3336342
0001b0 63 3a 3e bd 21 c4 f1 3d 30 24 53 bc e0 5d 1d bd
       -0.0464424 0.11804987 -0.012887046 -0.038419604
0001c0 00 65 ac bb b4 7e c1 3d 20 27 95 3c 38 96 bb 3c
       -0.0052610636 0.09447995 0.018207133 0.022898778
0001d0 30 a2 12 bc 68 07 89 bc 70 5e 01 3d 28 7f f7 3c
       -0.008949801 -0.016727164 0.031584203 0.030212
0001e0 62 f1 e7 3d f4 43 8a 3d 40 ed 3d 3b 2a 8d 84 bd
       0.11325337 0.06751242 0.0028980523 -0.064722374
0001f0 c4 9f 99 3d 8a e2 fa 3d f4 c0 8e 3d 48 b9 10 bd
       0.07501176 0.1225024 0.06970397 -0.035332948
000200 68 97 0e bd 00 3d 68 bd f0 ee 20 bc 60 eb 20 3d
       -0.03481236 -0.0566988 -0.009822592 0.03928697
000210 d9 dd 26 3e 20 fc 2f bc f0 45 bf bd 8e 61 ac 3c
       0.16295566 -0.010741264 -0.093395114 0.021042611
000220 2f a0 7c 3c fd 3c 3e 3e b3 bc 4c bd 93 e3 33 3e
       0.01541905 0.18577953 -0.049984645 0.17567281
000230 9d b3 00 3e 9e 4f 7d 3b 17 65 de bd 3b 13 ac 3d
       0.12568517 0.0038652192 -0.10859125 0.084021054
000240 08 f0 71 bb 64 ff 78 3e 4b ce 63 bd d5 21 99 3c
       -0.0036916751 0.24316174 -0.05561666 0.01869289
000250 29 a9 51 bc 2f 7e 34 3e 73 32 0a 3e cc e4 99 3c
       -0.012796679 0.1762626 0.13495807 0.018785857
000260 19 38 4e be 73 18 8d 3d 5a 26 ce 3e d1 66 83 3e
       -0.20138587 0.06889429 0.40263635 0.2566438
000270 2b bb 51 bd c3 a0 0d be a5 ac 1d be f0 f4 fc 3d
       -0.051203888 -0.13830857 -0.1539789 0.123514056
000280 09 db d3 3d 2e de 94 3e 5d 55 26 3f d2 19 1f bf
       0.10344512 0.2907576 0.64974004 -0.62148774
000290 14 e8 a0 3e 11 29 73 bd d2 8b b4 3e ec 52 25 bd
       0.31427062 -0.059365336 0.35262924 -0.040362284
0002a0 62 a6 98 3e a6 c9 97 3e 8b 4e 1c 3e 82 fb 54 3e
       0.2981444 0.29646033 0.15264337 0.20799068
0002b0 d6 4d 31 bd e4 3e 62 3d 80 14 3a bc a0 28 c9 3d
       -0.04328712 0.05523576 -0.011357427 0.09822202
0002c0 54 f6 f4 bd e4 87 7f bd 34 84 b2 3d bc 11 e4 bd
       -0.11961046 -0.062385455 0.08716622 -0.11136195
0002d0 64 48 ed 3d 18 f3 ae 3c 14 a3 24 bd 8c e7 15 bd
       0.11586073 0.02135615 -0.040194586 -0.036597773
0002e0 a0 3e d7 3b fc 52 70 3d fa 22 e2 bd 08 69 26 bd
       0.006568745 0.05867289 -0.110418275 -0.04062751
0002f0 3c 15 59 bd 78 1a d7 bc d8 c4 1d 3d 08 fe 76 bd
       -0.052998766 -0.026257738 0.038517803 -0.060300857
000300 e8 09 fe 3d 54 70 8b bd be 5c 92 3d 1a b6 da 3d
       0.12404233 -0.06808534 0.071465954 0.10679264
000310 29 a2 6a 3e 3b 02 d5 bd 7b 12 99 3d 30 3d 1b bf
       0.22913422 -0.10400816 0.07474228 -0.6064024
000320 97 04 18 be 30 ee ca 3e 2f ed 0f bf 95 9c c9 3e
       -0.14845501 0.39634848 -0.5622129 0.39377275
000330 5a 21 fe 3d 57 be 88 3c 3a 89 89 3e 10 ab 21 3e
       0.12408705 0.016692324 0.26862508 0.15787911
000340 b6 57 04 bd 33 e9 bf bd 70 5a a7 3e 9a f7 12 bc
       -0.03231021 -0.09370651 0.32686186 -0.008970166
000350 14 aa 0f 3c 42 0a a3 3e 2e c7 62 3e 8b 8b de 3d
       0.008768577 0.31843764 0.22146294 0.108664595
000360 18 fc a6 3c 97 64 f6 be 88 1d d9 be 67 8f 1d be
       0.02038388 -0.4812362 -0.42405343 -0.15386735
000370 91 eb 29 be 40 81 b4 3e 8f de 12 bf 12 a6 0e 3e
       -0.16593768 0.3525486 -0.5737085 0.13930538
000380 46 da b3 be 1e de 81 be 0b dc 82 be 28 d7 45 bf
       -0.35127467 -0.25364774 -0.25558504 -0.7728143
000390 6f c8 8d bd fd 7b 70 bf a7 a8 50 bf c6 6f 1b bf
       -0.06922995 -0.9393919 -0.81507343 -0.6071743
0003a0 e4 cc dc be 2c 5c a8 be 80 51 a1 bd ff 44 8d be
       -0.4312507 -0.32882822 -0.07876873 -0.27591702
0003b0 1e ef 17 be bd 7b 8b bd c0 26 18 bb 18 7d b5 bd
       -0.1483731 -0.068107106 -0.0023216456 -0.0886175
0003c0 0a 4d b4 bd bc 66 f7 bd 22 ca a3 3d 78 eb 59 bd
       -0.088037565 -0.12080142 0.07997538 -0.053203076
0003d0 a8 90 38 3d d4 0a a8 3d 52 50 cb 3d 00 e6 da 3c
       0.04505983 0.0820519 0.09927429 0.026721
0003e0 98 8d ac 3c 64 1f 6d bd 7e 72 af bd 4c 70 0d 3d
       0.02106361 -0.057891265 -0.085667595 0.034530923
0003f0 30 75 13 bd 50 ae 6f bc 4c 8d a9 bd 2c 08 b7 3d
       -0.03600043 -0.014628962 -0.08278903 0.089371055

conv.0.bias f4 [64]
000000 4d 9f b6 bb 44 11 38 3d d9 66 0a 3e 93 19 1d 3d
       -0.0055731894 0.04493834 0.13515796 0.038354468
000010 af 98 16 3e ed 63 7f 3c db 91 20 bd a0 eb 6a 3a
       0.14706682 0.015587789 -0.0392016 0.00089615025
000020 a2 c6 a7 3d 8d 55 53 3d 95 ad 24 bd 6d da f3 3d
       0.08192183 0.05159526 -0.040204603 0.11906896
000030 2d a0 30 bd 66 ca b7 bd 13 9a 0d 3c 77 47 e5 bc
       -0.043121506 -0.08974151 0.008642691 -0.027988179
000040 4d 26 9d 3d 68 4f 14 3e b9 fb 1b bd 28 b8 22 3e
       0.07673321 0.14483416 -0.03808186 0.15890563
000050 d9 2f a6 bc c6 14 d9 3d 85 29 04 bd 3d ca 15 3e
       -0.020286487 0.10599665 -0.03226616 0.14627929
000060 7b 1c e9 3b e0 74 20 3d f2 ff 8d 3c ac 98 15 3e
       0.007113991 0.03917396 0.017333958 0.14609021
000070 20 8c db bb c3 9c b2 bd 05 3b ad bc 59 d6 18 3e
       -0.006700054 -0.08721306 -0.021146307 0.14925517
000080 38 0b d6 bb 5e 0d f7 3d a5 42 15 3e f7 53 b6 3d
       -0.006532099 0.120630965 0.14576204 0.08902734
000090 7b 02 d1 3d 75 eb be 39 d8 fc 37 3e 87 6a a8 3d
       0.10205551 0.00036415053 0.17967546 0.082234435
0000a0 23 21 10 bc 9f 96 9a 3d 49 4e 13 3e 4e 1e 89 bc
       -0.008796963 0.0754826 0.14385332 -0.016738083
0000b0 ba 39 50 bd f0 b6 12 3e 55 ab 36 bc 6e b5 35 3e
       -0.050836302 0.14327598 -0.011149247 0.17744991
0000c0 37 8d ba bc ed fc ad bc 17 80 ff 3b 5e 24 ba 3d
       -0.022772415 -0.021238768 0.007797252 0.09088968
0000d0 84 5b 8e bc b9 4e 7a 3c 3e 73 37 3e d2 f7 4e 3e
       -0.017377622 0.015277558 0.17915055 0.20211723
0000e0 5b bb 13 3e 6f 55 86 3d 63 2f 1d bd 70 5d 84 3d
       0.14426939 0.06559264 -0.03837527 0.06463134
0000f0 c2 2b cd bc d2 34 22 3d 9b 4c a6 3d be 2f b7 3d
       -0.02504528 0.039601155 0.0812008 0.08944653

conv.2.weight f4 [128, 64, 2, 2]
000000 8e ce 4f 3f 4f 62 92 be 96 a2 84 3e 6c 06 15 be
       0.8117455 -0.28590629 0.25905293 -0.14553231
000010 49 f7 ba be 69 0e 29 be 2a 53 e2 bd d1 24 18 3e
       -0.3651679 -0.16509403 -0.110510185 0.14857794
000020 a7 ec 0f be 20 c5 86 be b4 ac 88 3d 63 12 54 3d
       -0.1405512 -0.2632227 0.066735655 0.051775347
000030 28 d0 3b 3d 0c d2 31 3e ea b0 17 3e 82 fd 35 bd
       0.04585281 0.17365283 0.14813581 -0.044431217
000040 d4 dd 94 bd 8e 1f 53 3d 26 76 43 be c7 61 48 be
       -0.07268873 0.051543765 -0.19088039 -0.19568549
000050 7b 95 a0 3e 34 cb 88 bd 28 25 3c be 92 8d cd be
       0.31364045 -0.06679383 -0.18373549 -0.40147072
000060 a8 ec 52 3e 67 7c 4c 3e 09 b6 94 3d 3f fa 2c 3f
       0.2059809 0.1996933 0.07261283 0.67569345
000070 b1 ec e9 3e 9b 25 3c 3e 2d 95 82 3e df ee 24 3e
       0.45688394 0.1837372 0.25504437 0.16106747
000080 59 e2 08 3c 77 02 1b be 9e 07 22 be dc eb 99 bc
       0.008354747 -0.15137659 -0.15823218 -0.018789224
000090 1a 34 a0 be 74 51 ad be 3d 75 2f 3e 34 4c f4 bd
       -0.3128975 -0.33851206 0.17134567 -0.11928597
0000a0 b9 20 ca 3d f2 38 57 3e 9d 57 c9 bc 3c 2c c7 3e
       0.098695226 0.21017817 -0.02457791 0.38900936
0000b0 25 bb 7d be d6 b0 1d be 84 73 cc be 5a f9 0e 3e
       -0.24778421 -0.15399489 -0.3993188 0.13962308
0000c0 05 fb ea 3a da e5 24 3d 5e 12 c4 3b 95 b4 1f 3e
       0.0017927593 0.040258266 0.005983635 0.1559623
0000d0 74 8b ed 3e bc eb b0 be 60 d2 6c 3f 53 26 06 3f
       0.46395457 -0.3455485 0.92508507 0.5240223
0000e0 2b 93 20 be 06 14 51 be a5 b9 54 3e 3d b4 83 3e
       -0.1568114 -0.20417795 0.20773943 0.25723448
0000f0 ad 9c 08 bf fb 6a 4a 3e 49 a4 15 3e f3 50 b5 3e
       -0.5336407 0.19767372 0.14613451 0.35413322
000100 c3 5d 40 3e d6 51 12 3f ff 7d 2a be 6b 3b 32 3f
       0.18785767 0.5715612 -0.16649626 0.69621915
000110 07 5d 83 bd 03 5e 0d be 03 30 42 3d 99 d7 c7 bd
       -0.06414228 -0.13805394 0.04740907 -0.09757919
000120 54 27 60 3e 81 0f 2e 3e 7d 7a 10 3f e9 6b 07 3f
       0.21890002 0.16998102 0.564369 0.5289903
000130 50 e2 17 bd b6 34 67 be 53 0b 13 3e 78 00 10 3e
       -0.037081063 -0.22578701 0.14359789 0.14062679
000140 11 cb 87 3d 8b 8a 09 3e e7 21 c1 3e 2e ab 12 3c
       0.06630529 0.13431756 0.37721178 0.008951945
000150 d5 31 99 3d 6a df e7 bc 9f a2 64 bd c2 44 6a 3c
       0.07480208 -0.028304774 -0.05581915 0.01429862
000160 d2 d3 41 3f 4a 0a 65 3e e3 20 e9 3e 8a f9 14 3f
       0.7571384 0.22367206 0.45532903 0.58193266
000170 ea 99 cb bd c9 78 39 bf 5d c9 52 be 41 3f 11 be
       -0.09941466 -0.7244993 -0.20584626 -0.14184286
000180 8a 83 44 3e 10 e4 a0 3d 97 b5 13 be fd bc 0d be
       0.19190803 0.078559995 -0.1442474 -0.13841625
000190 ba 1a 81 be 1f a8 1a 3e 45 1a 93 be 63 95 01 bf
       -0.25215703 0.15103196 -0.2873098 -0.5061857
0001a0 ff fd 18 3e db 7b c7 bd 4b a8 26 be 64 ab 6b be
       0.14940642 -0.097404204 -0.16275136 -0.23014599
0001b0 67 96 c4 3d df 4f 99 3e 85 9f 91 be 5a 5e 6d 3d
       0.095989995 0.2994375 -0.28442016 0.05795131
0001c0 98 66 88 bd 5b 70 2f 3e 44 c9 8c bd 0d a9 cc be
       -0.06660193 0.17132704 -0.06874326 -0.39972726
0001d0 05 ff 71 3e 4e 8e 5b 3e a7 cc 37 3e 84 48 c8 3d
       0.23632438 0.21441004 0.17949162 0.09779456
0001e0 22 c6 43 bd 1d d0 3a 3d 1b b8 be bd 54 9b 39 3e
       -0.047796376 0.04560863 -0.09312459 0.18125659
0001f0 ce 97 f2 bd 64 e3 00 3d 27 0a 1c bd e1 7d 8e be
       -0.11845361 0.031466857 -0.03809562 -0.27830413
000200 36 42 c2 be 3a c5 42 3e 78 f7 44 3c 91 e3 35 3e
       -0.3794114 0.19020548 0.012021892 0.17762591
000210 db 11 da bd f5 b6 d2 3e 6e b5 4f bd b7 d6 aa 3d
       -0.10647937 0.4115521 -0.050710134 0.08341735
000220 57 a5 b8 be 8b a9 d1 bd c0 49 19 3e 9c f4 69 3e
       -0.36063644 -0.10237416 0.1496954 0.22847217
000230 41 29 3d 3e 0c 53 6c be 20 d0 24 3f 52 b8 a6 3e
       0.18472768 -0.23078555 0.64380074 0.325625
000240 d4 49 96 be ef 0d 4d 3e 58 2c 6d bd 4c e3 89 be
       -0.293532 0.20024846 -0.057903618 -0.26931226
000250 e7 17 15 3d f7 b8 a1 be b3 a0 7d 3d 6f 36 ae bd
       0.03639975 -0.3158643 0.061920833 -0.08506476
000260 b6 19 60 be 4c 67 a5 be 4a 7e 0a 3d 72 f8 34 be
       -0.21884808 -0.32305372 0.033811845 -0.176729
000270 02 89 8d 3d 46 cd aa be 15 cf 86 3e a3 6c 4b 3e
       0.06910898 -0.33359736 0.26329866 0.1986566
000280 ab f7 17 be 3b 44 30 3e 27 9b 03 bf 73 3c 78 be
       -0.14840572 0.17213528 -0.5140862 -0.2424181
000290 91 e7 0e 3e 2c a5 09 3e 48 bd 76 3e b2 80 91 3e
       0.13955523 0.13441914 0.24095643 0.284185
0002a0 e5 c3 fa bd fd 17 d6 be 1e 2b 9b be 1e c4 4a be
       -0.12244395 -0.41815177 -0.30306333 -0.19801375
0002b0 20 b9 05 bf 7b 8a 9b 3e ea 92 09 3f 2d cf bb be
       -0.52235603 0.3037909 0.537398 -0.366815
0002c0 27 72 11 3f 30 a2 0d 3e 11 7b 9a 3e 5d cc e9 3d
       0.5681481 0.13831401 0.30172017 0.11415932
0002d0 ca 03 8c 3d da 73 66 bd bb 77 2b be 19 20 d5 be
       0.0683666 -0.05626283 -0.16744892 -0.4162605
0002e0 15 d3 8c bd 73 10 88 bd 0e 59 7c 3e 13 5d a1 3e
       -0.06876198 -0.066437624 0.24643347 0.31516322
0002f0 76 a4 be 3d a4 bc c2 3e 68 d9 b4 3e 44 d4 3a bd
       0.09308712 0.38034546 0.35322118 -0.04561259
000300 4e ec f0 3d ed ed 6c 3e 38 c2 b6 3e f9 b1 e9 be
       0.117638215 0.23137636 0.35695052 -0.45643595
000310 52 fd f5 3e d8 4e fa 3d b9 c6 13 3e b4 41 d5 bd
       0.4804483 0.122220695 0.14431275 -0.104129225
000320 8e b0 bd 3d 5f 14 05 3e 5d 89 a9 3e 91 08 0c 3f
       0.09262191 0.12996052 0.33112612 0.5470057
000330 8f 88 6b 3e de c0 fa 3e c3 c4 23 be ea 6f 41 3e
       0.23001312 0.4897527 -0.15993027 0.18890348
000340 bc 65 9f 3d 81 1f 25 be 6b dd 48 bc 03 d4 33 3e
       0.07783076 -0.16125299 -0.012259821 0.17561345
000350 03 c1 ba bc 20 92 4c 3e 8b d9 61 3e 99 72 35 3f
       -0.022797113 0.19977617 0.22055642 0.7087799
000360 ec 7c 94 be c9 9d 14 be 7f e9 a4 bd 66 1e 4e bd
       -0.29001558 -0.14513315 -0.08052348 -0.05032196
000370 64 f1 40 3e b9 5b 13 3e ee 85 62 be ba 24 25 bd
       0.18842083 0.14390458 -0.22121403 -0.04031823
000380 44 ec ff 3c c4 2f 94 be 3c ef ef 3d f5 0d 09 3f
       0.03124059 -0.28942692 0.11715552 0.5353692
000390 b2 79 e8 bb d9 22 da be ea 32 1c bf 3f 2a b3 bd
       -0.0070945853 -0.42604712 -0.6101519 -0.08748292
0003a0 c3 60 96 bd b3 92 22 be 84 7b 95 be bd cb 86 3d
       -0.073426746 -0.15876274 -0.29195797 0.06581829
0003b0 27 91 36 3e de af 0b be af d4 e3 bc 58 0a 41 be
       0.17828809 -0.13641307 -0.027811376 -0.18851602
0003c0 3a 05 9d 3e 65 25 93 3e 8b a9 0a 3f 61 32 3b 3f
       0.3066805 0.28739467 0.5416495 0.7312375
0003d0 81 95 0f 3f 22 34 07 3e 38 aa 46 3d b9 47 be 3d
       0.560875 0.13203481 0.048502177 0.09291024
0003e0 2d c6 7d bd 7d fa b8 be d2 e4 ac 3d 88 99 62 3e
       -0.061956573 -0.36128607 0.084420815 0.2212888
0003f0 69 b9 72 3e ac 94 89 3e 59 3e c4 3e 95 88 b8 3d
       0.23703541 0.2687124 0.38328817 0.09010426

conv.2.bias f4 [128]
000000 c0 49 d9 bd c3 32 68 3e 78 8a 39 bd 72 c9 94 3c
       -0.1060977 0.22675614 -0.04529807 0.018162463
000010 73 b8 08 be 89 6e 01 be 1e 7d 2c be fd bd c0 bd
       -0.13351612 -0.12639822 -0.16844603 -0.094112374
000020 79 cf 02 be b5 54 a0 3d 66 be 68 bd af 81 f6 b9
       -0.12774457 0.078286566 -0.056822203 -0.00047017398
000030 2e 30 44 bc c6 f9 b6 bd 82 dc 28 be 99 82 d5 bd
       -0.011974378 -0.08934359 -0.16490367 -0.104253
000040 89 f3 14 bd e9 86 34 bb a3 49 d7 bd c0 d5 c8 3e
       -0.036365066 -0.0027546233 -0.10512092 0.39225578
000050 ce aa 0e bd 8f db 0f bc 5e 62 1d bd d4 1d 8e bd
       -0.03483086 -0.008780374 -0.03842389 -0.06939283
000060 d1 4d 1d bd c5 5b 00 be 8c 87 25 be 12 ec e4 bd
       -0.03840429 -0.12535007 -0.16164988 -0.11177839
000070 99 05 4d bd 23 4b 5f be bd 0e 04 be 9d 0e 8b bd
       -0.050054166 -0.21806006 -0.12896247 -0.06789897
000080 a2 69 8e bc 93 0b dd ba 5c 18 b2 bd 84 9e d4 bd
       -0.017384354 -0.0016864411 -0.086960524 -0.10381797
000090 e7 5f 91 be 4e aa de bc a1 88 ba bd 8f eb ec bd
       -0.2839348 -0.027180817 -0.09108091 -0.11568367
0000a0 f4 ed 33 be 2e 3b d9 bd 38 80 90 bd 74 79 8b bd
       -0.1757124 -0.10606991 -0.07055706 -0.06810275
0000b0 85 22 b0 3c 9f c3 f8 bd 21 91 83 bd 83 ec d6 bd
       0.021500835 -0.12146687 -0.064241655 -0.1049433
0000c0 71 e5 f0 bd ba b8 ef bd b6 9c 0b bd 72 aa 99 bd
       -0.117625125 -0.11705156 -0.034084998 -0.07503213
0000d0 c2 f8 3f bd b4 f6 69 3c b2 33 86 bd 74 d3 6c ba
       -0.046868093 0.01428001 -0.06552829 -0.00090341945
0000e0 26 ba c6 bd a3 28 9e bd ce d8 be 3d 75 23 1c be
       -0.09703474 -0.077225946 0.09318696 -0.15247901
0000f0 46 a9 d0 bd 56 ac 07 bd 64 c3 d4 bd a7 b9 c4 bd
       -0.10188536 -0.033123337 -0.1038883 -0.09605723
000100 04 66 08 3d 40 a4 6c 3d fb b8 58 bd fb 07 11 3c
       0.033300415 0.05777383 -0.052910786 0.008852
000110 53 80 bc bb 92 a2 fc bd 17 1f 0d be ca 10 27 3e
       -0.005752602 -0.12335695 -0.13781391 0.16314998
000120 97 0d c1 bd f3 64 3d be cd 2f 62 bd 64 a7 00 be
       -0.0942642 -0.1849554 -0.055221368 -0.12563854
000130 5c ea f2 bd 15 54 3d bd a1 48 7e bd 6f 33 fb bd
       -0.11861107 -0.046222765 -0.062080983 -0.122656696
000140 bc e1 b2 bc d5 45 14 3c e4 be 47 3b d0 ed ef 3d
       -0.021836154 0.009049852 0.003047877 0.11715281
000150 24 6e c4 bc 25 94 a7 bd 71 e3 85 bd 71 b6 92 3e
       -0.0239783 -0.08182553 -0.06537522 0.28654817
000160 f3 85 ba bd fa 64 e2 bd 8e 58 ab bd 8f ae 09 be
       -0.0910758 -0.11054416 -0.083665 -0.13445495
000170 5f 7a 18 be 3a 51 f5 bd 75 5e 8f bd d4 92 7d bd
       -0.14890431 -0.11978383 -0.07000438 -0.061907604
000180 ff 82 b5 3e 9d 83 07 be 7a 01 4a bd 46 bd a2 bc
       0.35451505 -0.132338 -0.049317814 -0.019865643
000190 7f 3a 01 be fc ef c2 bd f9 99 50 bd 7f b2 02 be
       -0.1261997 -0.0951843 -0.05092809 -0.12763403
0001a0 6d a6 c0 bd 31 17 02 be 31 67 70 bc 47 69 9b bd
       -0.09406743 -0.1270416 -0.01467304 -0.075884394
0001b0 58 fa b3 3e 28 10 94 bd aa ed 94 bd 9b 14 d5 bd
       0.35151935 -0.07229644 -0.07271893 -0.10404321
0001c0 94 32 d8 bd ee 8f 52 3d 8f 95 ff bd 74 c3 17 3d
       -0.10556522 0.051406793 -0.12479698 0.037051633
0001d0 2b 44 8d bd cb 7c 96 3d 3d 9b 0a bc b8 a8 7e bd
       -0.06897768 0.07348021 -0.008459863 -0.06217262
0001e0 7e 25 26 3c 54 54 eb bd 4b a4 69 bd ce 73 ab bd
       0.010140775 -0.11490694 -0.057041448 -0.08371697
0001f0 69 e2 a0 bd 59 1d 1f be 2c 75 b1 bd 71 86 5e 3c
       -0.07855684 -0.15538539 -0.08664927 0.013581858

fc.1.weight f4 [256, 512]
000000 74 46 ea be c9 77 e1 3d 00 16 60 bd d1 13 2c 3e
       -0.45756876 0.11009175 -0.05470848 0.16804434
000010 aa b2 27 3e 4a 5f 27 3e b9 e8 15 3b 6d 1f 2e 3b
       0.16376749 0.16344944 0.002287431 0.0026569024
000020 c5 95 1e bf 3d a9 08 bf 6e f7 8e 3d 65 bb 7b bd
       -0.6194728 -0.5338324 0.06980787 -0.06145801
000030 87 ad 6c 3e 5d fc 31 3f 0f 2c 02 3c 90 c8 e6 3a
       0.2311307 0.695257 0.007945075 0.001760738
000040 5a b7 d5 bf 5a b9 c8 bf c7 15 de be df c4 06 bf
       -1.669658 -1.5681565 -0.4337599 -0.5264415
000050 da e2 f4 3d 43 22 21 3c 91 a1 93 3d 31 a8 bc 3d
       0.11957331 0.009834829 0.07208551 0.092117675
000060 14 e7 b5 3e f5 7f 79 ba 54 38 43 be 14 aa 26 3d
       0.3552786 -0.0009517663 -0.19064456 0.040689543
000070 82 b3 0a 3e f7 c8 de bd d1 5f f8 3e 55 3e cf bd
       0.1354504 -0.10878175 0.48510602 -0.10119311
000080 bf 0e 85 3e b9 09 1a 3d 6a 54 b7 3e c4 4c 84 3e
       0.25987813 0.03760693 0.3580659 0.25839818
000090 33 93 9f bd 12 9a e0 3d e5 d7 76 bc 49 f5 71 3e
       -0.07791748 0.109668866 -0.015066122 0.23628725
0000a0 64 50 58 3e ed 7d 95 bd c3 39 9a 3e 6d 89 29 be
       0.21124417 -0.07299409 0.30122194 -0.1655633
0000b0 5e 16 20 3e bd d2 69 3e f1 92 2b 3d 95 ea b2 3d
       0.15633532 0.22834297 0.04188818 0.08736149
0000c0 38 3c b2 3e 83 06 7e 3f a0 bf 97 3e 59 83 0f 3f
       0.34811568 0.99228686 0.29638386 0.56059796
0000d0 54 b7 ca 3e 22 5b 93 bc fe 9e 8e 3e 93 ed ac be
       0.39592993 -0.017987791 0.27855676 -0.33775005
0000e0 a2 8f e0 3e b7 eb f6 3e 59 f9 67 3e c7 71 cd 3e
       0.43859583 0.4822671 0.22653712 0.40125868
0000f0 aa ab d2 3d 83 dc 30 3e a1 d3 2f 3d 8b 6b f2 3d
       0.102866486 0.17271619 0.042926434 0.118369184
000100 1e 88 44 be ab 8f 03 3e 13 86 ee 3d e8 65 64 3e
       -0.1919255 0.12847774 0.116466664 0.22304499
000110 2b f3 a0 3c 41 bf a1 be 5a 9c 0c 3f 6c 6d ef bd
       0.019647202 -0.31591228 0.54926074 -0.116907924
000120 86 5f dc 3d 41 df 16 3f 54 a9 84 3b 14 8d 52 3c
       0.10760407 0.5893441 0.004048506 0.012851018
000130 d2 ab 82 3d 67 fd 33 bb d5 68 aa 3c e0 a6 f9 3d
       0.063804284 -0.0027464272 0.020801941 0.12190032
000140 93 5a a0 3e b6 0a 33 be 79 69 02 3d 27 78 dd 3d
       0.31319103 -0.17484555 0.031838868 0.10813933
000150 8d 9e 58 3d c3 f8 cc 3d b0 6a f1 3d dc ea 77 3d
       0.05288558 0.10008385 0.11787927 0.060526714
000160 6f 6a 09 bf aa 6d ce be 51 31 84 bb ac a9 6b 3e
       -0.5367803 -0.40318042 -0.0040341993 0.23013943
000170 67 57 7a be f0 a4 17 3f 78 c8 05 be 5e 02 c4 3b
       -0.24447404 0.5923605 -0.13064754 0.0059817275
000180 aa b0 0d 3e d8 48 0a 3f 3b 26 b7 3e 4d 37 62 3e
       0.13836923 0.540174 0.35771355 0.22091408
000190 a3 41 1c 3f 34 39 d7 3e 5e 57 b6 3d 3e 5e 22 3e
       0.61037654 0.4203583 0.08903383 0.15856263
0001a0 7f bc 52 3d df af e4 3d ea 46 89 b8 df 98 fc 3e
       0.051449295 0.11166357 -6.545878e-05 0.4933538
0001b0 d5 c0 28 be 9b 23 39 bb 33 66 aa 3e 9e ae c9 3c
       -0.1647981 -0.0028249982 0.33281097 0.024619397
0001c0 a5 7d 77 3f 92 ac ed 3e 4d c1 a9 3e cd 01 41 3e
       0.96676093 0.46420723 0.3315529 0.18848343
0001d0 ca d2 f0 be 64 81 f5 bd 2e 8a 98 3c 85 ca 3a 3e
       -0.4703582 -0.1198757 0.018620577 0.18241318
0001e0 5c 51 f8 3e a3 f3 04 3f 7a 72 d4 bd cd 73 23 3e
       0.48499572 0.5193426 -0.10373397 0.15962143
0001f0 11 bc 5d 3e 72 cf b0 3e 0a ad 9b 3d 44 2f 71 bd
       0.21653773 0.34533268 0.07601364 -0.058882967
000200 09 4f 5b 3e 14 f1 38 3f d3 37 35 3f bc 06 1a 3f
       0.21416868 0.72242856 0.70788306 0.60166526
000210 e5 2a 2d be 41 f7 fc bb b9 34 d1 be aa ab e3 bc
       -0.16910894 -0.0077199047 -0.40860537 -0.027791817
000220 1f df ed 3d ce f5 1e 3e a4 84 a2 3e cb 5c ef 3e
       0.116148226 0.15523455 0.31741822 0.46750483
000230 9c c4 5b 3e 3a 1d ad 3e b4 ab af 3e df 01 dc 3e
       0.2146172 0.3381136 0.34310687 0.42970178
000240 84 87 a5 be 4e ae 94 be b6 11 27 3e 31 3e a7 be
       -0.32329953 -0.29039234 0.1631535 -0.32664636
000250 01 af c8 3e 6f c5 65 3e 6f a6 69 3e 50 5f 28 be
       0.39196017 0.22438596 0.22817396 -0.16442609
000260 e6 27 bd 3e e5 0d 02 3d 4b 18 c5 3d 8d b7 c8 3d
       0.36944503 0.031751532 0.09623774 0.098006345
000270 ea a4 73 3e df 2f 74 3e 36 d4 38 be 65 55 df be
       0.23793378 0.23846386 -0.18049702 -0.43619838
000280 b3 71 5f 3c 32 bc 5f be 18 ed 6b 3d 20 e3 4d be
       0.013637948 -0.21849135 0.057599157 -0.20106173
000290 1b 18 4f 3e 58 38 52 be 1c df cb bd 0d 73 05 3e
       0.2022404 -0.20529306 -0.09954664 0.1303217
0002a0 98 c1 5d 3f c7 d3 b7 bb f8 ba 61 3e e8 72 1b bd
       0.86623526 -0.0056099626 0.22043979 -0.03795138
0002b0 e1 8c 04 3e b8 d3 09 3e 14 9c 2f bd 70 5c 56 3e
       0.12944366 0.1345967 -0.042873457 0.209337
0002c0 f6 27 89 3e 1a 1f 27 be f3 9b 83 3d ad 64 64 bd
       0.267883 -0.16320458 0.06426229 -0.055760074
0002d0 70 cd a2 3e 3e 6e 70 3d 1c 3f 9e 3e 6e 8e 5f 3e
       0.3179736 0.058698885 0.30907524 0.21831676
0002e0 98 6c 60 bb 6d 22 be 3d f8 dc 31 3e 7f 7d 51 3e
       -0.0034244414 0.0928391 0.17369449 0.20458029
0002f0 67 39 d5 bc a9 fb 81 3c 4c 4d 52 be 3c be 2a 3e
       -0.026028348 0.015867071 -0.20537299 0.16674131
000300 fc 44 d6 bc e6 a8 6d 3e 9b b3 94 3e 43 b1 7b 3e
       -0.026155941 0.23208961 0.29043278 0.24579339
000310 30 cd fc be 99 65 1d bf f5 5c a8 3e 8c a9 4c 3e
       -0.49375296 -0.6148315 0.3288342 0.19986552
000320 8c 44 34 b7 17 a1 d6 3c b4 2e 15 bd e3 5c 1b bd
       -1.0744796e-05 0.02619986 -0.036421493 -0.03793038
000330 5f db d9 3e 16 6c 31 3f 84 66 fb bd 0d bb b7 3d
       0.4255018 0.6930555 -0.12275413 0.08971224
000340 46 b6 72 3e 5c 33 7a be b5 8f a2 3e c0 bd fd 3b
       0.23702344 -0.24433655 0.31750265 0.007743567
000350 1b 9f ad bd 38 a1 c0 3d 9b 7c 35 3e 2e 22 56 3e
       -0.084776126 0.0940575 0.17723314 0.20911476
000360 89 63 57 3e c6 26 6d 3c 0d ea 02 be bb dc 23 3e
       0.21034063 0.014474576 -0.12784596 0.1600217
000370 1b 5e 22 3f 5f 27 42 3f d2 ed 07 3f 6f d5 23 3f
       0.63424844 0.75841326 0.5309726 0.6399755
000380 0e fc 5b 3e c0 df 2e bc 63 82 b1 3e 04 f0 19 be
       0.2148287 -0.010673463 0.3466979 -0.15032965
000390 90 4b a3 3d c0 ea f6 3e 54 f1 8b bc e6 70 95 bc
       0.07973397 0.48225975 -0.017082848 -0.01824231
0003a0 74 ea 30 3f f8 2d 9f 3e 75 f4 08 bc fe 9c 92 bd
       0.6910775 0.3108976 -0.008359064 -0.0715885
0003b0 dd 5b ae 3e 9a 13 0a 3d 2c 8d 73 3e 89 fc e4 3d
       0.3405446 0.0337101 0.23784322 0.1118098
0003c0 c0 9b a0 bd fd 79 da 3d 8f 2a 89 3e 95 d5 84 bc
       -0.07842207 0.10667799 0.26790282 -0.016215125
0003d0 35 b6 e9 3e 4a 63 64 be 67 08 ee bd a2 53 20 3d
       0.45646825 -0.22303501 -0.11622696 0.03914226
0003e0 4b aa e3 3e 24 10 6e 3e 2c 23 e9 3e 48 04 fa 3e
       0.4446586 0.23248345 0.45534647 0.4883139
0003f0 64 da fb be 0b 7b c6 bc a4 9e f5 bc fb e6 89 3c
       -0.49190056 -0.024228593 -0.029982872 0.016833773

fc.1.bias f4 [256]
000000 dd 02 2d bd 13 8e 64 3d 32 14 a8 bd 23 96 bc bc
       -0.04223906 0.055799555 -0.08206977 -0.02302081
000010 33 58 26 bd ba 99 de bc e1 98 06 3d f5 d2 9c bd
       -0.040611457 -0.027172912 0.03286064 -0.07657424
000020 2f 9d 1f 3c 82 6a a3 3d 62 8d 1e 3b c1 60 5b b9
       0.009742065 0.07979299 0.0024193157 -0.00020921511
000030 e3 17 eb bd 1e 5b 30 bd 64 d4 94 bd 0b 57 63 bd
       -0.114791654 -0.043055646 -0.07267073 -0.055502933
000040 e0 14 ee bc 56 90 d2 bb 42 5f cf 3b 86 45 15 3c
       -0.029062688 -0.0064258976 0.0063284943 0.009110814
000050 c8 b8 a0 bc 57 3c ec bd d9 e0 c0 ba d0 aa 92 3c
       -0.01961936 -0.115349464 -0.0014715447 0.017903715
000060 81 65 9e 3c 02 c4 e4 b8 60 7d cb bd b1 c3 0f bd
       0.01933551 -0.000109083965 -0.09936023 -0.035098735
000070 b4 50 ab bd 7b e5 0e 3d 36 f4 8e 3c d6 8d d7 3c
       -0.08365002 0.03488682 0.017450433 0.02631275
000080 cc 8b d1 bb 69 2f 60 3c 69 c1 4e 3c b3 29 0d bd
       -0.006394839 0.013683178 0.012619355 -0.034463596
000090 14 ad af bd e3 46 6b bc df d6 e1 3c 2b c9 99 39
       -0.08577934 -0.014360162 0.027568279 0.00029332316
0000a0 61 b8 8a 3c bf 2a 14 3d 80 f7 d6 3c d8 f8 2a 3c
       0.016933622 0.03617358 0.026241064 0.010435306
0000b0 ff be 58 bd fd e8 9b bd 24 f5 3f bd d8 5e 40 3c
       -0.052916523 -0.07612798 -0.046864644 0.0117413625
0000c0 36 40 af 3e b8 b2 8d bc 8b 7b 79 3c 3a 08 bf bd
       0.34228677 -0.017297134 0.015227209 -0.09327741
0000d0 e5 ac 86 bd a6 0a b4 bd 39 27 3b bd 7b 60 a2 bd
       -0.06575946 -0.087910935 -0.045691703 -0.079285584
0000e0 50 cd e4 bd 2f a6 d8 bc 50 96 1d bd a9 bf 28 bd
       -0.11171973 -0.02644643 -0.038473427 -0.041198406
0000f0 eb a9 11 3c ab ab b7 bd 10 9e eb bc 6d d8 2b bd
       0.008890609 -0.0896829 -0.028761894 -0.041954447
000100 64 8e a3 bb 5b 65 ef 3e 3f d5 0e bd fd b0 eb bc
       -0.0049913395 0.46757016 -0.034871336 -0.028770918
000110 6f 71 1a bd ae 13 0b be 99 03 22 bd 10 4c cb bb
       -0.037705835 -0.13581726 -0.039554212 -0.0062041357
000120 51 86 46 3e dc a0 b0 3c 1f 66 f9 bc 02 ad 58 bd
       0.19387175 0.021561079 -0.030444203 -0.052899368
000130 90 70 a8 bd d3 37 14 3d ef d3 00 3d e0 e4 81 3b
       -0.082245946 0.03618605 0.031452116 0.0039640516
000140 48 41 f9 bc 50 96 35 bc 22 c0 94 bc e3 9e 64 be
       -0.030426636 -0.011083201 -0.018158022 -0.22326235
000150 51 24 e2 bd da 5d 8a bb 58 b2 81 bc f6 8d 07 bd
       -0.11042083 -0.0042226138 -0.015832111 -0.03309437
000160 61 eb a4 bc af b1 02 bd e1 b2 af bd 89 ba 3f 3d
       -0.020131769 -0.031907734 -0.0857904 0.046808753
000170 d7 27 04 3d 37 a9 88 3c 36 d8 1c 3c 3d 7d 5f bd
       0.032264557 0.01668225 0.009573033 -0.054562796
000180 45 5c 2f 3d e9 e9 c6 bd be a1 18 bd f3 0e 4e bd
       0.042812604 -0.097125836 -0.037263624 -0.050307225
000190 6c 8f b9 bb ff 0a 2e bc f0 cc d2 bd 32 0b aa bd
       -0.005662849 -0.010622739 -0.10292995 -0.083029166
0001a0 9b 72 3f 3b 0e 3f ad bd e6 a9 1e bd fe 52 40 bd
       0.0029212597 -0.08459292 -0.038736247 -0.046954148
0001b0 c0 81 47 bd ef 86 a4 bc 2a f8 32 bd f8 c3 0d 3b
       -0.048707724 -0.020083873 -0.0436937 0.00216317
0001c0 0a fe a3 bd 93 3a 0b bc 45 52 86 bb 3b f5 cc bd
       -0.080074385 -0.008497852 -0.0040991628 -0.100077115
0001d0 c6 7f 08 3d 73 eb 81 bd 3f fb 2b bd 42 62 09 bd
       0.03332498 -0.063437365 -0.041987654 -0.03354097
0001e0 58 eb 73 bd f2 9e 24 bd 48 af 68 bd 1e 3f 82 bc
       -0.059550613 -0.040190645 -0.056807786 -0.015899237
0001f0 f8 b9 ed b9 d3 53 77 3b 40 b7 6e bb 27 ec c4 3e
       -0.0004534272 0.0037739172 -0.0036425143 0.3846142
000200 57 50 84 bc d8 ca d8 bc 66 4c 83 bd 04 55 32 bd
       -0.01615159 -0.026463911 -0.06411056 -0.04353811
000210 45 1b e0 bd 8f 33 37 3e 60 e8 17 be 5b 31 07 3d
       -0.10942701 0.17890762 -0.14834738 0.033006053
000220 a8 03 f6 3c 5e 85 90 3c f8 16 af bb 41 f9 9e bc
       0.03003104 0.01764172 -0.0053433143 -0.019405963
000230 91 69 d5 bc 1a 96 20 3d 1b d1 9a bc 99 89 82 bd
       -0.026051315 0.039205648 -0.018898537 -0.06373901
000240 42 6c e4 bc 2c 17 a9 3d ee d1 9a bc 52 78 9c bc
       -0.027883653 0.08256373 -0.01889893 -0.019100342
000250 39 ff 52 bd f3 0c 03 bd d6 c7 05 bd 66 01 3a bd
       -0.05151293 -0.03199477 -0.03266128 -0.04541149
000260 ca 32 7e bc 6b e9 7e bc 97 7d fd bc d2 e9 cf bc
       -0.015515039 -0.015558581 -0.030943675 -0.025380049
000270 d3 da 8a bd 38 51 8d bd e2 12 2a bd 62 5e 2a 3c
       -0.06780019 -0.06900257 -0.041521914 0.010398479
000280 59 6f a3 bc ae 15 48 3c ad d1 c9 bb d7 df a1 3c
       -0.019950556 0.0122122 -0.0061590285 0.019760055
000290 fd cb 0c bb d3 0a 00 3f db 5a de bc ed 74 00 3d
       -0.0021483891 0.50016516 -0.027142933 0.03136151
0002a0 49 80 fa 3c 35 35 64 3e bb b8 78 bd 3e 0e 56 bd
       0.03057875 0.22285922 -0.060723048 -0.052259676
0002b0 98 e0 9b 3a a5 e3 d5 bc 51 d2 b9 bc 0d 31 45 bd
       0.0011892496 -0.026109526 -0.022683294 -0.04814248
0002c0 bf c2 f7 3b 9f 48 4d bd 59 35 03 bd 53 1a 59 bb
       0.0075610573 -0.050118085 -0.0320333 -0.0033127263
0002d0 87 38 3b bd e1 77 b8 3e b6 8b 88 bc 5c a7 5c bc
       -0.045708206 0.3602896 -0.016668182 -0.013467636
0002e0 52 ca a1 3c ec 65 88 3b f9 11 87 bd 98 11 3e bd
       0.019749794 0.0041625407 -0.06595225 -0.046403497
0002f0 1b ec 1c bc 1b e2 8f bd 8c 19 8f bd 78 47 92 bc
       -0.009577776 -0.07025548 -0.069872946 -0.017856345
000300 e4 52 25 bd 4c bb 7f bc 79 b2 ad 3c 64 26 ab bd
       -0.040362254 -0.01560862 0.021203266 -0.08356932
000310 14 96 8b 3e e7 1b d1 bd d5 6f 13 3d 85 ce b7 3e
       0.27262938 -0.102104 0.035995323 0.3589975
000320 5d ae 60 bc 79 45 26 bd 6e 19 93 bd 23 bf 18 bc
       -0.013713446 -0.040593598 -0.07182585 -0.009322914
000330 8a a6 dc 3e 31 2b 01 3d 77 30 b8 3e 80 39 fd ba
       0.4309581 0.03153533 0.35974476 -0.0019319504
000340 fe 13 04 bd ad 3b 3a bd d5 33 ba 3e fc c8 02 3f
       -0.03224563 -0.045467068 0.3636767 0.5108793
000350 de ee b7 bd 29 93 41 3b 97 87 03 3d 8c de 47 bd
       -0.08981107 0.0029537177 0.03211173 -0.04879622
000360 f4 51 d6 bd f0 bf 11 be 45 46 1c bd 7e 05 76 bc
       -0.1046485 -0.14233375 -0.03815295 -0.015015958
000370 ff cb 0d bb d2 8c 82 bb 40 c4 a7 bd a3 34 c1 bc
       -0.0021636484 -0.0039840722 -0.081917286 -0.02358467
000380 bc 9b a7 bc 07 64 19 3d 85 f6 41 bd 1a 77 b8 bd
       -0.020460002 0.03744891 -0.04735424 -0.09007092
000390 a3 00 09 bd 03 93 3d be ba b7 7c bd c2 c2 14 bd
       -0.033447873 -0.18513112 -0.061698653 -0.036318548
0003a0 d4 20 d0 bc b5 99 ca bc ba 63 77 3d e7 6a 8c 3c
       -0.025406279 -0.024731496 0.06039784 0.017140819
0003b0 97 84 f3 bb ab 54 36 bd 36 eb f2 bc 2b d6 76 b8
       -0.0074315774 -0.04451434 -0.029653173 -5.885043e-05
0003c0 83 e7 00 be a4 e5 12 bd 05 38 17 3e 6c a0 a6 3d
       -0.12588315 -0.035863534 0.14767464 0.08136067
0003d0 35 8d d8 3e df 8d 0c 3d bf 00 60 bd 4f 68 c0 bc
       0.42295232 0.034314986 -0.05468821 -0.023487238
0003e0 14 b1 d6 3c 8c df 37 3c ce a7 e4 3c d5 8a 47 bd
       0.026207484 0.011222731 0.027912047 -0.048716385
0003f0 4b c4 9f bd c4 20 8c bc 59 bb c2 bc 3a 94 7c bd
       -0.07801112 -0.017105468 -0.023770975 -0.061664797

fc.3.weight f4 [4, 256]
000000 77 88 c5 3e df ba 02 3e b3 69 85 3e 1c 36 2a 3d
       0.38580677 0.12766598 0.26057205 0.04155551
000010 3b 30 ad 3e 58 20 45 bd 4f 89 09 bd 53 9c aa 3d
       0.3382586 -0.04812655 -0.033578213 0.08330598
000020 5d 6a 9d 3e 68 aa 8a 3f b8 9a 2f bd b5 c2 55 bd
       0.3074521 1.0833254 -0.04287216 -0.05218764
000030 a2 1a ce 3e 88 24 ea 3e 0c 74 b1 3d 50 4c e3 3e
       0.40254694 0.45730996 0.08664712 0.4439416
000040 1b 0c 63 bc e3 d6 af bd 30 36 ea 3e e7 96 6c 3c
       -0.013857867 -0.08585908 0.45744467 0.014440275
000050 33 da 51 bd 59 33 0c 3f fd d4 a5 3e db 40 5e bc
       -0.05123348 0.5476585 0.3238906 -0.013565267
000060 29 b0 d1 3f a8 c0 30 bd 1b 5a ce 3e 2c c6 51 bd
       1.6381885 -0.04315248 0.4030312 -0.051214382
000070 af 84 22 3f 6b 57 98 3e 5e b2 98 3e 8b 0e 1e bd
       0.6348371 0.29754195 0.29823583 -0.038588088
000080 39 87 ad 3e e4 99 14 3f d9 5d 21 bd 26 1a 8d 3d
       0.3389223 0.5804732 -0.03939614 0.06889753
000090 5c f3 07 3f 34 af 8f 3b 45 f1 5f 3e 15 35 ab 3e
       0.5310571 0.0043848995 0.21869381 0.33438936
0000a0 e5 30 a9 3b 1f 9a fe 3e 5a e6 1c 3d 12 82 82 3c
       0.0051632994 0.4972696 0.038305618 0.015931163
0000b0 ef 3f f3 3e 2a 3f c2 3e 98 75 1b 3d 16 88 0f 3f
       0.47509715 0.37938815 0.037953943 0.56067026
0000c0 08 91 01 c0 98 e7 00 3f b9 3c 91 3b 7f ce 06 3f
       -2.024477 0.50353384 0.0044322875 0.5265884
0000d0 ee 30 fd 3e 6b 11 ab 3e 37 0e 21 3d 12 32 4c 3e
       0.49451393 0.33411726 0.039320197 0.19940975
0000e0 67 31 df 3e ee a9 36 3e fc a0 b8 3e 6f 6c 92 3e
       0.43592378 0.1783826 0.3606032 0.28598353
0000f0 7a 20 d4 3e 57 e1 d4 3e b1 47 38 3d b9 63 df 3e
       0.41431028 0.4157817 0.044990245 0.4363077
000100 44 f7 1b bd ac 9c 5b c0 4d 51 06 bd 82 c5 c2 3e
       -0.038077608 -3.4314375 -0.03279238 0.38041312
000110 7d 30 90 bc fb 55 f0 3f 75 f3 00 3f f8 a1 6f 3e
       -0.017601246 1.8776239 0.50371486 0.2340163
000120 53 47 64 c0 f9 a0 e4 3e 83 bc 9d 3a 2d e9 0c bd
       -3.5668533 0.44654062 0.001203433 -0.03440206
000130 28 1b e0 3e 93 b8 61 bd b9 b8 7a 3e 00 ba 8a 3d
       0.4377072 -0.055107664 0.24484529 0.06773758
000140 70 08 c6 bc 4f 30 2d bc ec 25 43 bc 75 49 56 3f
       -0.024173945 -0.0105706 -0.011910897 0.83705837
000150 99 88 15 3f 00 f4 1a 3f 80 81 95 3b 9b 8d 49 bd
       0.58411556 0.60528564 0.0045625567 -0.04920731
000160 6e c5 3f 3c a0 e3 85 3e b9 c6 3a 3e 55 16 d8 3e
       0.011704786 0.26150227 0.18239869 0.42204538
000170 1c 20 03 3f cd 5d 12 3c 15 ed 30 bd 5f 19 9e 3d
       0.5122087 0.008933497 -0.04319485 0.07719683
000180 d9 49 66 3e 12 f9 2d 3e f7 e6 26 bd d9 4c 04 3f
       0.22489108 0.16989544 -0.04074761 0.5167976
000190 9b 0e 19 bd 33 4a e0 3d 76 80 d9 3e 41 3a d4 3e
       -0.037367444 0.109516524 0.4248082 0.41450694
0001a0 3b ec 3a bd 4c ee 8e 3f 7e 35 03 bd 43 a0 73 bc
       -0.045635443 1.1166472 -0.032033436 -0.014869752
0001b0 be 36 02 3f 3e 4e b6 3d 11 ab 85 3e a5 77 bc 3b
       0.5086478 0.08901642 0.26107076 0.0057515674
0001c0 b4 b7 b1 3e f9 7e ce 3e a2 f2 18 3c 85 d1 9f 3e
       0.34710467 0.40331247 0.009335192 0.31214538
0001d0 58 d8 31 3d b5 a6 cd 3e 22 89 da 3e 0a a2 0c bd
       0.043419212 0.4016625 0.4268275 -0.03433422
0001e0 69 b2 d3 bc 9e db 75 3d 64 e7 c4 bb 8e ba 98 3e
       -0.025841909 0.060023896 -0.006009029 0.2982983
0001f0 cc 9f cb bc b3 4b 59 bd 64 33 c4 3e b3 8a d6 3f
       -0.02485647 -0.053050708 0.38320458 1.6761078
000200 41 de bb bc bb d5 0f 3e 00 fa 49 3f 76 58 e0 3d
       -0.022933127 0.14046375 0.78897095 0.109543726
000210 f5 e6 01 3f b3 11 3f 3f bc e5 94 3e d2 4d 3c 3d
       0.5074304 0.7463638 0.29081523 0.045972653
000220 9d cd 5e 3c 02 64 c8 3e 04 9b e6 3e 19 1b 24 bd
       0.013598827 0.391388 0.45040143 -0.040064905
000230 d7 73 48 3d 1f eb 32 bc 13 d2 96 bc 22 f5 90 3e
       0.0489386 -0.010920315 -0.018410718 0.28312021
000240 3a eb 1f bd fb 92 5c 3e 96 0f fb 3e 95 b9 38 3c
       -0.03904269 0.21540444 0.4903533 0.011274715
000250 8b 6a c2 3e 34 f7 63 3e 6a d1 d3 bc ef d2 19 3f
       0.3797191 0.2226227 -0.025856692 0.60087484
000260 f1 97 d2 3c fe 5e 9c 3e c7 a5 b5 3e 9b e6 26 bd
       0.025707217 0.30541223 0.3547804 -0.040747266
000270 f1 96 05 3f 89 4e 7a bc d8 62 94 ba e2 b0 7b 3e
       0.52183443 -0.015277513 -0.0011320962 0.24579194
000280 a7 d2 03 3f 9b 5c c7 bc a1 ac 4d 3e 62 4c de bc
       0.51493305 -0.02433615 0.20085384 -0.027136032
000290 12 4c 44 bd bf 9b c6 be 90 b5 8f 3e 25 f6 5d bd
       -0.04792411 -0.387907 0.2806821 -0.05418982
0002a0 18 c0 be bc 0e 89 0f c0 5c 26 8b 3e 97 09 07 3d
       -0.023284957 -2.2427402 0.27177703 0.03296813
0002b0 b0 3b 54 bd 58 a3 69 3e 52 86 1e bd 29 e9 90 3c
       -0.051814735 0.22816217 -0.038702317 0.017689304
0002c0 1f ab 60 3c ed 85 c4 3e cc 1f f1 3e 58 e6 e9 b9
       0.013712673 0.38383427 0.47094572 -0.00044612843
0002d0 e8 50 c5 3c 8e 59 a6 c0 40 96 ca 3b c0 99 3f bd
       0.02408643 -5.198432 0.006182462 -0.046777487
0002e0 ed a1 ab 3e 37 f2 e2 3e 39 e5 ed bb 05 8c df 3e
       0.33521977 0.4432542 -0.0072599915 0.43661514
0002f0 b3 ad fa bc bb 8e 18 3f be b8 8b 3e cb aa 11 3e
       -0.030600404 0.5959279 0.27289385 0.14225309
000300 eb 39 4b bd 1d 39 55 3e 21 1d 8f 3e bb ce 3e 3e
       -0.04961578 0.20822568 0.2795191 0.18633549
000310 4f 9f e9 bf ae 44 95 3e fa 3f 6c 3c d1 b0 17 c0
       -1.8251742 0.2915396 0.01441955 -2.370167
000320 46 d7 fa 3e 64 12 87 3e 1f af e9 3e 58 32 1b 3f
       0.48992366 0.26381218 0.4564142 0.60623693
000330 18 60 49 c0 9e a6 bb 3e d7 20 a5 c0 f2 28 88 bb
       -3.14649 0.36650556 -5.160259 -0.0041552717
000340 2b 12 11 3e 38 d5 26 3c 4b 15 59 c0 e9 3d 40 bf
       0.14167087 0.010182671 -3.3919246 -0.7509447
000350 a0 b0 de 3e 8d 86 99 3e eb 16 53 bd 69 e4 90 3b
       0.4349413 0.29985467 -0.05153553 0.00442176
000360 16 78 1e 3f 83 e6 ec 3e 0d db ea bd 08 3d f9 3d
       0.61901987 0.46269616 -0.11467562 0.12169844
000370 66 02 eb bc 44 3b 66 3e 93 8c fe 3e 6f 0e 8b 3c
       -0.028687667 0.22483546 0.49716625 0.016974656
000380 62 73 08 40 15 41 41 3d b4 42 b9 3e e3 18 a3 3e
       2.1320424 0.047181208 0.36183703 0.31854925
000390 f7 69 0e 3f 93 9e 42 3f bb 90 13 3e ab ef 81 3f
       0.5563044 0.76023215 0.14410679 1.0151266
0003a0 f6 39 3a 3e 28 0a 7e bd c1 d7 3b 3e c7 b3 e7 3e
       0.18186173 -0.062021405 0.18344022 0.45254347
0003b0 b0 3a 8c 3e 19 2e 0b 3f 4a 4f 6a 3e 9d f0 73 3d
       0.27388525 0.54367214 0.22881809 0.05955564
0003c0 82 b3 8a 3e be b3 1e 3f 95 0b 89 3f 19 fe 86 3f
       0.2709008 0.61993015 1.070666 1.0546294
0003d0 a7 6a 66 c0 13 e9 da 3c f6 a7 ed 3e dd 9b 6c bd
       -3.6002595 0.026722467 0.46417207 -0.05776583
0003e0 5a b0 3c bd 3e e2 cc 3e ca 90 37 40 bc b1 fe bc
       -0.04606662 0.4001636 2.8682122 -0.03109061
0003f0 8b 5d d5 3e 41 ca 17 3d 07 31 ae 3e a9 d1 07 3f
       0.4167293 0.03705812 0.3402178 0.5305429

fc.3.bias f4 [4]
000000 ac 46 2d bb b5 49 1c be 3a a1 de 3a 7f d3 fa 3d
       -0.0026439829 -0.15262492 0.0016985305 0.12247371
