lunar.pth (torch, 278900 bytes, 6 tensors)

net.0.weight f4 [256, 8]
000000 71 48 44 3e 68 8d a2 3b e4 ee 66 bd b6 9c 0f 3e
       0.19168259 0.0049607046 -0.056380168 0.14024624
000010 57 13 17 3e 1f 6f 21 3f c2 3f 35 be 5e a3 b7 be
       0.14753471 0.6306018 -0.17700103 -0.35866827
000020 8a ba 41 3e 36 7a 04 3e 38 b4 68 3e 42 8e 4e bd
       0.18918815 0.12937245 0.22724998 -0.050428636
000030 bf b5 41 3e 8e 3c 8f be 31 db db 3e 4d 2e 8a bc
       0.18916987 -0.27975887 0.42940667 -0.016867781
000040 a8 29 08 bf 92 e5 c3 be 7f 13 0d 3f 38 a3 a8 be
       -0.5318856 -0.38261086 0.55107874 -0.32937026
000050 c0 21 ad 3e d3 2d 18 3f b0 10 67 3d c0 17 bb be
       0.33814812 0.5944492 0.0564124 -0.36541557
000060 d7 49 d4 3e af dc a6 be c4 e8 8a bd d7 05 23 be
       0.41462585 -0.32590243 -0.06782678 -0.15920196
000070 b8 4f fe be 16 b3 71 be 70 6c 86 3d 9c 1c 08 3d
       -0.49670196 -0.23603472 0.065636516 0.03323041
000080 9c 53 b3 3d 21 fc 36 bf 7d fa 24 3e 55 45 66 bc
       0.087561816 -0.7147847 0.16111179 -0.014054616
000090 45 33 b5 3d 9a 86 ac 3e 23 93 e6 3e 22 28 44 3e
       0.088476695 0.33696443 0.4503413 0.19155934
0000a0 24 90 b7 be a3 c5 84 bf 70 58 93 3e 9f cd 5d be
       -0.35852158 -1.0372814 0.2877841 -0.2166047
0000b0 29 bc 14 3f e5 26 c9 3e 8e f1 1a be 47 d6 59 bd
       0.5809961 0.39287487 -0.15131208 -0.053182866
0000c0 0b 69 22 be 1b 3b 7a bd 01 4b 08 be 8c 60 96 3e
       -0.15860383 -0.061091524 -0.13309862 0.29370534
0000d0 41 2f e9 3c d3 cf e6 bd 73 26 2c 3b 11 d9 25 be
       0.028464915 -0.11270108 0.0026268035 -0.16196086
0000e0 e9 09 a8 3b 0d 6b 1e 3e 75 20 1c be eb 10 c2 be
       0.0051281345 0.15470524 -0.15246756 -0.37903532
0000f0 1c 23 77 be 8b ab e9 3e ca ba b9 3e ba 70 9d 3e
       -0.24134487 0.4563869 0.3627532 0.30750066
000100 bd 75 53 be d8 1b 23 bd 37 ca 4c 3e 27 d7 73 3e
       -0.20650382 -0.039821476 0.19999014 0.23812543
000110 92 35 53 3f 5c 24 88 3e 16 bd 9f 3e 34 94 8e be
       0.82503617 0.2659024 0.3119895 -0.27847445
000120 6b 8d 72 3d 90 8e ab bc 62 91 eb bd 55 12 11 be
       0.059216898 -0.020942003 -0.11502339 -0.1416715
000130 38 c0 36 3e de 74 1e 3f 44 2d ce bd 65 5c 09 bf
       0.17846763 0.61897075 -0.100672275 -0.5365661
000140 43 1e 17 3c 97 0a 18 3f bd 3b 9a 3e b3 eb a1 3e
       0.009223524 0.5939116 0.30123702 0.31625137
000150 a0 20 12 be d0 a2 09 3f a0 93 a5 3c 8b d1 c6 3d
       -0.14270258 0.5376406 0.020211995 0.09707936
000160 b3 ff 2b bd a7 35 bb 3d 3a 88 a7 3e cb eb 0e be
       -0.0419919 0.09141093 0.3272112 -0.13957135
000170 fd d7 7b 3f f6 fc f6 be f0 94 d8 be 17 e9 90 bf
       0.98376447 -0.4823987 -0.4230113 -1.1321133
000180 be 8e 91 be 5b e0 c0 be 84 8e a6 be 8e 0d a4 be
       -0.28429216 -0.3767117 -0.32530606 -0.3204159
000190 84 ce 7f 3e 76 69 0b bf e2 03 5e bf ec f4 98 be
       0.24981123 -0.54457796 -0.86724675 -0.2987436
0001a0 a8 4f b3 be 9c a2 dc 3e 5f 29 a5 3d b5 ce 2f be
       -0.3502171 0.4309281 0.080645315 -0.17168696
0001b0 36 9b 56 3d ae 60 05 bc c2 43 d3 be 8e d8 c6 3e
       0.052394114 -0.008140726 -0.41262633 0.38837093
0001c0 a1 ed ed 3c 5c f4 cc bf dd 73 93 3e 91 99 1a be
       0.029043974 -1.6012073 0.28799334 -0.15097643
0001d0 00 27 2b 3d 7c 19 14 3e 34 f9 f9 3d 7f 24 a3 3d
       0.04178524 0.14462847 0.12205735 0.079659455
0001e0 a5 78 12 3e 41 42 b7 bf f1 45 8e 3e bd 66 57 be
       0.14303835 -1.4317094 0.27787736 -0.21035285
0001f0 32 5e 02 be ba 7d bf be 21 65 df 3e ad b1 9c 3d
       -0.12731245 -0.3740061 0.43631843 0.076510765
000200 e8 8e 30 be 93 d8 07 3f 41 ef d1 3d 79 69 2d be
       -0.17242014 0.5306484 0.10250712 -0.16934766
000210 00 7d f6 3e 85 6c 17 be de e1 a1 bd 3f 35 1d bf
       0.48142242 -0.1478749 -0.07904409 -0.6140937
000220 68 50 3a 3f 2c 97 90 bf c0 d6 a4 3d f8 6a 48 be
       0.7277894 -1.1296134 0.08048773 -0.19572055
000230 27 ec 9b 3e 15 82 6d bd ab fa b6 bd 71 0b 2f bd
       0.30453607 -0.057985384 -0.0893453 -0.04273552
000240 4a 3e 15 bf 58 aa a4 bd 8f b3 5a bd 04 a9 c9 3e
       -0.5829817 -0.08040303 -0.053393897 0.3938676
000250 f7 78 8e be fc 90 0a bf fd 18 ca be 24 05 54 3e
       -0.27826664 -0.5412748 -0.3947219 0.20705086
000260 39 e0 3d 3f 85 29 22 bf 13 75 08 3f 1d f0 ce 3e
       0.7417026 -0.63344604 0.5330364 0.40417567
000270 b3 a9 80 be b1 75 a6 3d d1 65 e4 3e 44 84 08 bf
       -0.2512947 0.081279166 0.4460893 -0.5332682
000280 d9 9e c3 bd 4d 93 8c bf 83 0f df 3e f7 73 91 be
       -0.09551782 -1.0982453 0.43566522 -0.28408787
000290 3c 33 b3 3d ba f6 67 3e e9 97 3e bf 99 74 0b 3d
       0.087500066 0.22652712 -0.74450547 0.034046743
0002a0 25 f5 8d 3e 54 47 fd bc fa 34 98 be ea 6d 14 3f
       0.27726093 -0.030917801 -0.29727918 0.57980216
0002b0 2d 29 96 3e ce fe 90 be b0 64 eb 3e b8 68 2e 3d
       0.2932829 -0.283194 0.45975256 0.042580336
0002c0 5b ca 27 3f 74 c8 b6 bf 2a 41 10 3e 7a f7 83 3e
       0.65543145 -1.4279923 0.14087358 0.25774747
0002d0 cd 13 00 3e f1 9c 8b bb ce 70 cb 3e 86 8d 12 3e
       0.12507553 -0.0042606522 0.397345 0.143118
0002e0 f1 9b 81 be ca d6 e6 3e f0 4a 11 bf a4 87 1e 3f
       -0.25314286 0.45085746 -0.5675497 0.6192572
0002f0 f9 ec 74 be ff 9b 22 3e 41 8f e8 3c 13 d1 19 3d
       -0.23918523 0.1587982 0.028388621 0.037552904
000300 33 30 85 3d 9f 65 45 3f d4 a8 0b bc 62 06 af 3e
       0.06503334 0.77108186 -0.0085241385 0.34184557
000310 01 e6 71 3e 7c 76 ad 3d f9 ae d7 bd 2f 29 3d bd
       0.23622896 0.08469865 -0.1053142 -0.046181854
000320 3e ab c6 3e bb c1 9d 3e c1 b5 7a 3e 46 6c 22 3f
       0.38802522 0.30811867 0.24483396 0.6344646
000330 82 5d 9e bd bd 6a 11 bf 25 be 60 be 05 30 15 3f
       -0.07732679 -0.56803495 -0.21947534 0.58276397
000340 4c 5d 0f bf dd 83 66 bf 96 90 08 3e 24 e4 a2 be
       -0.56001735 -0.9004496 0.13336405 -0.31814682
000350 4c 67 0f 3f 75 e7 93 3c 31 43 83 bd 5f c9 76 3e
       0.56016994 0.018054703 -0.064093 0.24100254
000360 8c 29 f9 be f4 cc 04 3f 54 93 c8 3e 78 50 12 3e
       -0.4866451 0.51875234 0.39174902 0.14288509
000370 91 92 82 3e 7f 40 10 3d 44 70 d9 3d 3c e2 34 3e
       0.25502446 0.03521776 0.10617116 0.17664427
000380 28 93 9d bd 2d e3 a2 3e 48 c9 1b be bd 1d d6 be
       -0.076940835 0.31813946 -0.15213501 -0.41819564
000390 05 8c 50 3a 31 62 e0 be 98 74 ce be 60 2a a5 3e
       0.0007955435 -0.43824914 -0.4032333 0.32258892
0003a0 83 e1 22 bf f3 bc f7 3c 0f c6 03 bd 21 70 6a bd
       -0.63625354 0.030241465 -0.032171305 -0.05723584
0003b0 9c 0d 38 3c eb ac b9 be 90 59 86 3c 6e 8e e7 3c
       0.0112337135 -0.36264738 0.016400129 0.028266158
0003c0 3d d5 1f bd b1 53 32 be 91 2a 82 3e cf 0f e3 be
       -0.03902172 -0.17414738 0.254231 -0.44347998
0003d0 f9 87 74 be f5 c0 43 bf a9 a0 b2 3d cd 26 55 3e
       -0.23879994 -0.76466304 0.0872205 0.20815583
0003e0 f3 93 07 be c0 5c 8b bf d7 51 2f 3e d9 00 30 b9
       -0.13240032 -1.088768 0.17121063 -0.00016784984
0003f0 4a 12 91 be b6 fc b6 be d1 5b 93 3e 88 12 1f 3e
       -0.28334266 -0.35739678 0.28780988 0.15534413

net.0.bias f4 [256]
000000 64 75 25 bd e7 a8 be 3e d4 89 20 bd b7 9c ba 3e
       -0.040395156 0.37238237 -0.039193943 0.3644769
000010 25 98 a1 bb 40 f0 28 be 42 f0 d2 be f4 0d 95 3d
       -0.004931467 -0.16497898 -0.41198927 0.07278052
000020 7d d6 50 3d 4d ba d5 bc 9f 00 8b 3e ba f4 fd bd
       0.050985802 -0.026089812 0.2714891 -0.124001935
000030 0f 56 83 3e c8 ce 82 3e 3c f4 47 3e 25 df ec 3d
       0.25651595 0.25548387 0.19526762 0.11565999
000040 f6 ff e6 3d d7 8c b2 3d 0c ce 96 3d fe e3 09 3d
       0.112792894 0.08718269 0.07363519 0.033664696
000050 24 4e a5 3e 75 16 fa 3d f8 7f 6e 3e 86 2a 95 3e
       0.3228618 0.122113146 0.23291004 0.29134005
000060 ce 10 ac 3e 4c 95 0e be 23 4c de be 74 a1 c7 3e
       0.3360657 -0.1392414 -0.43417463 0.38990366
000070 4d dd 85 3e 05 2e e8 3d 43 7d 57 be 85 69 bd 3e
       0.26145402 0.113369025 -0.21043877 0.36994568
000080 55 cb 17 3e 8e 86 59 3d 3f 9c 8d 3e 00 5f 36 be
       0.14823659 0.053106837 0.2765827 -0.17809677
000090 bf f1 7c be c2 2b b9 3e ef af a0 bd 49 fc 5a 3d
       -0.24701594 0.36166197 -0.07846057 0.053463254
0000a0 e6 b9 62 3c 78 a3 36 be 6e db a8 bd 8e 43 14 3d
       0.013838267 -0.17835796 -0.08244978 0.036197238
0000b0 2f 17 1b 3f cf 91 8b bd 00 b3 6c 3e 54 29 89 3e
       0.6058225 -0.0681492 0.23115158 0.26789343
0000c0 28 00 51 be 3e 0d 2d 3e 78 2c e8 bc cf db 00 3e
       -0.20410216 0.16899583 -0.028341517 0.1258385
0000d0 9d 80 0f be d0 ee c3 be a6 33 2a 3e e5 c2 7b 3e
       -0.14013906 -0.38268137 0.16621265 0.24586065
0000e0 c5 7e 37 be 66 e5 9f be 5b 5d d2 bd 89 c5 21 be
       -0.17919452 -0.31229705 -0.102717124 -0.1579801
0000f0 db fe 93 bd fc 43 c7 3e e0 92 46 be 59 cb d0 bb
       -0.07226344 0.38919055 -0.19391966 -0.006371897
000100 04 e2 99 bd 8a ef 18 bf 39 58 fa 3d be 59 21 be
       -0.07513812 -0.5974051 0.122238584 -0.1575689
000110 1b 4f 5b be cf 2d 28 3d cd 7c 95 3e 5a 99 dd bd
       -0.21416895 0.04105931 0.29196778 -0.10820265
000120 9a e9 ca 3c 99 04 a3 bd 77 d9 77 be 37 46 d7 3e
       0.024769593 -0.07959861 -0.2420405 0.42045757
000130 36 3a fe 3e 25 51 bb 3d 31 92 87 3e 7b 7b cb 3e
       0.49653786 0.091463365 0.26478723 0.39742646
000140 0f 7b 01 3f 25 c8 e4 bd 29 46 c7 bc 93 4b ed 3e
       0.505784 -0.11170987 -0.024325447 0.4634672
000150 b8 ae 97 3b 69 95 9a be 5a 4c 4b be 2b bd 4c be
       0.0046289824 -0.30192116 -0.19853345 -0.19994037
000160 92 bc f1 be e8 0b 38 be ae bc 2c be 1c 2b 20 be
       -0.4721418 -0.17973292 -0.1686885 -0.15641445
000170 71 f5 00 3e d4 d8 31 3e 07 a4 58 3e c4 29 cb be
       0.12593628 0.1736787 0.21156321 -0.39680302
000180 eb 99 60 be ac 4e 37 be e8 6e af be ca 88 66 3e
       -0.21933715 -0.17901105 -0.34264302 0.22513118
000190 8a 50 93 3e af ae 07 be b4 e2 3a 3d 84 84 29 be
       0.28772384 -0.1325023 0.045626357 -0.16554457
0001a0 74 b1 fd 3c ec 02 9d 3d 07 34 8b bd 87 e9 91 be
       0.030968405 0.07666573 -0.06797033 -0.2849848
0001b0 dd 10 e4 be 6e ed d3 3e e8 7f 06 be b3 92 1a 3e
       -0.44544116 0.41392082 -0.1313473 0.15095024
0001c0 20 42 cc bd a2 d6 38 3d 2e b2 7b 3e 7a 5d 3c be
       -0.0997355 0.045126565 0.24579689 -0.18395033
0001d0 68 79 11 bd c9 19 f5 3d 4b 6c bf 3d 62 0a f4 3e
       -0.035516173 0.11967809 0.09346827 0.4766417
0001e0 8f 2e 53 be 69 71 39 3e a7 b0 00 be d5 1e d0 3d
       -0.2062323 0.18109669 -0.12567388 0.10162131
0001f0 9e 6c 94 3d c7 6a dc 3c 06 f3 ec 3b 9d 5f 81 3c
       0.072472796 0.026906384 0.007231119 0.015792662
000200 74 da 6b be 0a 99 b2 bd c1 33 ac be df 98 a8 be
       -0.23032552 -0.08720596 -0.33633235 -0.3292913
000210 3d 07 78 3e 33 ca c7 3d 96 95 44 be bc b7 3a be
       0.24221511 0.09755363 -0.19197688 -0.18234152
000220 2d 08 41 be 32 f0 c3 be 7e 7b 04 bf 61 d3 8b 3e
       -0.18850775 -0.38269192 -0.51750934 0.27309707
000230 95 3f 84 3d 45 0f cf 3c 00 eb dd 3d ec ca e1 3c
       0.0645744 0.025275836 0.10835838 0.027562581
000240 0e 45 14 bd 7a d9 0e 3f 83 a4 80 3e 5a f8 90 be
       -0.03619867 0.5580059 0.25125512 -0.28314477
000250 a7 8b ca 3d 91 db 90 3e 74 73 b4 3e 7b d2 c6 3e
       0.09889918 0.28292516 0.35244334 0.3883246
000260 39 8d 3f 3e 89 03 a5 3e c5 9b cf bc 26 58 f7 3c
       0.18706216 0.3222926 -0.025342831 0.0301934
000270 80 05 16 3e 68 a9 19 3e 0d 26 10 be 44 1b ae bd
       0.14650536 0.1500603 -0.14077015 -0.08501294
000280 7a 47 8a 3e ef 0b 1e be 14 85 38 3c 6d 41 3f be
       0.27007657 -0.1543424 0.011262197 -0.18677302
000290 5c 68 c7 3e e8 59 80 bd 71 ad 5f be 1b 02 f3 bd
       0.38946807 -0.06267148 -0.21843506 -0.11865636
0002a0 a3 34 fb 3e 0d 47 b2 3e c3 c1 ac 3d 0e ac c4 3d
       0.49063596 0.34819832 0.084353946 0.09603129
0002b0 dc a4 19 bd 40 c9 69 3e 25 3f 62 be 50 67 28 3e
       -0.037510738 0.22830677 -0.220944 0.1644566
0002c0 9e 73 3f 3d 56 fd 6a 3c e2 2a 6b be 90 86 97 be
       0.04674112 0.014342627 -0.22965577 -0.2959485
0002d0 40 19 64 3e d6 e8 42 bc c4 4c ff bd 86 0c e2 3d
       0.22275257 -0.011896333 -0.12465814 0.11037545
0002e0 7d 7c 89 3e 58 b5 dc bd d6 45 16 3e bc 40 86 be
       0.2685279 -0.10776776 0.14675078 -0.26221263
0002f0 31 cd a3 be 2f aa d1 be 48 4c a4 bd 6c a3 12 3e
       -0.31992486 -0.40950152 -0.08022362 0.14320153
000300 6c 7d 58 3e 91 f6 67 3e 0c c4 94 3e 0c 7a 9b bd
       0.21141595 0.22652651 0.29055822 -0.07591638
000310 03 df ca bb 5e 69 d8 3e e9 26 3e 3d a5 bd a5 bd
       -0.006191136 0.4226789 0.046423826 -0.080928124
000320 d4 a1 9a be 76 e3 b4 3e 35 73 80 3e a9 f1 9a be
       -0.3020159 0.3532979 0.25087896 -0.30262497
000330 b0 e8 79 3d ed 3e 86 3e 9d 1e 10 bf 27 d5 81 3d
       0.061012924 0.26219884 -0.5629671 0.06339484
000340 8c 9c d3 be e2 f6 85 3e 56 85 84 bd 7d 3a 01 3f
       -0.41330373 0.2616492 -0.06470744 0.5047987
000350 9d e8 72 3e a5 c2 2b 3f 82 51 0d be 72 e0 aa 3e
       0.23721547 0.6709388 -0.13800624 0.33374363
000360 54 c9 ac be 8a 28 40 be b7 c8 1d be e8 89 cb 3e
       -0.3374735 -0.18765464 -0.15408598 0.39753652
000370 52 6f 48 be ea ce b8 3d 03 75 ad be 61 7f 4b 3d
       -0.19573715 0.09023841 -0.33878335 0.049682025
000380 33 55 c3 be 12 b6 13 3e 14 88 37 be 0f f2 db 3e
       -0.3815094 0.14424923 -0.17923003 0.42958114
000390 90 78 db be a5 10 49 bd f1 90 31 be 6d 1d 93 be
       -0.4286542 -0.04908814 -0.17340447 -0.28733388
0003a0 50 8f cf 3d dd 0e 99 bd 0e 58 94 3e bf 50 64 bc
       0.101347566 -0.07473538 0.2897343 -0.013935267
0003b0 3a 23 8e be 63 1a 48 3e 43 8f 59 be 26 f7 fd be
       -0.2776125 0.19541316 -0.21246056 -0.49602622
0003c0 9e 03 89 3d a5 32 46 bc 1b 0c 13 3c af e6 bc bc
       0.06690143 -0.012097036 0.008975054 -0.023059217
0003d0 da 60 56 3e f8 10 a5 3e 1e 82 e2 3d 07 93 d5 3d
       0.20935383 0.3223951 0.11059974 0.10428434
0003e0 df 02 7c 3e 74 8f 41 3e 12 ed d2 be 54 42 b7 be
       0.2461047 0.1890238 -0.41196495 -0.35792792
0003f0 33 82 90 be 99 81 32 3e b2 6b 38 3e d0 1e e2 3e
       -0.28224334 0.1743225 0.18009833 0.44164133

net.2.weight f4 [256, 256]
000000 07 2f 09 bc 60 0b c1 b9 a3 dc 85 bd 81 f0 e4 3c
       -0.008373029 -0.00036820304 -0.06536224 0.027946712
000010 eb 90 8b bd 7d af a6 bd cf 86 22 3d c5 53 56 bd
       -0.0681475 -0.081389405 0.039679345 -0.052325983
000020 2b 42 f0 bb 3c 14 24 bd f6 9e f4 bc f4 9d 25 bd
       -0.0073321066 -0.04005836 -0.029860955 -0.04043384
000030 bb 36 0d bd 37 36 4f bd ed 21 1c bd e8 d3 ea bc
       -0.034476023 -0.050588813 -0.03811829 -0.028665498
000040 d0 db ad bc 31 5e a1 bd db bf 92 bd 34 d8 8f bd
       -0.021222979 -0.07879294 -0.071655 -0.07023659
000050 b8 83 13 bd 47 9e 1b 3d c2 0a 09 3d 9f a7 78 bc
       -0.03601429 0.037992742 0.033457525 -0.015176683
000060 ba 33 90 bc 9a e4 3d bd b8 6b 69 bd 42 9f 71 bd
       -0.01760279 -0.04636059 -0.056987494 -0.05898977
000070 86 86 30 bd eb c6 97 3c 83 ac 04 bc c9 92 dc 3c
       -0.04309704 0.018527469 -0.008097771 0.026925461
000080 ba 48 dd bc 10 18 97 bc 73 93 6c bd 77 ef 51 bb
       -0.027012218 -0.018444091 -0.057757806 -0.0032033601
000090 f4 a4 e2 bc 15 07 98 bd 16 a0 81 b9 bf 69 66 3d
       -0.027666546 -0.07423226 -0.0002472407 0.05625319
0000a0 90 56 65 bc 25 ef bd bb 1e 57 70 3c bc 2e 80 3d
       -0.013997689 -0.0057963305 0.014669208 0.06258914
0000b0 82 60 e9 3b 8a 34 09 3d ec 30 0a 3d f8 75 12 3d
       0.0071221003 0.03349737 0.03373806 0.035757035
0000c0 4c 69 9c bd b1 94 5b bc 2c 5d 21 3c 0e f1 fb bb
       -0.07637271 -0.01340215 0.009848874 -0.007688648
0000d0 89 c4 f1 bc 17 0e 82 3b 97 ed e4 bc e7 c5 37 bd
       -0.02951266 0.003968965 -0.027945323 -0.04486647
0000e0 0e f4 89 bc 7c 9d 0c bd c2 c3 59 bd 30 07 2c bd
       -0.016840007 -0.034329876 -0.053165205 -0.041999042
0000f0 78 21 52 bd 90 a2 6e bd e7 17 5d bd 78 e0 27 3d
       -0.05130145 -0.0582605 -0.053977873 0.040985554
000100 a8 a1 a9 bb 13 89 84 3d be f4 9c bd d4 69 a9 bc
       -0.0051767416 0.06471457 -0.07663868 -0.020680346
000110 0d 13 3d bd 99 17 47 bc 13 af 67 bd e4 ce bc 3c
       -0.046160746 -0.012151622 -0.05656345 0.023047872
000120 f4 b6 e7 3c c3 5b 72 bd e2 b1 48 bc e8 af fc 3c
       0.028285481 -0.059169542 -0.012249442 0.030845597
000130 de 20 49 3b ac 8c cf bc 1c 07 23 bd 36 37 23 3c
       0.0030689756 -0.025335632 -0.039801702 0.009961894
000140 d7 35 3f bd 03 d8 8d bd cb 5b 2f 3d 55 e1 6d bc
       -0.046682205 -0.069259666 0.04281215 -0.014519055
000150 52 4c 98 bc 48 9d f4 3c 0d cf c2 3c f2 f8 90 bd
       -0.01859108 0.029860154 0.02378037 -0.070787326
000160 ec cb 74 bd dd 37 f4 3c e3 ce d1 bc b6 2c aa bc
       -0.059764788 0.029811794 -0.025611347 -0.020773273
000170 c1 fd c0 3b 4e 1f 36 bd 44 71 83 3b 64 5f 82 3c
       0.005889625 -0.04446345 0.004011305 0.015914626
000180 13 4d 29 bb 6e 29 cc 3b 45 2e 5c bd c3 11 96 ba
       -0.0025833293 0.0062305247 -0.053755064 -0.0011449385
000190 94 bf 00 3c 46 ed 23 bd 01 0d 05 3d 31 c9 a5 bc
       0.007858176 -0.040021203 0.032483105 -0.020237537
0001a0 70 45 fd 3c fa cd 63 bd 4a 5e ae bd e6 00 cd ba
       0.0309169 -0.055616356 -0.08514078 -0.0015640527
0001b0 16 c7 a7 bd 3a 4e 67 bc 84 b2 75 bd 18 60 87 bd
       -0.081922695 -0.014117772 -0.0599847 -0.06610125
0001c0 03 2a 8e 3c ce f9 4b bd 0a c2 fc 3a a9 17 0a 3d
       0.017354017 -0.04979878 0.0019283902 0.03371397
0001d0 a8 cc 6d 3c 6e 10 89 bc 3b 46 42 bd 68 2a 44 bc
       0.014514126 -0.016731467 -0.04743026 -0.011973001
0001e0 62 b4 e2 bb 3c 8d 7d bd d5 58 cb 3c a2 d1 9c bc
       -0.006918476 -0.06190227 0.024822632 -0.01914293
0001f0 36 f4 92 bb 52 b0 b2 3c 55 46 1c bd 95 17 6f bd
       -0.0044846786 0.021812592 -0.03815301 -0.0583721
000200 5d fe ae bd 04 b4 4e bd 7e 04 14 bd 80 91 76 bd
       -0.0854461 -0.050464645 -0.036137097 -0.060197353
000210 45 41 a1 3d 5b 0c c1 bc ec fd c0 bb d2 ed 2f bd
       0.07873777 -0.023565462 -0.005889645 -0.042951412
000220 62 1a 13 bd be 34 64 bd a3 2a 33 3d 4c 48 18 bd
       -0.035913832 -0.05571436 0.043741833 -0.037178323
000230 27 34 77 bd 75 98 aa bc 82 be 51 3c e7 a0 aa bd
       -0.06035247 -0.02082465 0.012801768 -0.08331471
000240 7f 69 89 3d 10 08 f3 bc af fd eb 3c e2 9b 6a bc
       0.06709575 -0.02966693 0.02880749 -0.014319392
000250 c3 83 9e bd eb e2 f7 3c c9 9b 93 bd 7c 8c 97 ba
       -0.07739975 0.03025957 -0.07207448 -0.0011562253
000260 24 f2 91 bd c4 7f 8f bc 80 57 ae bc da 6f 0f bd
       -0.07126263 -0.017516978 -0.021281958 -0.03501878
000270 8a 23 8e bd 92 e1 fc 3b cd c6 43 3b 3d fe e5 bb
       -0.06940372 0.0077173198 0.0029873133 -0.007018833
000280 08 41 4d bc d5 53 2c 3d df a4 18 3d b0 13 78 3c
       -0.012527712 0.042072136 0.03726661 0.015141413
000290 92 d5 6d bd 07 dc a7 bc 2f 38 9f bc 14 ca 8f bd
       -0.058065005 -0.02049066 -0.01943597 -0.07020965
0002a0 3f 84 07 bd f5 ba ba 3c a5 30 c3 bc 60 62 7a 3c
       -0.033085104 0.022794226 -0.023826906 0.0152822435
0002b0 30 be 4d bd 14 f2 1c 3d ce 36 66 bd 5a ee 03 bd
       -0.050230205 0.0383168 -0.05620461 -0.03220973
0002c0 f5 fe 87 bd f6 f0 46 3d 10 d0 5d 3d fc fe 8b bd
       -0.06640426 0.048569642 0.054153502 -0.06835744
0002d0 e8 f6 50 3c 4f e1 99 bd d4 57 99 3d 2d 6b dc bc
       0.01275418 -0.07513677 0.07487455 -0.026906574
0002e0 b7 89 16 bd 35 b6 94 bd c3 96 e7 3c 8a 79 83 3c
       -0.03675243 -0.07261316 0.028270131 0.016049165
0002f0 28 fa d5 3c e5 8a 35 bd f9 34 52 bd 07 46 bd 3c
       0.02612026 -0.044321913 -0.05132005 0.02310468
000300 d2 1f 6f bc 4c 35 02 bd 7a b7 51 3c 2a 23 eb bc
       -0.014594989 -0.03178911 0.012800092 -0.028703291
000310 80 a4 7c bc ce b3 82 bb 26 54 f6 3c 35 39 9a bd
       -0.015420079 -0.0039887195 0.030069422 -0.075304426
000320 e7 9b 42 bc 1d 63 9f bd a9 e7 33 3c 19 6e db bc
       -0.01187799 -0.07782576 0.010980525 -0.026785897
000330 dd d2 09 3d ef c3 a4 bd 7c f5 78 bd 63 42 d6 ba
       0.03364836 -0.08045184 -0.060780987 -0.0016346689
000340 4d 17 aa bc 66 47 56 bd 1e c0 8a bd 0c d0 92 bd
       -0.020763064 -0.052314185 -0.06774925 -0.07168588
000350 5e e9 19 3d 82 65 a7 bd 14 43 1d 3d 3e f8 a1 bc
       0.037576072 -0.08173658 0.03839405 -0.019771691
000360 9a 51 30 3d 6c 3a 0c bd f4 ea 9d bc 6e 81 5f bd
       0.04304657 -0.034235403 -0.019277073 -0.054566793
000370 08 99 94 bc 29 d9 63 3b 7c 7a f4 3c df 67 8d bd
       -0.018139377 0.0034766889 0.029843561 -0.069045775
000380 ca 0a 73 bd 95 9c 83 3c 21 49 2b 3d f7 3b dc bc
       -0.05933646 0.016065875 0.041817788 -0.026884062
000390 e5 20 85 bd 3b ed 9b bc b0 bc 03 bd 8a 35 75 3d
       -0.06500415 -0.019034019 -0.03216237 0.059865512
0003a0 64 df e7 3c 1e 2e 27 bd 55 e2 de 3c 8d a2 fd 3c
       0.028304763 -0.040815465 0.027207533 0.0309613
0003b0 d2 33 8e 3c fb f3 80 bd 9d a7 95 3c 2a 88 5e bd
       0.017358694 -0.062965356 0.0182684 -0.054329075
0003c0 0c 21 41 3c 64 4d 4b bc d6 f2 e3 bc 8a 05 ff 3c
       0.011787664 -0.012408588 -0.027825754 0.03113057
0003d0 1b b8 4f 3c 5c 6e a4 bc 95 a8 75 3c 89 86 0e 3c
       0.0126781715 -0.020072155 0.014993806 0.008699068
0003e0 e2 34 d1 3b 11 72 6b bb b0 d3 a4 3b 04 bd 07 3d
       0.006384478 -0.0035926143 0.005030118 0.033139244
0003f0 5a 1d 2a 3d 6e 15 82 bd 79 90 40 bd a0 cd a7 bd
       0.041531898 -0.06351744 -0.04701278 -0.08193517

net.2.bias f4 [256]
000000 47 5f 37 bd 97 81 8f bd 1d 59 5b 3c 3e 1e 04 3d
       -0.044768598 -0.07007139 0.0133879455 0.032255404
000010 64 63 a8 3c 18 2d 04 3e 87 10 8a 3c 77 a5 e5 3d
       0.020555206 0.12907827 0.016853584 0.112132005
000020 66 b0 5e bd 5e c7 10 bd 2e 14 4b 3e 05 80 0f 3d
       -0.054367445 -0.03534638 0.19831917 0.0350342
000030 93 e7 47 3d 89 59 a6 3c bd f2 3f bd ba fa 49 bd
       0.04880483 0.020306366 -0.046862353 -0.049311377
000040 1a 78 ba bd c6 0b 04 be 28 ca 4f bd 08 6c 16 bd
       -0.09104939 -0.12895116 -0.0507299 -0.03672412
000050 31 1d ca 3c 38 ab c3 3d 15 1f ca 3d 89 44 e3 3d
       0.024672123 0.09554142 0.0986921 0.110970564
000060 b1 fc 86 3c 18 7d b0 bc 9f f7 2c 3e b1 db b2 bd
       0.016477915 -0.021544024 0.16891335 -0.08733309
000070 64 f8 50 bd 75 96 a6 3c 12 51 87 bc 09 e8 f1 3d
       -0.051018134 0.020335415 -0.01651815 0.11811835
000080 2f eb 1e bd f2 f2 f6 bc a7 b7 0a 3c b5 99 5d 3d
       -0.038798507 -0.030145142 0.008466638 0.054101665
000090 37 b6 3f be c1 77 78 3d fd 13 35 3d 52 c4 47 bc
       -0.18721853 0.06066108 0.044208515 -0.0121928025
0000a0 68 bb ef bc 68 d1 2c 3e 24 a5 91 3d 4a 3e c8 3d
       -0.029264167 0.16876757 0.07111576 0.09777506
0000b0 55 c5 6f 3c e9 5b 90 bd a5 41 96 bd 04 93 23 bd
       0.01463445 -0.070487805 -0.073367395 -0.039935127
0000c0 b7 ec c1 3c 67 5a 89 3d 86 c8 7a bd c9 cf e5 bd
       0.023672445 0.06706696 -0.06122639 -0.112212725
0000d0 39 0e e0 bb b0 b3 a5 3c c0 54 82 bc 53 ab 29 3e
       -0.006837633 0.020227283 -0.015909553 0.16569261
0000e0 c1 c8 9b 3d 26 2e 6b 3e 5c 4c 89 3d a1 22 d4 bd
       0.0760665 0.22966823 0.067040175 -0.103581674
0000f0 9a 98 07 3e 37 b6 0a 3a 83 07 61 3d 23 b5 ef bb
       0.13241807 0.00052914344 0.054938804 -0.0073152944
000100 e8 d3 c5 3d 8f d4 5a 3d 3f c3 64 3e 11 06 67 3d
       0.096595585 0.053425368 0.22340105 0.05640227
000110 dd 3c a7 3d f0 8d 41 bc 4b 7a e5 bc f4 8a 49 bc
       0.081659056 -0.011813626 -0.028012415 -0.012301195
000120 01 21 1d 3e 92 c3 ae 3d a3 97 d9 3c a8 d2 97 bd
       0.15344621 0.08533396 0.026561564 -0.07413226
000130 47 e1 8c 3d c4 8b a4 3c 09 7c 3c 3d b8 ff 99 3d
       0.06878906 0.020086177 0.046016727 0.075194776
000140 dc 14 e6 3d 94 9e e3 3c d5 68 98 3d fe 87 a5 3d
       0.11234447 0.027785577 0.0744187 0.08082579
000150 76 7a 47 bd 67 c5 9e bc b0 30 fc b9 4f 37 05 3d
       -0.048700772 -0.019381238 -0.0004810146 0.03252345
000160 22 6e c1 3c 5f db 8f 3c 06 6d d2 3d f4 48 9c 3d
       0.023612086 0.017560659 0.10274701 0.07631102
000170 4d e6 81 bc 7e ff 85 3a 34 20 95 bd 02 83 24 be
       -0.015856886 0.0010223237 -0.07281533 -0.160656
000180 3d a5 16 3c 27 a8 4d 3e fe bc 3d bd 45 be a9 3d
       0.009194669 0.20083676 -0.046322815 0.08288244
000190 86 b5 61 bd 74 8f 77 bb ab 64 5d 3b 52 90 ba bd
       -0.055104755 -0.0037774714 0.0033781927 -0.09109558
0001a0 6e 9d 84 3c 31 41 45 3d e6 d8 7d bd 9c f1 31 3c
       0.01618835 0.048157874 -0.06197443 0.010860827
0001b0 70 fa e2 3c dc fe 01 3c ac e8 62 3c c8 91 b8 3d
       0.027707309 0.007934298 0.013849419 0.090121806
0001c0 3f 8d c0 3d 85 cf ee 3d 16 c9 1f 3e 8d fa 39 3e
       0.094019406 0.11660675 0.15604052 0.18161984
0001d0 b1 30 de 3d 90 87 50 3d 52 d9 ab bd 3f 1e 89 bd
       0.10849131 0.050910532 -0.0839106 -0.06695222
0001e0 70 80 db bd 08 d9 7d 3d 48 7b 6e 3e f1 8d ca 3c
       -0.10717857 0.061974555 0.23289216 0.024725886
0001f0 c5 0d de 3c 63 43 0c 3e a2 09 12 be a2 f4 1e 3e
       0.027106175 0.13697581 -0.14261487 0.15523008
000200 f0 b4 c5 bb dd 61 03 3d 30 b0 02 3c d0 7d f0 3c
       -0.0060335323 0.03207575 0.007976577 0.029356867
000210 c2 78 2e bd 2a df 2d bd 8c 8c 46 bc 34 26 c5 bd
       -0.042595632 -0.042449154 -0.01211847 -0.09626427
000220 66 03 4f 3d d7 3b b3 3d ca a7 17 3c 6a ce 09 3d
       0.05054035 0.08751648 0.009256313 0.033644117
000230 d6 5c f6 3d 40 88 a0 3d 14 8d 6a 3e 17 5f 99 3c
       0.12029426 0.078384876 0.2290538 0.0187221
000240 cc c7 7a bd 0f 17 1b 3e 18 75 35 be 5c 6a 48 3e
       -0.061225697 0.15145515 -0.17720449 0.19571823
000250 ed e7 08 bd ee a8 cc 3d c7 e9 35 bd db 83 aa 3d
       -0.033424307 0.09993158 -0.0444124 0.08325931
000260 2a aa fa 3c e2 fd 63 3d 08 d4 d8 bc 4c 40 ff bb
       0.030598719 0.055662043 -0.026468292 -0.007789647
000270 a0 27 76 3e 89 8b 00 3d 70 c2 27 3d fa 7a 1a 3e
       0.24038553 0.03138307 0.040956914 0.15085974
000280 7e ed 9f 3d 61 58 dc bd f1 bf 0d 3e eb ac 07 ba
       0.0780897 -0.107590444 0.13842751 -0.0005175608
000290 f2 4d 6b 3d d7 98 01 3e 19 5d 10 3e a4 e6 7d 3d
       0.05744738 0.1265596 0.14098014 0.061987534
0002a0 81 48 4d be c9 ad d4 3d 67 dc 05 bd 4f 34 53 be
       -0.2004719 0.103847094 -0.032680895 -0.20625423
0002b0 8b e8 30 3e 09 5b 35 3d b4 66 ba 3d b0 f8 a4 3d
       0.17276208 0.04427627 0.0910162 0.08055246
0002c0 83 64 85 bd ed bf 27 3e 41 63 be bd 67 e2 bc b9
       -0.06513312 0.16381808 -0.09296275 -0.00036026837
0002d0 49 c2 e3 bc 0f 37 92 bd 58 e2 8c 3d 24 a1 49 be
       -0.027802603 -0.07139408 0.06879109 -0.19690377
0002e0 03 3f dc 3d 52 02 a0 bc 61 f5 16 3d 96 bf 23 bc
       0.10754206 -0.019532356 0.036855105 -0.009994408
0002f0 c4 e3 0b bb 2e 60 b0 3d 83 3f dc 3c 2e 85 b7 3d
       -0.0021345476 0.08612095 0.026885753 0.08960949
000300 41 95 10 3d 90 02 98 3d 22 5d 8f 3d be 5c 75 3d
       0.03529859 0.07422364 0.070001855 0.0599029
000310 26 35 bb 3d 4d fc 84 bd c8 9b 2f bd b4 5f b1 3c
       0.09140997 -0.06493435 -0.042873174 0.02165208
000320 47 5e 5b 3e 1d dc 78 bd be 9a 23 3c 3a c8 aa 3e
       0.21422683 -0.06075679 0.009985624 0.33355886
000330 96 57 cd 3d 5b d4 47 bd a2 44 3b bd 77 ec 7c bc
       0.10026471 -0.048786502 -0.04571975 -0.015437237
000340 e2 76 b3 ba f9 c6 27 bd 04 11 3a bd a4 96 c7 bc
       -0.0013692046 -0.04096124 -0.045426384 -0.024363823
000350 64 c5 3d bd a0 b8 92 3c 3c cf f3 bc 33 d1 73 3d
       -0.046330824 0.017910302 -0.029761903 0.05952568
000360 24 56 48 bd 2f d1 85 3e 98 eb 24 bd 0f 4c fa bd
       -0.048910275 0.26136157 -0.040263742 -0.12221538
000370 07 6f 0a 3e 55 2f 07 3e 8f a4 33 3d 14 19 c8 3d
       0.13518916 0.1320165 0.043858107 0.09770408
000380 17 d9 9c 3c 4b fe 66 bd de 53 d6 3d f1 6e 85 bc
       0.019146485 -0.056394856 0.10465215 -0.016288253
000390 22 09 31 3e e5 2a 72 bd e7 c1 2c bc 6a a9 d8 bc
       0.1728864 -0.05912294 -0.010544277 -0.02644797
0003a0 df 46 13 bd 00 74 63 bc 48 4d 39 bc c1 fc 45 3d
       -0.03595626 -0.013882637 -0.011309929 0.048336748
0003b0 91 9a 6e bc d1 ba 85 3d 33 b6 c1 bc 9d a4 85 be
       -0.014563219 0.06529773 -0.02364645 -0.26102152
0003c0 1e 19 7d 3e 39 9a 43 bd ab dc 89 bb 94 e8 8f 3c
       0.24716613 -0.0477545 -0.004207214 0.017566957
0003d0 28 1f 8d bd 58 1c 5a 3d c9 1d b0 3d b5 1c 20 3e
       -0.06890708 0.053249687 0.08599431 0.15635951
0003e0 a3 91 6f bd 5c a8 20 3d 10 4a d2 bc 7a 78 b2 3d
       -0.0584885 0.03922306 -0.025670081 0.08714385
0003f0 ca 98 be 3d f5 2a bd bc 58 3d 4a bc a2 e2 b6 bd
       0.09306486 -0.023091773 -0.012343727 -0.089299455

net.4.weight f4 [4, 256]
000000 d8 1b 6c bb 7f 70 07 3d 8d ec 68 be 2d c6 95 be
       -0.0036027338 0.03306627 -0.22746487 -0.2925276
000010 c2 63 d7 3e 61 ea 07 bf bd a5 7c 3c 6b 14 d2 bc
       0.42068297 -0.5309201 0.015420374 -0.025644502
000020 73 6e e9 3b 27 ef 1e 3f 53 a8 37 3f 49 d7 46 3d
       0.0071237623 0.6208367 0.7174122 0.048545156
000030 6e 39 3d bd c5 af 4f be ff 65 03 3d 28 0f c2 3c
       -0.046197347 -0.20281895 0.032079693 0.023688868
000040 15 ad ed 3e 31 41 bc 3e 55 54 a2 3d 9d 3f 58 bd
       0.46421114 0.36768487 0.07926241 -0.05279504
000050 f2 62 4a be cb b3 2f be 0c d7 06 be a8 9d 96 be
       -0.19764307 -0.1715843 -0.13167971 -0.29417157
000060 9a 40 87 bd ae 35 89 38 fb 1d 55 3f 8e 2f 44 be
       -0.06604119 6.542668e-05 0.8324887 -0.19158766
000070 88 8d 41 bc 43 16 cd be 0b 05 5e 3c 9d 55 81 3e
       -0.011813529 -0.40056047 0.013551007 0.2526063
000080 ec 0d 0b bd 33 9f b8 bd d4 74 12 3d 38 ae aa bd
       -0.033948824 -0.0901474 0.035755947 -0.08334011
000090 4a b8 3e 3f aa 2e 6b be 85 e9 0f 3d 9f e5 90 3d
       0.7449995 -0.2296702 0.03513481 0.07075047
0000a0 93 2b 64 be 85 10 a2 be e5 51 7e be 8e f9 f7 be
       -0.22282247 -0.31653228 -0.24835928 -0.48432583
0000b0 00 87 53 3c 43 e8 13 bd 91 95 c3 3c dd 76 5f bd
       0.0129106045 -0.036110174 0.02387503 -0.054556716
0000c0 73 ce 63 be b9 e4 3b bd 90 8e 16 be ef ab 0c 3f
       -0.22246723 -0.045872424 -0.14702821 0.5494985
0000d0 a4 de b7 be d2 e9 08 3c 60 81 29 bc 87 61 f1 3e
       -0.3591205 0.008356528 -0.010345787 0.4714472
0000e0 aa ea cf be ab 0c c9 3e 94 ca 60 be c0 c0 62 3d
       -0.40608722 0.39267477 -0.21952277 0.055359602
0000f0 d8 96 ae bd 66 d7 6c bd 7c 95 d9 be 39 65 d6 bb
       -0.08524865 -0.057822607 -0.4249686 -0.0065428284
000100 b0 f1 e4 3c 68 a9 0e 3d c0 ba c9 be bf 1a d2 3d
       0.027947277 0.034829527 -0.3940029 0.10259008
000110 b5 12 9f be 96 80 45 3d 36 35 45 3c 5d 8e 67 bd
       -0.3106896 0.048218332 0.012036612 -0.056532253
000120 50 00 32 bd c0 7c 89 be 50 30 29 3d c8 35 76 3c
       -0.04345733 -0.2685299 0.04130584 0.015027471
000130 03 61 86 3c 1d 90 43 be 05 4c 50 3d d8 aa 98 be
       0.01640368 -0.19097944 0.050853748 -0.29817843
000140 0d a0 0e be 1c 0e 1e bf 24 76 22 be 33 29 02 3e
       -0.13928242 -0.6174028 -0.1586538 0.12711029
000150 98 c6 ad bc 74 ff fd 3c f0 4b 6c bd c7 8a 0f be
       -0.021212861 0.031005599 -0.057689607 -0.14017783
000160 8d 05 4d be 09 fc 46 be 36 ea 75 be d0 0d 0f 3e
       -0.20021649 -0.19432081 -0.24015126 0.13970113
000170 44 72 12 3f 5d 3d dd 3e 0e 9b 60 3f d2 66 96 3e
       0.57205606 0.4321088 0.87736595 0.2937532
000180 30 2c 81 bc e0 5b 89 be c0 73 a6 3a 1d b5 d0 be
       -0.01576814 -0.26827908 0.0012699291 -0.40763178
000190 cc 8e ae bb b5 6a e1 3c a9 c3 3e 3b 2a 89 fd 3e
       -0.0053270813 0.027516702 0.0029108322 0.4951871
0001a0 a0 ef 64 be 06 b7 eb be 6d 86 57 3b 60 77 29 3d
       -0.22357035 -0.46038073 0.003288652 0.04137361
0001b0 e2 43 b1 3c 52 98 bc be 56 8e 09 bc ab 21 08 bf
       0.021638814 -0.3683496 -0.008395752 -0.53176373
0001c0 19 b1 e8 be b0 27 7f be 00 73 ab be 15 fd 8f be
       -0.45447615 -0.24917483 -0.33486176 -0.28122774
0001d0 b6 d5 85 3f 1d ba 85 be fd 28 19 3e f0 50 b3 bc
       1.0455844 -0.26118556 0.14957042 -0.02188918
0001e0 d0 39 e4 3e 96 ac 0e bf 37 d7 f7 3e f3 8f 5d bd
       0.44575357 -0.55732095 0.48406383 -0.05409236
0001f0 7e a1 56 be a8 a4 b8 be f9 43 29 bf 6f e5 c4 be
       -0.20960042 -0.36063123 -0.66119343 -0.38456294
000200 bc 99 37 bd cd 7d 6a be d6 1c 0b bf 9c 6d b3 bc
       -0.044824347 -0.22899552 -0.54340875 -0.021902852
000210 00 c0 e4 3e 35 1b c9 bd 01 ca a9 3c f2 de d4 bc
       0.44677734 -0.098196425 0.020726206 -0.025985215
000220 f0 4b 44 be 6e ac cf be 23 ba 95 be ce e2 98 be
       -0.19169593 -0.4056124 -0.29243574 -0.29860538
000230 f1 14 ad be 95 ab c5 be 26 64 3e 3f ab ce 54 bd
       -0.3380504 -0.3860747 0.74371564 -0.051954906
000240 7e 7b 85 bc 53 91 ad be 86 02 ae be 7f 78 a2 be
       -0.016294237 -0.33899936 -0.339863 -0.31732556
000250 18 d5 44 3c cc 24 7e be 26 2a 98 3b 0b 6f e5 3e
       0.012013696 -0.24818724 0.0046436964 0.44811282
000260 db 20 57 bd 93 11 a0 be 38 76 61 3d 73 48 2c bd
       -0.052521568 -0.31263408 0.055044383 -0.04206128
000270 a0 58 b4 3e 39 b0 61 bc e0 df 10 3d f0 3e 21 3f
       0.35223866 -0.013774925 0.035369754 0.6298666
000280 98 bf 26 be fa 87 17 3f 0d ab a2 be da ff 98 be
       -0.16284025 0.5919186 -0.31771126 -0.298827
000290 9f 66 e7 3e d7 f3 a5 be 93 a0 fd be d5 f8 97 be
       0.4519548 -0.32412598 -0.4953657 -0.2968203
0002a0 fc a2 92 be 5a 2a 3d be 52 24 58 bd 80 58 a2 3e
       -0.28639972 -0.18473187 -0.052769013 0.31708145
0002b0 7d 5d 06 3f a2 0e 30 bd 38 76 e6 3e 1a 1c ba be
       0.524864 -0.042982705 0.4501207 -0.36349565
0002c0 5a 06 71 bd ef 05 2c bf bd 13 2f 3f ca c3 ce 3c
       -0.058843948 -0.67196554 0.68389493 0.025239844
0002d0 92 29 81 3c 1c df 8d 3c 9f 71 a6 be 63 04 25 3f
       0.015766893 0.0173183 -0.3250856 0.6445982
0002e0 e9 18 9e be 05 23 28 3d d0 bb ab be 55 57 3d 3d
       -0.3087838 0.041049022 -0.33541727 0.046225864
0002f0 5a 0b 30 bc 42 9a ed be f9 5e bb be d0 23 88 be
       -0.010744894 -0.46406752 -0.36595896 -0.26589823
000300 93 a4 a5 be aa 44 31 3d 0a de 8a be 1f a8 9b 3e
       -0.32352123 0.043278374 -0.27122527 0.30401704
000310 b5 1d f5 be 5e 11 61 3d 3f 9d 3c bb fc bb b5 3c
       -0.47874227 0.054948203 -0.002878025 0.022184364
000320 b7 c0 1f 3f b2 2c e2 3e c8 56 4e 3e c8 f7 08 3f
       0.62403435 0.44174725 0.20150292 0.53503084
000330 b5 a3 02 bf d4 1b 03 bd eb 99 81 3c ae 02 68 3d
       -0.5103105 -0.03200896 0.015820464 0.05664318
000340 c4 c0 9b be 24 6f 85 bd 1f 6a 7a be a2 19 b8 be
       -0.30420506 -0.06515339 -0.24454544 -0.35957056
000350 39 ad 4f 3d 7a f3 fc 3e f4 14 be bc 5c 9d 5f be
       0.050702307 0.49404508 -0.02320335 -0.21837372
000360 c7 64 08 3d ee c5 01 3f 30 3f ca bc eb 29 9e be
       0.033299234 0.5069264 -0.024688333 -0.30891356
000370 cb 2f b4 be f8 a9 90 be c5 69 ef 3c 34 b7 2b be
       -0.35192713 -0.28254676 0.02922524 -0.16769105
000380 d7 6a be 3a 21 41 43 bd 89 e8 64 3d dd 04 db bc
       0.001452769 -0.047669534 0.055885825 -0.026735717
000390 af f8 f0 3d e8 78 93 3c da dc 0a bd 6d 47 b4 bc
       0.11766183 0.018001989 -0.033902027 -0.022006715
0003a0 f7 2d 4b bd 7e 7a 15 be 0f b6 36 3d d4 5c ad 3c
       -0.049604382 -0.14597508 0.04460722 0.021162428
0003b0 18 72 14 3d 4d eb ef be a7 2b 89 bd 29 b1 c1 3d
       0.03624162 -0.46859208 -0.06697779 0.09457619
0003c0 98 e3 e2 3e 66 ef f4 bd d9 47 ce be 36 e1 d3 3c
       0.44314265 -0.11959724 -0.4028919 0.025864225
0003d0 f4 ca cc 3e 62 08 9e 3e ef fe b4 be 76 c6 2c 3f
       0.3999859 0.3086577 -0.3535075 0.6749033
0003e0 bc 1b ef bc 93 7b 69 be bf 6f 2b be 2e c4 f0 be
       -0.02918803 -0.22801046 -0.16741847 -0.47024673
0003f0 fe 8e 78 be 12 15 48 bc 93 e3 c3 be bf 63 db 3e
       -0.24273297 -0.012212055 -0.38259563 0.42849538

net.4.bias f4 [4]
000000 5d d8 65 be cb 3c a2 3c 28 63 73 3d 2d 01 0b 3e
       -0.22445817 0.019804379 0.059420735 0.13574667
