lunar1.pth (torch, 75070 bytes, 6 tensors)

net.0.weight f4 [128, 8]
00000000: 82c3 b73b 7d1c cd3e 36c5 3b3f 72da 633e
00000010: 3b37 b7bf 87e4 01be 06fd 13be 22be 013f
00000020: 9346 7c3f 1bd6 83bf 7203 0ebf 9f3d 17bf
00000030: ae7b c9bf b325 09be b75d 963b 0d5b 033e
00000040: 6161 c93d 32ca 873e 5545 1dbd 411d 8b3d
00000050: f945 30bf 8bca 09bf 3a73 e7be b6ef 16bf
00000060: f985 e7be 3965 82bf 0827 96be bbf5 91bf
00000070: 2991 7c3f fbe5 663f 6fce be3d d4dc 9e3e
00000080: cf46 c53e 9314 193f 9600 42be ad2c 543e
00000090: 2cf5 b03f 0319 81bf da51 cfbd 374e 5abe
000000a0: 5d12 08be 3732 07bf 2ba8 15be 3f11 ccbd
000000b0: 8a76 36bf ea4f d33e 3afd 34be 2d69 3e3f
000000c0: 357c cfbd ef2b 4fbe c70c 363e 9bb4 bebe
000000d0: 1922 cf3f 12be a13d cc5d b03d 6f31 563d
000000e0: 37b8 ff3d f7eb 8f3f 0269 dfbc ef6a 94bd
000000f0: c90e 5fbe 89f6 1fbf 80ce 07bf 8fd6 4fbf
00000100: 5972 07bf 8bfa c63f 77ff ab3e ff89 e73e
00000110: b580 393f 02fd 2c3f 879e 92bf c306 2d3d
00000120: 3f11 cd3f 43eb 57be 792d 0d3f 0a74 f0be
00000130: e7cd 5cbe 7009 943c 7d3c 29bc fc53 ee3c
00000140: 5770 c3bc 6a1c 763f 1d0f 203e 7062 a73f
00000150: b43b 9cbe 4d0d 05be 1863 a3be 0628 1a3e
00000160: 76a7 833e d220 bbbd 8eaa fd3e 2298 57be
00000170: c08e 43bf d0d4 92be cf86 88bf 5838 8a3e
00000180: 8eaa e63e 7c8b 88bf 4cb4 0ebe 7df8 ce3e
00000190: 05ba 8b3f a892 773e 9a9d 21bf 2f50 83bd
000001a0: 6bb8 2f3e 5ce6 93bf f133 45bf b6b0 06bf
000001b0: f715 8a3f 3e69 343f 8d2c 2a3e ee73 46bf
000001c0: 9a6a 00bf 661a c1bd fddf af3d dab9 97be
000001d0: 56ae dbbf 06ff b73b e539 a63e 9e9f 5cbe
000001e0: 6e1f ecbe 5fbf e6be cfaf 093f 4496 96be
000001f0: 5027 013f 46b5 463f 7500 15be 85e8 06be
00000200: 8f0f 80be 7b24 a13f 6bfb 583f 326f c63e
00000210: 6393 cbbe 3e27 70bf a72e a23d ea21 85be
00000220: e3af a3bf 15a5 033f 57b7 2ebf 7246 2b3f
00000230: ff17 163f d0d6 6bbd 478d 81be 0423 acbd
00000240: f4bd 07be d881 9cbf 061c e03e a5fd 3e3f
00000250: cf47 3dbf 0f04 22bf 9eb0 8b3e 0978 40bf
00000260: 8992 ecbc aad8 15bf 538d cc3d 8cdf 26bf
00000270: 1216 523e 6356 b83f 531b d6bd 586d d13d
00000280: bcd5 debf c89c 2ec0 d7a4 16bf 0ded d8be
00000290: 90f2 6e3e 4a32 fd3b 8238 873e 3e83 143c
000002a0: 5f52 e83e 433e 4cbe 28e5 24be b9d4 46bf
000002b0: aee9 20bf 6da9 6f3d 4957 3cbc d736 05be
000002c0: 1d46 73be f2a6 12bd b763 76bf 5659 a93d
000002d0: 5dca 1d3f 6aea 073e ddb1 9d3e e44b b33e
000002e0: 82ae eb3d e9b0 3cbf a83d 2b3f db91 6ebe
000002f0: ae86 1dbf 6d4b 04bf c757 8c3e def1 dc3d
00000300: 766a 143f 507e f63e ca1f 953e 33e0 ccbe
00000310: bf15 1e3f ddf3 74bf 3819 a2be d005 d43e
00000320: 06ff 28bd b282 aebe ddbc 29bf d25f 57bf
00000330: c594 803f b287 543e 2fd8 013e 05c1 473e
00000340: 64b6 d33e b6f2 4b3f 38f6 07bf e14f febd
00000350: 46cc c8be c939 b7be 882d eebe 7765 29bf
00000360: 8709 063e 0edd 30c0 2169 843e 3d5d 62bf
00000370: 6e76 4fbe 8089 923e aa7f e0be 840f 94bf
00000380: fcfd 063e 941b 01be ee38 413d 757b 41bf
00000390: dfb7 acbe 6df7 973a d7dd eabe 79df 713e
000003a0: 1c76 b93d 9ffe 34be 866b c2be 3ee0 6ebf
000003b0: aca6 8c3c de37 17be 68a8 7a3d 984d 31bc
000003c0: 7360 72bc ecc9 d3bc d508 ebbe 3bdb df3f
000003d0: 94fc bfbb 02f3 b43c a57e 413f 6cc5 97bd
000003e0: 48f1 68bf d7b9 22bf 3d5f 05be ea44 82bf
000003f0: 5339 683d b951 973e 73d0 153d 3562 d4be
0.005608023 0.40060797 0.73347795 0.22251299 -1.431373 -0.12684833 -0.1445199 0.50680745
0.9854519 -1.0299715 -0.5547401 -0.590784 -1.5740869 -0.13393287 0.0045888084 0.12827702
0.09833027 0.2652145 -0.0383962 0.06792689 -0.6885677 -0.5382468 -0.45205098 -0.5895952
-0.452194 -1.0187141 -0.29326653 -1.1403116 0.98658997 0.9019467 0.09316718 0.31027853
0.38530585 0.5979702 -0.18945536 0.20720167 1.382482 -1.0085758 -0.10123034 -0.21318899
-0.13288255 -0.52810997 -0.14614932 -0.09964227 -0.71274626 0.41271907 -0.17674723 0.74379236
-0.101311125 -0.20231603 0.17778312 -0.37247166 1.6182281 0.07897581 0.0861164 0.052293237
0.12486308 1.1243886 -0.027271751 -0.072469585 -0.21782984 -0.6248556 -0.5304947 -0.81186765
-0.52908856 1.554521 0.33593342 0.4522247 0.72462016 0.6757356 -1.1454629 0.042242777
1.6020888 -0.21085839 0.5514751 -0.4696353 -0.2156292 0.018070906 -0.010329363 0.029092781
-0.023857279 0.96137106 0.15630765 1.3076916 -0.305143 -0.12993355 -0.3191154 0.1505433
0.257137 -0.09137119 0.49544185 -0.21054128 -0.76389694 -0.28677988 -1.066614 0.26996112
0.45051998 -1.0667567 -0.13935965 0.40423957 1.0916144 0.24177039 -0.63131106 -0.06411778
0.17160194 -1.1554675 -0.7703238 -0.5261339 1.0787953 0.70473087 0.16618557 -0.77520645
-0.5016266 -0.09428863 0.08587644 -0.2963398 -1.7162578 0.005615118 0.32466045 -0.21545264
-0.4611773 -0.4506788 0.5378389 -0.2941152 0.5045061 0.7762035 -0.14550956 -0.13174637
-0.2501187 1.2589258 0.84758633 0.3875671 -0.39760885 -0.9380988 0.079190545 -0.26002437
-1.2788051 0.5142377 -0.68248504 0.66904366 0.58630365 -0.057577908 -0.253031 -0.08405116
-0.13256055 -1.2227125 0.4377138 0.7460578 -0.73937696 -0.6328744 0.27283186 -0.7518316
-0.028878467 -0.5853373 0.09987893 -0.65184855 0.20516232 1.4401363 -0.104544304 0.10225934
-1.7408977 -2.7283192 -0.58845276 -0.42368355 0.23334718 0.007726942 0.264103 0.009064494
0.45375344 -0.19945626 -0.16103041 -0.7766834 -0.62856567 0.058511186 -0.01149542 -0.13009201
-0.23757215 -0.035803743 -0.962459 0.082689926 0.61636907 0.13273016 0.3079976 0.35018837
0.11507894 -0.73707443 0.66890955 -0.23297827 -0.6153363 -0.5167759 0.2741072 0.1078832
0.57974946 0.48143244 0.29125816 -0.400148 0.6175193 -0.95684606 -0.31659865 0.41410685
-0.041258834 -0.34084088 -0.6630381 -0.84130585 1.0045401 0.20754889 0.12680124 0.19507225
0.4135009 0.7966722 -0.53110075 -0.124175794 -0.39218348 -0.35786274 -0.46519113 -0.6617045
0.13089572 -2.763492 0.25861457 -0.8842352 -0.20260021 0.2862053 -0.438474 -1.1567235
0.13182825 -0.12608176 0.047173433 -0.75579005 -0.33734033 0.0011594124 -0.45872375 0.23620404
0.09055731 -0.17675255 -0.3797266 -0.93310916 0.01716932 -0.14767405 0.06119576 -0.010821722
-0.014793503 -0.02585312 -0.45905176 1.7488779 -0.005858967 0.022088531 0.7558387 -0.07410702
-0.90993166 -0.6356482 -0.13024612 -1.0177281 0.056695294 0.29554537 0.036575746 -0.41481176

net.0.bias f4 [128]
00000000: 60ba bbbe 316e 55be a5be 57bd 88a1 e1be
00000010: 5938 5c3e ee8b 1e3f a3a9 2e3e f2ab 33bd
00000020: 4e12 95be 6c7e b0bd 8cc1 3b3f d662 633e
00000030: 3e22 58bf 37e6 02be 4cf4 023d 105e 833e
00000040: be04 28be e06c ac3e 94ed 21bf 8b93 0dbb
00000050: 9d05 8cbe 3252 7e3e 21a3 a9be 1ae0 ad3e
00000060: 4ef7 8bbe b072 a5be cd58 33be c395 bb3e
00000070: 4984 013f f3c5 dbbe eca4 023a 38e1 a4be
00000080: c9a3 35be 512b 9a3e a0a1 e83e d733 bc3e
00000090: 7b07 26bf 0790 803e 7887 183e a205 95bc
000000a0: 682a b03e 1954 143f c855 5bbe 2f90 02bf
000000b0: c032 943e 5a91 8ebd 78c0 ca3e 8ce5 bebd
000000c0: 0e21 48be 448e 81be 6898 653f a8b4 2a3f
000000d0: b422 a43e 10cc a03a 28c5 783f 23e2 023e
000000e0: a554 853e 30f0 c5bc f42f bebe ab10 23b9
000000f0: 302e 0c3e 1758 d73e 4751 843b 3bd5 f5bc
00000100: 1e5a 90be 5a31 ba3e f9a7 2f3f 50fd 3a3d
00000110: 54d4 763c 8938 093d 9eaa 0c3f 7776 5a3e
00000120: 9709 003f 372f 843e 3ba7 38be 07ea a1bd
00000130: 8478 20bf e85a 1c3f 423d 6d3e 5264 d83e
00000140: f648 d03e 388b a6be f25b 1bbf f09a c4bd
00000150: 9328 573e 8cdd 383d 6c2d be3d 383b c0be
00000160: a9f7 2bbe 904c 2ebe 2843 53be 525f 8abd
00000170: d492 f53e 3011 5e39 df1b cb3d 078e b7be
00000180: e6a3 29bd facc 46be 3a63 89bd 21a1 3e3f
00000190: 9369 edbb 6063 b9be f9e1 5ebd 93c7 00bf
000001a0: 2692 d8be 1f29 cf3d 7492 acbe 60a2 143f
000001b0: 3b99 693e 23ec 22bf e37b f23e b3ae 233f
000001c0: 3bbb 0ebe d68b 513c 25aa dd3c b097 8aba
000001d0: a3d7 8d3e b8d3 10bd 5377 c13e e8f0 acbd
000001e0: ace0 78bf 09cf ad3e d462 71bd e018 a9be
000001f0: 8ef9 413d 6cb4 d23e ed12 823e c40d 653e
-0.3666563 -0.20842816 -0.052672047 -0.4406855 0.2150587 0.61932266 0.17056899 -0.04386515
-0.29115528 -0.08617863 0.73342204 0.22205672 -0.8442725 -0.12783132 0.03197126 0.25657701
-0.16408059 0.33676815 -0.6325314 -0.0021602835 -0.27348033 0.24836043 -0.3313227 0.33960038
-0.27337116 -0.32314062 -0.17514344 0.36637697 0.50592476 -0.4292446 0.0004983682 -0.32203078
-0.1773826 0.30111173 0.4543581 0.367583 -0.64855164 0.25109884 0.14895427 -0.018191162
0.34407353 0.5794082 -0.21419442 -0.51001257 0.2894497 -0.06961317 0.39599967 -0.09321126
-0.1954386 -0.25303853 0.8968568 0.6668191 0.32057726 0.0012267847 0.97175837 0.12781577
0.2604114 -0.024162382 -0.3714596 -0.000155511 0.13689494 0.42059395 0.0040380093 -0.030008903
-0.28193754 0.36365777 0.6861568 0.045651734 0.015065271 0.03350118 0.5494784 0.21334253
0.5001463 0.25817272 -0.18032543 -0.07905965 -0.6268389 0.6107621 0.23167899 0.42264038
0.40680665 -0.3252809 -0.6068717 -0.095998645 0.21011572 0.04513316 0.09286007 -0.3754518
-0.16793694 -0.17021394 -0.20631087 -0.06756462 0.47963583 0.00021177973 0.09917425 -0.35850546
-0.04141607 -0.1941413 -0.06708379 0.74464613 -0.0072452514 -0.3620863 -0.054414723 -0.50304526
-0.42299002 0.10115265 -0.33705485 0.58060265 0.22812359 -0.63641566 0.47360143 0.63938445
-0.1393861 0.012789687 0.02705867 -0.0010573771 0.2770358 -0.03535816 0.3778635 -0.08444387
-0.9721782 0.33947018 -0.05893214 -0.3302679 0.047357135 0.41153276 0.25405064 0.22368532

net.2.weight f4 [128, 128]
00000000: 58e5 613d 7dde 223f 76ac f8be 01e2 aebe
00000010: 14b5 5ebe b703 d33e fb99 ccbd c44f cdbe
00000020: 4878 a2be d713 233f a441 2e3e 7819 4fbf
00000030: 2a03 c9bf c9c1 1dbf b9a8 bc3e 71fc cf3e
00000040: a123 17be a72d 2d3f 7a46 d93e da6b 213f
00000050: d87b a1bc 31f1 5bbd d44d 1cbf 5f8d c6bd
00000060: c3e6 8bbe 1b1b 3fbe 610f dbbe 74ed 823e
00000070: 48ed 933c e95b 263f c66e 26bf 285e 9e3f
00000080: d910 c1bf e9f7 e6be 2ba8 74bd 14b1 e4be
00000090: 7283 173c 395c ba3e d605 043e 15e0 86bf
000000a0: d408 0e3f 6adb e2bd b450 72be d8f9 45be
000000b0: 004e 55be 54cf f73e f488 393e 12e1 e73d
000000c0: d5e4 3b3e 40e4 e8bd 8d6f 9e3e 6647 c2bc
000000d0: 3e81 683d 8fc2 71be 2719 6e3e 8e9c 273e
000000e0: 1f2e e3be f6be 9c3e 6ba3 df3e c61c 983d
000000f0: 7ebb 09bf 92d5 25bf 991a 36bf 84de 633f
00000100: 1237 25bf 16bf c93e 564e c4be 7999 00be
00000110: 29c0 e8be 945d 503e 96f9 efbd f1b3 d63c
00000120: b617 b7bd b940 91be c7ea 8fbe 5604 ddbc
00000130: de32 863e 5ea8 b9be 1e71 3f3d 14d9 853f
00000140: 779e a13d 1823 0d3d b691 06bf e8f9 6dbd
00000150: f99f aabe ab90 0a3e 1550 edbd c3f2 f0be
00000160: cbe4 39bf 7a82 e9bd 705a 9c3d 27bf 873e
00000170: 12cf 93bd ccf2 013e b077 b1bd e33d 12c0
00000180: cd8c 93bd dc08 88be 8581 b93d 00b4 993d
00000190: fef9 b9be f0c8 563e 7453 9ebb 13e2 a0bd
000001a0: 7d22 1dbe 2825 e43e 7b11 9f3d 4a71 77be
000001b0: a6aa d73d 97d8 49bf 1bec 873e 95cf 683e
000001c0: c649 80be 4098 57bf 8829 35bf 17c7 40bf
000001d0: 5160 113e 4ec4 9fbe 121d 06be f44d 52bf
000001e0: 0747 063f 1046 2b3e 9845 a53d 32ae 89be
000001f0: 57ad ffbe 96f4 a8bd bd75 1f3e 1531 70bd
00000200: 954c 3dbc 12f3 1a3e 504b ce3d 73d4 babe
00000210: bac0 d33e a457 b43e 2714 063e 9167 9d3c
00000220: 559f 15bf a512 56be 3b9a f03d 1553 163e
00000230: f546 26c0 66c9 61bf 43c3 553c 324e 043e
00000240: 98e2 03bd 4062 903f 8a53 f93e 96c5 953e
00000250: c9b0 013f ae9d b23e c058 78be 76db debd
00000260: 2bc3 d83e 1be2 cfbe 7a31 8b3e 0e2b 16bf
00000270: aca6 3d3e 8e96 05bf 3ff4 0dbe 33db 2fbf
00000280: 678a 19bf df5b 72be 69e6 1e3d 4e51 e23d
00000290: 18d9 ca3e ac11 aebe 11b6 7c3e 8799 9ebe
000002a0: 2ada 49bf 5554 6ebe 510b 3cbe c781 0abe
000002b0: 4fff 0e3e 533e b9be 8f91 9f39 375d 083d
000002c0: cfe6 ddbe 3059 34be a3d4 193e ba96 b5be
000002d0: 567d c9be 8672 a13e 8fcd 103e 38b5 f0be
000002e0: e236 2ebf 4127 fbbe cb30 8bbe 9e18 90be
000002f0: 86b1 4bbe 96fb 8abe 396f 1fbf 3fe5 14be
00000300: 8724 c03d 506e b3bd 302c 05be 67f9 31bd
00000310: d461 f9be 4460 f53d 912b 84be 69b5 e73e
00000320: b98f 3a3e 80d1 16be 9317 6e3d 51b6 bd3e
00000330: aa27 debe 720a debe d80c ed3b 7b87 ee3e
00000340: 58cf 473e 69d8 a93d e150 38be 4e6d 393e
00000350: 5ded 75be cade 6dbe 7aa7 7d3e 7568 3dbf
00000360: 4328 92bd 4723 3d3e 0f77 4c3e 0229 263e
00000370: 1905 4d3e 4b4e 0c3e a2e6 543e 2c2d e0be
00000380: a680 8fbd d0c3 5f3e 93ab c2bf d6e1 723e
00000390: 7fbd 89bf 5156 e4bd b51b b2be 4d29 47bf
000003a0: f52c 14be 05fb 23bf 53d4 a2be 2dd4 67bd
000003b0: 9871 11bf 05b6 e2bf efba 863e dbb8 27be
000003c0: 5cea 6cbe fa41 1ebe e50c 27bf 0a80 a4be
000003d0: d45f b1be cce6 c3be 33d5 08bb 710a 0ebe
000003e0: 2b5b 8c3e 857a 8a3e e1d3 a2bf 6e8c f2bd
000003f0: 3096 c43e 798c e7be d0b2 d03e 4859 90be
0.05515036 0.6362074 -0.48569077 -0.34156802 -0.21748763 0.41213772 -0.09990307 -0.4009992
-0.31732392 0.6370215 0.17017227 -0.8089824 -1.570409 -0.6162382 0.36847475 0.40622285
-0.14759685 0.67647785 0.42436582 0.63055193 -0.019712374 -0.053696815 -0.61056256 -0.09694933
-0.27324495 -0.18662684 -0.4278517 0.25571787 0.01805748 0.64983994 -0.65012777 1.2372484
-1.5083266 -0.45111015 -0.05973069 -0.4466635 0.009247648 0.36398485 0.12892851 -1.0537134
0.5548222 -0.11077006 -0.23663598 -0.19333589 -0.20830536 0.48400366 0.1811865 0.11322226
0.18349011 -0.1137166 0.30944481 -0.023715686 0.05676388 -0.23609374 0.23251782 0.16368315
-0.44371125 0.30614442 0.43679366 0.07427363 -0.53801715 -0.6477901 -0.71134335 0.89011407
-0.64537156 0.394036 -0.38341016 -0.12558545 -0.45459107 0.20348197 -0.117175266 0.02620885
-0.089400694 -0.28369692 -0.28108808 -0.026979607 0.26210684 -0.36261266 0.046738736 1.0456872
0.07891553 0.034457296 -0.5256609 -0.058099657 -0.33325174 0.13531749 -0.1158754 -0.47060212
-0.72614735 -0.114018396 0.07634437 0.26513025 -0.0721723 0.12690276 -0.08665407 -2.2850273
-0.0720459 -0.2656926 0.09057907 0.075050354 -0.3632354 0.20975089 -0.0048317257 -0.0785562
-0.15345187 0.44559598 0.07767006 -0.2416431 0.105305955 -0.78846115 0.26547322 0.22735436
-0.25056285 -0.8421669 -0.70766497 -0.75303787 0.14196898 -0.31204456 -0.13097027 -0.821502
0.5245213 0.16725945 0.080699146 -0.26890713 -0.49936935 -0.08249776 0.15572257 -0.05864056
-0.011553903 0.15131786 0.100729585 -0.3649021 0.41357976 0.35223114 0.13093625 0.019214423
-0.58446246 -0.2090555 0.11748167 0.14680131 -2.5980809 -0.88197935 0.013047042 0.12920454
-0.03219852 1.1279984 0.48696548 0.2925231 0.5066038 0.34885925 -0.24252605 -0.108817026
0.423364 -0.40602192 0.27186185 -0.58659446 0.18520612 -0.52182853 -0.13862704 -0.68693846
-0.5997681 -0.23667859 0.038793955 0.11050664 0.39618754 -0.33997858 0.24678828 -0.30976507
-0.78848517 -0.23274358 -0.18363692 -0.13526069 0.1396458 -0.36180362 0.00030435293 0.03329202
-0.43340155 -0.17612147 0.1502252 -0.35466558 -0.39353436 0.31532687 0.14140914 -0.4701326
-0.68052495 -0.49053386 -0.27185664 -0.2814378 -0.19891939 -0.2714507 -0.6227909 -0.14540575
0.09381967 -0.08761275 -0.13005137 -0.04345074 -0.4870745 0.11981252 -0.2581449 0.45255592
0.18218888 -0.14728355 0.05812795 0.3705316 -0.43389636 -0.43367344 0.007234197 0.46587738
0.19512689 0.0829323 -0.17999603 0.18108103 -0.24016328 -0.23229519 0.24770918 -0.73987514
-0.071365856 0.18470488 0.19967292 0.1622658 0.20021476 0.13701741 0.20791104 -0.43784463
-0.070069596 0.2185204 -1.520861 0.23718962 -1.0760955 -0.11149276 -0.34786764 -0.77797395
-0.14470275 -0.640549 -0.31802616 -0.05659883 -0.56813955 -1.7711798 0.26314494 -0.1637911
-0.23136276 -0.15454856 -0.6525405 -0.32128936 -0.34643424 -0.38262022 -0.002087903 -0.1387117
0.27413306 0.270466 -1.272091 -0.11843191 0.38395834 -0.4522436 0.40761423 -0.28193116

net.2.bias f4 [128]
00000000: 4feb c43e 4e7f df3e af35 383e 7137 723b
00000010: 40d9 0c3f bd83 583e 4883 b33e 7c25 22bd
00000020: a462 e33e be8f 023f 098e f6bc 48f0 133e
00000030: edfd b53e 5c16 013f 105f ae3e 097d d53e
00000040: 945e 5fbd fbf0 8e3e 1908 a53d ca59 8e3c
00000050: 3052 1fbc 9c75 c5bd f69e 1e3e e617 3ebe
00000060: 0296 2bbe 5f9b fe3d 7591 0a3f 5b1b 263f
00000070: c54b 1c3f e4c3 913e cfb9 953e ba2a 303c
00000080: 1ef7 033f f51c 6bbe f668 4ebd e9c5 d2bd
00000090: b643 063f d59c bfbe 401e 2fbd f0b0 f6be
000000a0: fef3 c63e 633d 08bd 35d0 c2bd def3 283f
000000b0: 9b12 c23e 7d55 f2bd 6807 e3bd 3fe7 013f
000000c0: 401d d73e a9e0 02be c63c 59be 78a3 a53c
000000d0: b531 633e 5327 c83e 8875 e4bd 1a47 d9bc
000000e0: 44fc 90bd eb73 353e fbe8 623e a9f4 183f
000000f0: 6eb5 69be ce28 48bd 31ce dbbd cec8 5f3e
00000100: bf30 223f c8b4 ec3e 56a3 c43e 0837 09bf
00000110: 7608 393f e453 cfbd 60a0 b93e fac2 3e3e
00000120: a67a 09bd bc07 063e ea3e 1d3f a888 c13c
00000130: 58f9 09be 5f42 723d ebf2 be3e 1780 a6ba
00000140: f573 86bd 340a 09bd 6704 cdbb ba57 f0bd
00000150: 1501 cb3e 1cd7 173f b430 8a3c 1089 c23e
00000160: eecd 4bbc ebed 943c 728a 423e bc60 7ebd
00000170: 4b1b 47bd 9447 d03e a9d7 bb3e fd57 683e
00000180: ae25 b93e dcee 41be 8a6a 213d 8dca c23e
00000190: 90af ec3c 663e 053f 3865 5a3e 07f3 2fbd
000001a0: bb6e de3e 3203 15bb 8a14 3d3c 0b45 e13e
000001b0: e5c4 ba3e 9d82 543d bc9a 973e c175 df3e
000001c0: 671d c03e 81e4 70bd cdff 443e 3726 cd3e
000001d0: 5b45 353e cdb0 a2bd 5737 8b3e 53b5 153d
000001e0: 6643 593e 595a 8b3e 513c 033f 15d6 c03e
000001f0: ad70 7c3d fa47 bd3e fa12 87bd 9dc9 e33e
0.38460776 0.43651813 0.17989229 0.0036959315 0.55019 0.21144004 0.35061097 -0.03958653
0.44411194 0.51000583 -0.030097025 0.14447129 0.35545292 0.5042474 0.34056902 0.41696957
-0.054533556 0.27918229 0.08058185 0.0173768 -0.009724185 -0.09641573 0.15490326 -0.18563804
-0.16756442 0.124319784 0.541282 0.6488549 0.61053115 0.28469765 0.29243323 0.010752374
0.51548946 -0.22960265 -0.050393067 -0.102916546 0.5244707 -0.3742434 -0.042753458 -0.48181868
0.38858026 -0.033261668 -0.095123686 0.6599711 0.3790482 -0.11832712 -0.11085397 0.5074348
0.42014503 -0.12781014 -0.2121459 0.02021955 0.2218693 0.39092502 -0.1115523 -0.026523162
-0.07079366 0.1772 0.22159187 0.5974832 -0.22823116 -0.04886704 -0.10732687 0.21853945
0.6335563 0.46231675 0.38405865 -0.53599596 0.72278535 -0.10123423 0.3625517 0.18629065
-0.033564232 0.13088888 0.61424124 0.023624733 -0.13474023 0.059145328 0.37294707 -0.0012702969
-0.06565086 -0.033456996 -0.0062566283 -0.117354825 0.39649263 0.59312606 0.016868927 0.37995195
-0.012439234 0.018179854 0.18998125 -0.06210397 -0.048610013 0.4067961 0.36687973 0.22689815
0.3616156 -0.18938774 0.039408244 0.3804516 0.028892308 0.5204834 0.21327674 -0.04295638
0.43443856 -0.00227375 0.011540541 0.43997988 0.36478344 0.051882375 0.2961024 0.43644527
0.37522432 -0.05881167 0.19238205 0.40068218 0.17702238 -0.07943878 0.27190658 0.036549877
0.21217117 0.27217367 0.5126391 0.37663332 0.061630893 0.36968976 -0.06595416 0.44489756

net.4.weight f4 [4, 128]
00000000: 6a9c b5bd f51f 0cbd cb49 8abe b661 8f3d
00000010: 7756 923f b079 10bf abb2 b13f 6dac 6bbc
00000020: 790b 613d 649d 80be fac0 7b3c 7fcd 1fbf
00000030: 10ae 9dbe 1f9b 8d3f cd7f 81bd d55a 97be
00000040: dabd 59bf a4ba 98be 968b 283f 9c35 683c
00000050: 5026 bdbe ea20 b7bc ccd5 2abf 5930 53bf
00000060: 7fee 44bf 1f02 32bf 7245 4bbe 1659 60bf
00000070: a6da a93f 4b70 61be 1e91 1cbf 5f0d 96b9
00000080: 79b6 1cbf dd8f 16bf 0660 86bf b90f d5bf
00000090: 4a4c cebe ec7d 823f e1d3 45bd a827 c73f
000000a0: ca84 b43f bb0c 90bd e5b9 4c3c 865f f63f
000000b0: f1e8 1cbe 132b 583d 8ba8 c83c 82f2 cbbe
000000c0: 4799 b03f a24e 1cbf 24da d7be 9deb c23a
000000d0: 0dee 06bf 7ac1 a6be feab a83d 0605 64bd
000000e0: 0306 18bd 5b3c b5be 8f6f 19bf 6519 75be
000000f0: a511 f43e fd0c c6bc f122 2bbd 8733 b4be
00000100: ecaa 16bf 4ded 8dbe 6b9c 973f 110a 1d3f
00000110: 554c 89bf 6498 0f3d af71 62be 44ee 06bf
00000120: e240 75bd cbcb 93bd 2a07 46bf 45dc 4dbe
00000130: b12d 5dbf 4051 01bf 8eb7 8fbf 38c7 37bf
00000140: 5ecc 11bf 456f 91bf 15e9 61bf 785a 063c
00000150: 4ec4 c3bf 4f2a 6cbf 3ae3 53bd cc8e f8be
00000160: b52d 72bc bb3e 743d 35df fabe e085 1ebc
00000170: 767f 0abf d76b 49bf d791 47be e11e e23f
00000180: 09a8 a3be cc07 09bf cdc8 be3f 9c80 53be
00000190: eb1f 283c f627 6bbf 3ce1 a53f a2a4 813d
000001a0: 226a b2be c44a 84be fb3b ab3c d02c 98be
000001b0: 002b edbd db56 9ebc d5ea 31bf 6ee8 eabe
000001c0: 8d1e ccbc 2d24 0abd e606 c7bf 4182 5cbf
000001d0: bb87 06be 9cde 903d 01d2 a33d 742f 2f3d
000001e0: 22ee a6be a725 983f 8c93 d5be 4a70 13bf
000001f0: ec25 45bf f97a c7bc d8fb 173b c3a9 80be
00000200: aa89 3b3d 75df dabe a5da 5bbe 8a21 6e3d
00000210: a19c a93f 147a 15bf 9e94 a63f d6a4 8cbc
00000220: ccdf 123e d2e0 f33b c7d2 acbc 26c9 0dbf
00000230: 78d5 a5be 9e58 a03f 23b7 e2be 3d1f d7be
00000240: 4934 1bbf 4574 23bf e426 0c3f 614b 943d
00000250: 463a 09bf d3a2 1dbe f360 243e bce8 23bf
00000260: b827 97be 323c 223e a126 febd e2ff 3cbf
00000270: 7b41 943f 19c6 e1be f573 38bf ed3a 123d
00000280: 024f 0abf 7d31 9fbf b04f 66bf 4372 e3bf
00000290: 69c4 1abf 302f 4e3f b11d 833c b3d6 c13f
000002a0: 0f51 ca3f 8082 593d bcd3 9bbc d778 f23f
000002b0: 53d0 92be 0588 573c 052d e7bb 4a01 92be
000002c0: f7ca 993f ce69 33bf 30d0 edbe 05b3 c33b
000002d0: e446 cbbe 79e4 53be 77ac c8bc ce59 4b3c
000002e0: 3480 ebbc 2fdd 54bf fafa d4be bacf 1bbf
000002f0: a4e5 af3e a8ef 3f3d fd4c 08bd 91b1 51bf
00000300: 36b9 b3be 47f8 dabe f230 b93f 200e 553f
00000310: 3522 58bf ab57 663d 5817 9dbe f1d2 21bf
00000320: 08f2 26bd 76e6 c73c 7f68 efbe d546 f0bd
00000330: 2166 05bf f777 fdbe 8a44 92bf 205b 7fbf
00000340: 77fe 24bf ea95 9bbf 4376 48bf 8b7a 493d
00000350: 5d45 0fbf f1bb 88bf 612b 3e3c df32 11bf
00000360: 277b b83c 1942 9dbb 4778 1dbf 68d5 863d
00000370: 5d19 d1be 217b 78bf b5c6 89be 83f5 bb3f
00000380: 859e 9dbe a058 06bf b43a c83f 4ff2 6cbe
00000390: dac5 24bd 89dd 90bf 1600 b43f 33b2 7bbc
000003a0: a295 9bbe 7721 29be 00f4 21bd 961a c8be
000003b0: d471 08be 5732 943d f7c5 93bf 0b95 83be
000003c0: 4994 2fbe f890 a83d 059a 8cbf 2723 1fbf
000003d0: 57fa d3bd 79a4 5dbd 6b5a 01bf fff5 89bc
000003e0: 34ab 46be be14 a53f bf1f 04bf 0467 23bf
000003f0: 4a8a c9bf 0dc0 073e 3d9a d8bc 8ada 9cbe
-0.08867724 -0.034210164 -0.27009425 0.07001059 1.1432637 -0.5643568 1.388265 -0.014384371
0.05494258 -0.2512008 0.015365833 -0.6242294 -0.30796862 1.1062964 -0.06323204 -0.29561487
-0.85055315 -0.29829895 0.6583799 0.014172938 -0.36943293 -0.022354562 -0.6673248 -0.8249565
-0.76926416 -0.69534487 -0.1985071 -0.87635934 1.3269851 -0.22015493 -0.6115893 -0.00028620192
-0.6121593 -0.5881327 -1.0498054 -1.6645423 -0.4029258 1.0194678 -0.048297767 1.5558977
1.4103024 -0.07033678 0.012495493 1.9247901 -0.15323235 0.052775454 0.02449443 -0.39833456
1.3796777 -0.61057484 -0.42158616 0.0014871244 -0.52706987 -0.32569486 0.0823593 -0.055668853
-0.03711511 -0.3539761 -0.5993585 -0.23935468 0.47669712 -0.024176115 -0.04178137 -0.35195562
-0.58854556 -0.2772011 1.184461 0.61343485 -1.072642 0.03505744 -0.2211368 -0.52707314
-0.05987633 -0.07216605 -0.7735468 -0.20103557 -0.86397845 -0.505146 -1.1227891 -0.7178836
-0.56952465 -1.1362082 -0.8824628 0.00820028 -1.5294282 -0.9225206 -0.051730372 -0.48546445
-0.014781405 0.059630137 -0.48998418 -0.009675473 -0.5410074 -0.78680176 -0.19489227 1.7665673
-0.31964138 -0.5352752 1.490503 -0.2065453 0.010261516 -0.9185785 1.2959361 0.06330229
-0.34846598 -0.25838292 0.020902624 -0.2972169 -0.11580467 -0.019328525 -0.6949895 -0.45880455
-0.024916911 -0.033725906 -1.554898 -0.8613625 -0.13137715 0.07073709 0.079990394 0.042769864
-0.32603556 1.188649 -0.41714132 -0.57593215 -0.7701099 -0.02435063 0.0023190882 -0.25129518
0.045785584 -0.4274861 -0.21470125 0.058137454 1.3250924 -0.583894 1.3014104 -0.017168444
0.14343184 0.007442572 -0.0210966 -0.55385053 -0.32389426 1.2527044 -0.44280347 -0.4201602
-0.60626656 -0.6384929 0.5474684 0.0724094 -0.53604543 -0.15394144 0.16052608 -0.64027
-0.2952249 0.15843275 -0.12409712 -0.73827946 1.1582483 -0.4409645 -0.72051936 0.035700727
-0.54026806 -1.2436978 -0.89965343 -1.7769245 -0.6045595 0.8054075 0.016005369 1.5143646
1.5805987 0.05310297 -0.019021861 1.8943127 -0.28674564 0.013154988 -0.0070549273 -0.28516608
1.2015065 -0.7008332 -0.46447897 0.0059722685 -0.39702523 -0.20692624 -0.0244963 0.012411548
-0.028747655 -0.8315 -0.4159773 -0.6086384 0.3435489 0.046859413 -0.033276547 -0.8191157
-0.35102242 -0.42767546 1.4468062 0.8322468 -0.84427196 0.05623595 -0.30681872 -0.63212496
-0.040758163 0.024401885 -0.46759412 -0.1173226 -0.5210896 -0.49505588 -1.1427166 -0.9974842
-0.6445078 -1.2155125 -0.78305453 0.04918913 -0.55965215 -1.0682355 0.011607022 -0.5671825
0.022519661 -0.004799139 -0.61511654 0.06583673 -0.40839663 -0.9706288 -0.26909414 1.4684299
-0.30785003 -0.5247898 1.5642915 -0.23139308 -0.04022775 -1.1317607 1.4062526 -0.01536231
-0.30387598 -0.16516672 -0.039539337 -0.39082783 -0.13324672 0.07236164 -1.1544789 -0.25699648
-0.1714641 0.082307756 -1.0984503 -0.62163013 -0.10350483 -0.05411193 -0.5052859 -0.016840933
-0.19401246 1.2896955 -0.5161094 -0.63829064 -1.5745327 0.13256855 -0.026440734 -0.30635482

net.4.bias f4 [4]
00000000: 2964 92be fd35 29bf f5d2 313e 619e 9cbd
-0.2859204 -0.66098005 0.1736563 -0.07647396
