lunar2.pth (torch, 75070 bytes, 6 tensors)

net.0.weight f4 [128, 8]
0	0x3f966920	1.1750832
1	0xbcc5815f	-0.02410954
2	0x3dbb3a04	0.09141925
3	0xbef39135	-0.47571722
4	0x408baa9b	4.364576
5	0x3ec28409	0.3799136
6	0x3e86bd6c	0.26316392
7	0xbe763fa3	-0.24047713
8	0xc0788128	-3.882883
9	0xbf0f6830	-0.5601835
10	0x3f010114	0.5039227
11	0xbbbe2d47	-0.0058037373
12	0x3eab3aac	0.334432
13	0x3dadccb3	0.08486309
14	0x3d5a9904	0.053368583
15	0xbef59919	-0.47968367
16	0xbf0aaac4	-0.5416682
17	0x3f2519eb	0.6449267
18	0xbef6c862	-0.48199755
19	0xbfdd77c4	-1.7302175
20	0xbeae3f71	-0.34032777
21	0x3f1dd957	0.6165976
22	0x3f4d5188	0.8020253
23	0xbf9f4abe	-1.2444685
24	0xbfebbffd	-1.8417965
25	0x3fe2f651	1.773142
26	0x3fa4d6b3	1.2878021
27	0xbef6ad0a	-0.48178893
28	0xbda77875	-0.08177272
29	0x3fe32fc8	1.7748957
30	0xc0113a41	-2.2691805
31	0xc07b1f65	-3.9237912
32	0xbeedb881	-0.46429828
33	0x3e0d858c	0.13820475
34	0x400bf461	2.1867907
35	0x3fdb3913	1.7126793
36	0xbe06caa6	-0.13163242
37	0x3ebcc03f	0.36865422
38	0x3e42d24c	0.19025534
39	0xbf9b25e7	-1.2120942
40	0xbf8a46af	-1.0802821
41	0x3f0df4ba	0.5545155
42	0x3f0b284f	0.5435838
43	0xbef804b9	-0.48441103
44	0x3ea5e692	0.32402474
45	0x3dc6f85e	0.09715341
46	0xbfb53ae8	-1.4158602
47	0x3f865c13	1.0496849
48	0xbf83df66	-1.0302551
49	0xbe89feb1	-0.26952127
50	0xbe8dba73	-0.27681312
51	0xbf6596ff	-0.89683527
52	0x3e3008a4	0.17190796
53	0xbe229a04	-0.15879065
54	0xbee75bf8	-0.45187354
55	0xbedf8847	-0.4365866
56	0xbf645bcc	-0.8920257
57	0xbf09bc9a	-0.5380341
58	0xbf082c59	-0.5319267
59	0xbf0b233b	-0.5435063
60	0xbd14cc74	-0.036327794
61	0x3f133148	0.5749707
62	0x3f64f5b9	0.89437443
63	0xc01f9e59	-2.4940398
64	0x3d8a3e6c	0.06750187
65	0x3eb747f9	0.35797098
66	0x3f531ea2	0.82468617
67	0xc0068eb9	-2.102461
68	0xbf4c7b4c	-0.79875636
69	0x3f0a93b9	0.54131657
70	0x3f2e91ec	0.6819141
71	0xbfef5689	-1.8698283
72	0x3f599ff6	0.85009706
73	0xbd9b5e79	-0.075863786
74	0xbfad86a5	-1.3556715
75	0x3f808008	1.0039072
76	0xc02e4643	-2.7230384
77	0xbe28dcbf	-0.16490458
78	0x3deba276	0.11505596
79	0xbf07d794	-0.5306332
80	0x3fe4464a	1.783395
81	0x3f5189a9	0.8185068
82	0x3eba3e80	0.3637581
83	0x3e3615ae	0.17781708
84	0x3f82a444	1.020638
85	0x3e324df8	0.17412555
86	0x3fa99472	1.3248427
87	0x3e58d77d	0.21175952
88	0x3fa8a1dc	1.3174396
89	0xbd97ec17	-0.074180774
90	0xbd406e40	-0.046980143
91	0xbf35a491	-0.70954233
92	0x4031ae78	2.7762737
93	0x4041c762	3.0277944
94	0xc046aa28	-3.1041355
95	0xc009dca5	-2.154092
96	0x40abb063	5.3652816
97	0x3eb18f14	0.34679472
98	0xbfff12aa	-1.9927571
99	0x3efbf56f	0.49210688
100	0xbfc7003b	-1.5546945
101	0xbf90ce55	-1.1312968
102	0xbee11c16	-0.4396674
103	0xbe89b0b7	-0.26892635
104	0xbca27c99	-0.019834803
105	0xbd723902	-0.059136398
106	0x3f2258ef	0.6341695
107	0xc03b3720	-2.9252396
108	0x3dfdbef7	0.12389939
109	0x3cc6769f	0.024226485
110	0xc002a4fd	-2.04132
111	0xbc845b39	-0.01615678
112	0xbda61c14	-0.08110824
113	0xbfc7440f	-1.5567645
114	0xbf8ae8fb	-1.085235
115	0x40687578	3.6321697
116	0x404166a4	3.0218897
117	0xbf9cc5c7	-1.2247857
118	0xbdca31b0	-0.098727584
119	0x3de910dc	0.11380169
120	0x400bdc80	2.1853333
121	0xc04398f7	-3.0562112
122	0x3e6dff62	0.23241952
123	0xc04b18b0	-3.1733818
124	0x3ffbc0fb	1.9668268
125	0xbf1a7aa8	-0.6034341
126	0xbf39df87	-0.726067
127	0x3ecfcbaf	0.40585086
128	0x3f13927f	0.5764541
129	0xc087bc69	-4.2417493
130	0xbe5e6abb	-0.21720402
131	0xc0572281	-3.361481
132	0x3c4961a7	0.012291349
133	0xbeb56fdb	-0.354369
134	0xbf2ee877	-0.68323463
135	0x3d190fb1	0.03736848
136	0xc097dbe3	-4.7455916
137	0xc0a004fc	-5.0006084
138	0xbeb70b8c	-0.35750997
139	0x3f67bb76	0.9052042
140	0xbec61d87	-0.38694403
141	0xbd24b95e	-0.040215842
142	0x3ce75b2e	0.02824172
143	0x3e379bf5	0.17930587
144	0x40a4ad3d	5.1461473
145	0x3dd4fa1f	0.10399269
146	0x3fed05d6	1.8517406
147	0x3c9cc634	0.01913748
148	0xbf7fb87c	-0.99890876
149	0xbd953b43	-0.07286694
150	0xbedef445	-0.43545738
151	0x3e1e80a1	0.15478756
152	0x3cb24d1b	0.021765282
153	0xbe61e55a	-0.22060147
154	0x3ea42d56	0.3206584
155	0x3de54af3	0.11195936
156	0xbf06db7b	-0.5267865
157	0xbedaf5b1	-0.42765573
158	0x3dc14004	0.09436038
159	0xbce290b1	-0.027656885
160	0xbeba850d	-0.36429635
161	0x3e80c00d	0.25146523
162	0x3ff81adf	1.93832
163	0x4025b63b	2.5892475
164	0x3fc7e969	1.5618106
165	0xbf2457b0	-0.641963
166	0x3e3bf057	0.18353401
167	0xbe4638ff	-0.1935768
168	0xc0359d12	-2.8377118
169	0xbf3d5de0	-0.73971367
170	0xbf3bbcb0	-0.7333479
171	0xbeacd8b0	-0.3375907
172	0x3e187247	0.14887343
173	0x3f0c9b32	0.5492431
174	0xbf9a8e7c	-1.2074733
175	0xbf5422dd	-0.828657
176	0x3e7c5fb3	0.24645881
177	0xc075edb3	-3.842633
178	0x3c87088e	0.016483571
179	0xbfb150b6	-1.3852756
180	0xbf6f6f01	-0.93528754
181	0xbf7abe55	-0.97946674
182	0xbff035fa	-1.8766472
183	0x3e0d0bb6	0.13773999
184	0xbc0fa0e3	-0.008766386
185	0xbbabc8de	-0.005242451
186	0xbc5f7eac	-0.013641041
187	0x3b8f7873	0.0043783723
188	0x4082df79	4.0897794
189	0x3bfed8a3	0.00777729
190	0xbec01f66	-0.37523955
191	0xbed7cda9	-0.42149094
192	0xbfa5140f	-1.2896746
193	0x3e22f88e	0.15915129
194	0x3f796e7c	0.9743421
195	0xbf214802	-0.630005
196	0x3ecf838b	0.40530047
197	0xbd945c25	-0.07244138
198	0xbf98acd9	-1.1927749
199	0x3f3dc431	0.7412749
200	0xbfae6be8	-1.362668
201	0xbe0a93d6	-0.13532957
202	0xbf952f1e	-1.1655004
203	0xbdc5125d	-0.09622643
204	0xbf004fa8	-0.50121546
205	0xbb018733	-0.0019764423
206	0xbe517d58	-0.20457971
207	0xbf400e8a	-0.75022185
208	0xbff2368b	-1.8922895
209	0x3f594cfd	0.848831
210	0xbf04bb66	-0.5184845
211	0x3fc86325	1.5655257
212	0xc00dd61b	-2.216193
213	0xbe51a8f2	-0.20474604
214	0xc003a732	-2.0570798
215	0xbf9021f2	-1.1260359
216	0x3ee8144a	0.4532798
217	0xbc5d52c6	-0.013508504
218	0x3ec52986	0.38508242
219	0xbf7a8abb	-0.97867936
220	0x3fa7e3d7	1.3116406
221	0xbf7c6821	-0.9859639
222	0xbeee5e03	-0.465561
223	0x3df13d12	0.11779226
224	0x3fb96c08	1.4486094
225	0xbf6dd4ff	-0.9290313
226	0xbd09b5f0	-0.033620775
227	0x3e34d9e5	0.17661245
228	0x3ee4e0ad	0.44702664
229	0xbea33342	-0.31875044
230	0xbc77918d	-0.015110386
231	0xbfb3a3db	-1.403438
232	0x3f2b647b	0.66950196
233	0xbfbaf970	-1.4607372
234	0x3ee4d295	0.4469191
235	0x3fb110c7	1.3833245
236	0x40837c28	4.108906
237	0x3fa575ff	1.2926635
238	0xbdff6c91	-0.12471879
239	0xbded6119	-0.115907855
240	0xc0824aa6	-4.0716124
241	0xc11d9fed	-9.851544
242	0xbf68d894	-0.9095547
243	0xbfe51965	-1.7898375
244	0xbf5042cf	-0.8135194
245	0xbe370b9a	-0.1787552
246	0xbef7b951	-0.48383573
247	0xbf2b8919	-0.6700607
248	0xc003fbce	-2.062244
249	0x3d36ba58	0.044611305
250	0x3dfae434	0.122505575
251	0x3d88e066	0.066834256
252	0xbe7291f0	-0.23688483
253	0x3f2f1096	0.68384683
254	0x3f855780	1.0417328
255	0xbf9727cf	-1.1809024

net.0.bias f4 [128]
0	0x3cb9da87	0.02268721
1	0xbdc20bcb	-0.094749056
2	0xbe907298	-0.28212428
3	0x3d41c23c	0.047304377
4	0xbf934bef	-1.1507548
5	0xbf58ec1b	-0.8473527
6	0x3ebc508c	0.36780202
7	0x3ed9412f	0.42432544
8	0xbf28ba9f	-0.6590976
9	0x3e1cb16a	0.15302053
10	0xbf9146e8	-1.1349764
11	0xbec13ca4	-0.37741578
12	0xbf48b5d2	-0.78402436
13	0xbb207575	-0.0024484072
14	0xbc83aba9	-0.016073065
15	0xbfb22504	-1.3917546
16	0xbf9d5ebb	-1.2294534
17	0xbfb6561e	-1.4245031
18	0xbe8806e7	-0.26567766
19	0x3f9e572c	1.2370353
20	0xbee3e77e	-0.44512552
21	0x3f9108c8	1.1330805
22	0xbc9b7d03	-0.018980509
23	0x3c0ef81b	0.008726145
24	0xbe999176	-0.2999379
25	0x3f04e255	0.51907855
26	0xbfa0f434	-1.2574525
27	0x3ec6dca9	0.38840225
28	0x3fbbbcca	1.4666989
29	0xbf3ebf9e	-0.74511135
30	0x3f2d7180	0.6775131
31	0xbd9de6f5	-0.07710067
32	0xbf6939af	-0.91103643
33	0xbf971ef5	-1.1806322
34	0xbf000550	-0.50008106
35	0xbf91f385	-1.1402441
36	0xbfb6904b	-1.4262785
37	0xbe8e30b7	-0.2777154
38	0x3fcd84ac	1.6056113
39	0x3e811a71	0.25215486
40	0xbe7c5334	-0.24641114
41	0xbf133aa8	-0.5751138
42	0x3efa8aab	0.4893392
43	0x3eb25539	0.34830645
44	0x3dbbc9d0	0.09169352
45	0x3fedebd2	1.8587592
46	0x3fbc3916	1.4704921
47	0x3d4c661c	0.049902067
48	0x3f6847e2	0.90734684
49	0x3d8e7d54	0.06957498
50	0xbfea6b21	-1.8313943
51	0xbf81fb2f	-1.015478
52	0xbcb3f485	-0.021967182
53	0x3e86986e	0.2628817
54	0xbf16a548	-0.5884595
55	0xbf7eff64	-0.99608445
56	0xbf716fdc	-0.9431131
57	0xbfa01fc3	-1.2509693
58	0x3f580e91	0.84397227
59	0x3f839441	1.0279619
60	0xbf81f169	-1.0151798
61	0x3ff480a1	1.9101754
62	0xbfb94f36	-1.4477298
63	0xbf9fbda9	-1.2479755
64	0xbf143685	-0.5789569
65	0xbe9f1b3d	-0.3107547
66	0xbf9a51e4	-1.2056241
67	0xbfaaa21b	-1.3330721
68	0x3f9244f4	1.1427293
69	0x3fd0d3d5	1.6314646
70	0xbdf6eea4	-0.12057236
71	0x3f168ca3	0.58808345
72	0xbf79ec12	-0.9762584
73	0xbe9c0b35	-0.304773
74	0x3f04e455	0.5191091
75	0x3f482988	0.7818837
76	0xbecf1583	-0.404461
77	0x3b3e1087	0.002900155
78	0xbfb82c53	-1.4388527
79	0xbfaf673a	-1.3703377
80	0xbf42d3ac	-0.76104236
81	0x3f926f4f	1.1440219
82	0xbeb1c760	-0.34722424
83	0xbe4b0749	-0.19826998
84	0xbf769aca	-0.9632994
85	0xbea02944	-0.31281483
86	0xc008ab5c	-2.135459
87	0xbfbf48e5	-1.4944121
88	0x3d8d802d	0.06909213
89	0x3e6c2897	0.23062359
90	0x3c958858	0.01825349
91	0xbf362b35	-0.7115968
92	0xbe7a2ab2	-0.2443035
93	0x3e9c953a	0.305826
94	0xbfda37c1	-1.7048265
95	0xbfe59d3f	-1.7938613
96	0xbe6b9857	-0.23007332
97	0x400628cc	2.09624
98	0xbfbaa7ec	-1.4582496
99	0x3f4242e1	0.758833
100	0xbe812fef	-0.25231883
101	0xbf661825	-0.8988059
102	0x3f2a0521	0.66414076
103	0x3f3ae8c6	0.73011434
104	0xbdce66ce	-0.10078202
105	0x3dfa16bd	0.12211368
106	0xbf42b50d	-0.7605751
107	0xbfbc75e5	-1.4723479
108	0x3e4671ef	0.193794
109	0x3f1dc27f	0.616249
110	0x3e28465c	0.1643309
111	0x3f5ddf6d	0.86669046
112	0xbf905c6e	-1.1278207
113	0x3e96d3ae	0.29458374
114	0x3f869095	1.0512873
115	0xbdf8353e	-0.1211953
116	0x3f95c729	1.1701404
117	0x3f553f5c	0.83299804
118	0x3a64aa66	0.0008722901
119	0xbf134543	-0.5752756
120	0x3e7aa046	0.24475202
121	0x3d0634bf	0.032765146
122	0xbf92f64a	-1.1481411
123	0xbf324f2b	-0.6965205
124	0xbf8e045a	-1.1095078
125	0x3f969cae	1.1766565
126	0x3f9889a8	1.1917009
127	0xbf30bb6e	-0.69035995

net.2.weight f4 [128, 128]
0	0xbd803730	-0.06260526
1	0x3f3e9810	0.7445078
2	0xbef8360c	-0.48478734
3	0x3f84451d	1.0333592
4	0x3f0c57db	0.54821557
5	0xbd014136	-0.03155633
6	0x3f1dbbce	0.6161469
7	0x3f077fa5	0.52929145
8	0xbf917453	-1.1363624
9	0xbf976ba7	-1.1829728
10	0xbf22dee4	-0.63621354
11	0xc0318baf	-2.7741506
12	0xbf1661c1	-0.5874291
13	0xbe91e89d	-0.28497782
14	0xbde91fef	-0.11383044
15	0x3fbd14bf	1.4771956
16	0x3ebf9bb8	0.3742349
17	0xc116752a	-9.4036045
18	0x3f996f92	1.1987174
19	0x3f03b9f7	0.51455635
20	0xbfad20ea	-1.352567
21	0x3d07b00e	0.033126883
22	0x3f534da5	0.8254035
23	0xbf3e421f	-0.7431964
24	0x3e91781d	0.28411952
25	0xbf31d4d7	-0.6946539
26	0xbf5a5c6e	-0.85297287
27	0x3e3e3743	0.18575768
28	0x3e3e5516	0.18587145
29	0x3ed2d26b	0.4117616
30	0x3f852bd0	1.0403996
31	0x3eda84c1	0.42679408
32	0x3f9dbb53	1.2322792
33	0xbdbb9e16	-0.09161012
34	0x3d9e5e93	0.07732882
35	0xc02c6343	-2.6935585
36	0x3f573f63	0.84081095
37	0x40f34357	7.60197
38	0xbe0f560d	-0.1399767
39	0x3f2d6d55	0.6774495
40	0xbe9bee9f	-0.3045549
41	0xbf08e57e	-0.5347518
42	0x3e7bce87	0.24590503
43	0xbeebe89a	-0.46075898
44	0xbf65b11a	-0.8972336
45	0x3f140663	0.57822245
46	0x3f2dd0d5	0.6789678
47	0xbef8e5f4	-0.4861294
48	0xbfbf84bd	-1.4962384
49	0x3f372aa0	0.71549416
50	0x3f11f35d	0.5701197
51	0x3e86eb85	0.26351562
52	0x3f9558b5	1.1667696
53	0x3dabab40	0.08382273
54	0x3e33807d	0.17529483
55	0xbfb21118	-1.3911467
56	0xbe967971	-0.29389527
57	0x3ffc5173	1.9712356
58	0x3f1314de	0.57453716
59	0x3ed27976	0.41108292
60	0x3e7e3e0e	0.2482836
61	0x3f11c57d	0.5694197
62	0x3f098681	0.5372086
63	0xbfeb39f6	-1.8377063
64	0x3f54f68c	0.831887
65	0x3dc9a132	0.09845199
66	0xbf28a8d5	-0.6588262
67	0x3d63063d	0.05542587
68	0xbf37b115	-0.7175458
69	0x3bbb4c0d	0.005715853
70	0x3f00a405	0.50250274
71	0x3d906d97	0.070521526
72	0xbf8b5e39	-1.088813
73	0x3f41e73a	0.7574345
74	0xbf03de09	-0.51510674
75	0xbf743341	-0.9539071
76	0x3f548e40	0.83029556
77	0xbf8b0aed	-1.0862709
78	0x3fb87f81	1.4413911
79	0x3ee706da	0.45122415
80	0x3f2da55a	0.6783043
81	0x3f6d1e92	0.9262477
82	0x3f9fcd46	1.248452
83	0xbdf90366	-0.12158851
84	0xc0055054	-2.0830278
85	0x3f23ca66	0.6398071
86	0xc026a32d	-2.6037095
87	0xc0f510ce	-7.6583014
88	0xbeb5036f	-0.35354182
89	0x3f34d0e2	0.7063123
90	0xbef87bf8	-0.4853208
91	0x3f2b99d4	0.670316
92	0xbec5b86a	-0.3861726
93	0x3fa0cfe4	1.2563443
94	0x40063144	2.096757
95	0xbecca8c4	-0.39972508
96	0xbf38856a	-0.72078574
97	0xbf32f5d6	-0.69906366
98	0xc0c8e227	-6.2776065
99	0x3e0028cc	0.12515563
100	0x3f6c3a66	0.9227661
101	0xbd8a74f0	-0.06760585
102	0x3f2366b6	0.638286
103	0xbeb335df	-0.35002038
104	0x3f5c6117	0.8608565
105	0xbf94c828	-1.1623583
106	0xc0577419	-3.366461
107	0x3d074172	0.033021398
108	0x3e9eb55d	0.30997744
109	0xbf643c3e	-0.8915442
110	0x3fa60eb6	1.297324
111	0x3f6fbf88	0.9365163
112	0x3e8537f0	0.2601924
113	0xbfc2f9e4	-1.523251
114	0x3f0cecf0	0.5504904
115	0xbd7d4b60	-0.06183946
116	0xbe0a2cfb	-0.13493721
117	0xbf865732	-1.049536
118	0x3f53c7e5	0.8272689
119	0xbf2e4719	-0.68077236
120	0x3ec707b8	0.38873076
121	0xbf41a774	-0.7564614
122	0xbfedad70	-1.8568554
123	0xbfbe5e08	-1.4872446
124	0xbff7277f	-1.9308928
125	0x3ed505d5	0.41606012
126	0x3e912f28	0.2835629
127	0x3dde932d	0.10867915
128	0x3f4ae330	0.7925291
129	0xbedaf35d	-0.42763796
130	0x3f0afee6	0.54295194
131	0x3cf51c11	0.02992061
132	0xbdba5e89	-0.091000624
133	0x3db31741	0.0874467
134	0xbde6b6b3	-0.11265316
135	0xbdc16b18	-0.09444255
136	0xbf4d8dee	-0.8029469
137	0xbf3e8953	-0.7442829
138	0xbf6332ba	-0.8874928
139	0x3f365b35	0.7123292
140	0xbf82d8b3	-1.0222381
141	0xbe66b63b	-0.22530453
142	0xbff9aec5	-1.950646
143	0x3f8ce8ec	1.1008582
144	0x3fceeffe	1.616699
145	0xbfb4175b	-1.4069628
146	0xbf97f899	-1.1872741
147	0xbfb51bd1	-1.4149114
148	0xbcd06c41	-0.025442244
149	0x3f6b897a	0.9200665
150	0xbf2cd7a6	-0.67516553
151	0x3ec86c8e	0.3914532
152	0x3eb830be	0.35974687
153	0xbf21002c	-0.6289089
154	0x3eff2e99	0.4984024
155	0x3dd4beb7	0.103879385
156	0xbf5e6cd7	-0.86884826
157	0xbffc762d	-1.9723564
158	0x3f4d85c2	0.80282223
159	0xbe8932f1	-0.26796678
160	0xbfab142a	-1.3365529
161	0xc042d7fe	-3.044433
162	0xbf9ab3f4	-1.2086167
163	0xbebf7696	-0.3739516
164	0x3f5e1a58	0.8675895
165	0x3ed3a39f	0.4133577
166	0xbf896ad2	-1.0735724
167	0x3d9fc946	0.07802062
168	0xbf563a7b	-0.83682984
169	0xbeaa551e	-0.33268064
170	0xbf6d30f2	-0.9265281
171	0xbf332474	-0.699775
172	0xbf992fcd	-1.1967713
173	0x3e56e4ad	0.2098567
174	0xbf75de8d	-0.9604271
175	0x3fc573a3	1.5425915
176	0xbfaec0bd	-1.3652569
177	0x3f62459e	0.8838748
178	0x3e159cdb	0.14610617
179	0x3f9df5fe	1.2340696
180	0xbf3efa66	-0.7460083
181	0x3f948955	1.160441
182	0xbf8ecea6	-1.1156814
183	0x3e13c3ab	0.1443011
184	0xbeb87c27	-0.3603222
185	0x3f047900	0.5174713
186	0x3e9bda39	0.30439928
187	0xc0adb741	-5.42862
188	0x3f7627ad	0.9615429
189	0xc06b3787	-3.6752641
190	0x3f559337	0.8342776
191	0xbfdcb754	-1.7243447
192	0xbff70131	-1.9297239
193	0xbe093903	-0.13400654
194	0xbfdb10fc	-1.7114558
195	0x3f9fd1ef	1.2485942
196	0xbf6dd723	-0.929064
197	0xc0bc358e	-5.8815374
198	0xbf457869	-0.77136856
199	0xbfd0099f	-1.6252936
200	0xbe94eca1	-0.29086784
201	0xbf2a625f	-0.6655635
202	0xbfb737e6	-1.4313934
203	0xbf0fd079	-0.5617748
204	0xbfdc26b1	-1.7199308
205	0x3fa03058	1.2514753
206	0x3f3834f0	0.71955776
207	0xbfe3f1bd	-1.7808148
208	0x3f1a9b3d	0.60393125
209	0x3f9c1818	1.2194853
210	0x3e357e03	0.17723851
211	0x3e97e503	0.2966691
212	0xbfd94fb9	-1.6977454
213	0x3fa460fe	1.28421
214	0xbefcc00e	-0.49365276
215	0xc03467da	-2.8188386
216	0xbc2396d7	-0.0099846935
217	0x3f5c1fe0	0.8598614
218	0x3f190e3d	0.5978735
219	0xbfe75aad	-1.8074547
220	0x3eaf0021	0.34179786
221	0xbe8b5a39	-0.27217272
222	0x3eabe15f	0.33570382
223	0x3eb4cf91	0.3531461
224	0xc0169912	-2.3530927
225	0xbfa97e81	-1.3241731
226	0xbe10ea7f	-0.14151953
227	0xbec1ae80	-0.37828445
228	0x3ee3ca43	0.4449025
229	0x3de2ece5	0.1108034
230	0xbfd56a9c	-1.667316
231	0x3f119e92	0.56882584
232	0xbfcd7b39	-1.605323
233	0xbfa38b48	-1.277688
234	0x3fe649b2	1.799124
235	0xbf82e96d	-1.0227486
236	0xbeda398b	-0.42622027
237	0x3fc48775	1.5353838
238	0xbed70e4c	-0.42003095
239	0x3e318690	0.17336488
240	0x3f9cc25e	1.2246816
241	0xbfbaa101	-1.4580384
242	0xbed88f2c	-0.4229673
243	0xbf609a92	-0.87735856
244	0xc00cd3be	-2.2004237
245	0xbf21b80a	-0.63171446
246	0xbe970a0f	-0.29499862
247	0xbe833059	-0.25622824
248	0xbcc29e19	-0.023757027
249	0xbe04bb15	-0.12961991
250	0xbfbe198f	-1.485155
251	0xbf1e5712	-0.6185161
252	0xbe30c401	-0.1726227
253	0x3e4e35a5	0.20137651
254	0xbf91ead7	-1.1399792
255	0x3f85f7ce	1.0466249

net.2.bias f4 [128]
0	0x3db42181	0.08795453
1	0xbe05595d	-0.1302237
2	0xbea4f451	-0.3221765
3	0x3ed5b062	0.41736132
4	0xbe9ba589	-0.3039973
5	0x3f0cd0d0	0.5500612
6	0xbe3e4b86	-0.18583497
7	0x3d2f5868	0.04280892
8	0xbe58ddbc	-0.21178335
9	0xbd8f6d69	-0.0700329
10	0xbe8f8886	-0.28033847
11	0xbd0419d0	-0.03225118
12	0x3ed180d0	0.4091859
13	0xbee3e394	-0.44509566
14	0x3f304924	0.68861604
15	0xbccdf486	-0.025141012
16	0xbe214657	-0.15749489
17	0xbe82caee	-0.25545448
18	0x3e96498e	0.29352993
19	0xbed12e14	-0.40855467
20	0xbdaa5b9a	-0.08318253
21	0x3ec8a635	0.39189306
22	0xbd14d5f0	-0.03633684
23	0x3ea6e6f9	0.32598093
24	0xbd38f16f	-0.045152124
25	0x3e2bdbf6	0.16783127
26	0x3eecc6b0	0.46245337
27	0xbe04a779	-0.12954511
28	0xbdb66b02	-0.08907129
29	0x3e2dda48	0.16977799
30	0x3e22c67b	0.15896027
31	0xbf53dc8a	-0.8275839
32	0xbf12b446	-0.57306325
33	0x3e1472ca	0.14496914
34	0x3ee0f4ef	0.4393687
35	0xbde28842	-0.11061145
36	0x3d79c02a	0.060974278
37	0x3f9ff883	1.2497715
38	0x3ec0b83c	0.3764056
39	0xbef633a4	-0.48086274
40	0x3f1025c9	0.56307656
41	0x3e358f69	0.17730488
42	0xbdb15a7a	-0.08659835
43	0xbe787c49	-0.24266161
44	0x3fa4a070	1.2861462
45	0xbe4410d0	-0.19147038
46	0xbd4e0a1c	-0.05030261
47	0xbebf674c	-0.37383497
48	0xbcbee2fd	-0.023301596
49	0xbfbb31de	-1.4624593
50	0x3d1e413a	0.038636424
51	0x3e5ef4c4	0.21773058
52	0xbe817258	-0.2528255
53	0x3eed0870	0.462955
54	0xbc7e6493	-0.015526908
55	0x3e39023a	0.18067256
56	0x3f79304f	0.9733934
57	0x3f4e95dd	0.80697423
58	0xbcd3daaa	-0.025861103
59	0x3f046143	0.5171091
60	0xbed2afc3	-0.4114972
61	0xbc1297b9	-0.008947306
62	0x3ee3ba61	0.44478133
63	0xbce98db8	-0.02850996
64	0x3ece4309	0.4028552
65	0x3f2ce0e2	0.67530644
66	0xbddfb705	-0.1092358
67	0xbe3ddaad	-0.1854045
68	0x3ea6e7fb	0.32598862
69	0x3e84fc91	0.25973943
70	0xbe249a41	-0.16074468
71	0x3f443f90	0.7665949
72	0xbd91a8a7	-0.07112246
73	0x3ef283f4	0.47366297
74	0x3fa97c89	1.324113
75	0x401237a5	2.2846463
76	0x3eb1543a	0.34634572
77	0x3e9af5cf	0.30265662
78	0xbf2a86fa	-0.6661221
79	0x3e907759	0.28216055
80	0xbd4d8ada	-0.050181247
81	0x3f26d0b2	0.65162194
82	0x3e5dfae5	0.2167774
83	0xbf89d9b3	-1.0769562
84	0x3f1861cc	0.59524226
85	0xbf8d64b9	-1.1046363
86	0xbdd0ed58	-0.1020152
87	0x3e4ea1ee	0.20178959
88	0x3f3e1417	0.74249405
89	0x3e06b128	0.13153517
90	0xbf176abc	-0.5914724
91	0x3f07f213	0.5310375
92	0x3bb97268	0.0056593902
93	0xbda1d991	-0.079028256
94	0x3e978d6e	0.2960009
95	0xbc523191	-0.0128292
96	0x3ec11d19	0.37717512
97	0xbd1d46fd	-0.038397778
98	0xbdf1555b	-0.117838584
99	0xbd8be033	-0.06829872
100	0xbeed4a91	-0.46345952
101	0xbe5f45f9	-0.21804036
102	0x3ea0e3ba	0.31423742
103	0xbd138411	-0.03601462
104	0x3dcd55ee	0.100261554
105	0x3e6ded9f	0.23235177
106	0x3be67716	0.007033239
107	0x3ed9bc11	0.42526296
108	0x3e080c57	0.13285957
109	0xbcee5cfe	-0.029097077
110	0x3f9c4b0b	1.2210401
111	0x3f4b363a	0.7937962
112	0xbe16abdc	-0.14713997
113	0xbd9248ee	-0.071428165
114	0x3cbff6a7	0.023433043
115	0x3dcc7190	0.09982598
116	0xbe2430eb	-0.16034286
117	0xbe05f87d	-0.13083072
118	0xbf678d95	-0.9045041
119	0x3ddc74d3	0.1076447
120	0xbd4bb6ca	-0.049734868
121	0x3f21459f	0.6299686
122	0x3ece8a99	0.40340117
123	0xbd8f4049	-0.06994683
124	0x3f58211c	0.8442552
125	0x3e6fafcc	0.23406905
126	0xbe608b52	-0.21928146
127	0x3ed81ad7	0.42207977

net.4.weight f4 [4, 128]
0	0xbf8c651f	-1.096836
1	0xbf1f5a3f	-0.6224708
2	0xc03cbbea	-2.9489694
3	0x3fbbdd38	1.4676886
4	0xbf755637	-0.9583468
5	0xc09e274e	-4.942298
6	0x404b8903	3.1802375
7	0xbf94d093	-1.1626152
8	0xc057a3a9	-3.369364
9	0x3d0f8cd4	0.035046414
10	0xbfd887bb	-1.6916422
11	0x3c86d149	0.016457217
12	0xbf563cb9	-0.83686405
13	0xbfb8dc14	-1.4442163
14	0xbf63884c	-0.8887985
15	0xc005ec38	-2.0925426
16	0xbf9e7084	-1.2378087
17	0xbf9d7648	-1.2301722
18	0xbf5c5593	-0.86068076
19	0xc000aad3	-2.0104263
20	0x3cc8239c	0.024431042
21	0xbf0dc497	-0.553781
22	0xbf689228	-0.90848017
23	0xbf59a2cf	-0.8501405
24	0xc06c56c2	-3.6927953
25	0xbf4a553e	-0.7903632
26	0xbeeaa44a	-0.45828468
27	0x3d6f69c7	0.058450487
28	0xbcf1bc68	-0.029508784
29	0xbf925dd2	-1.1434882
30	0xbf74e5d3	-0.95663184
31	0x3f57d095	0.84302646
32	0xbedd0ad0	-0.43172312
33	0xbf983bdd	-1.1893269
34	0xc02694d6	-2.6028342
35	0xbff69b99	-1.9266235
36	0xc060d3ec	-3.5129347
37	0xbe9c371d	-0.30510798
38	0xbfa754cf	-1.3072757
39	0xc0702ce6	-3.7527404
40	0xbf4837bc	-0.78210044
41	0xc00db023	-2.2138755
42	0xc01a20be	-2.4082484
43	0xc05c5e2c	-3.4432478
44	0xc01f4d69	-2.4890997
45	0x3fb50595	1.4142329
46	0xbd56c540	-0.052434206
47	0xc013d079	-2.3095992
48	0xbbd933c5	-0.006628486
49	0x402c713e	2.6944118
50	0x3f830512	1.0235922
51	0xc054d87f	-3.3257139
52	0xc0804bcd	-4.009253
53	0xc00bb07d	-2.182647
54	0xbd03661a	-0.032079794
55	0xc012979f	-2.2905042
56	0x3fc84b97	1.5648068
57	0x3f2d5ed2	0.6772281
58	0xbd0ce059	-0.034393642
59	0xc03bc5a2	-2.9339375
60	0xbe4c9c38	-0.19981468
61	0xbf38a222	-0.72122395
62	0xbf2fa9ca	-0.6861845
63	0x3d4a1afa	0.049342133
64	0xc0846b42	-4.138093
65	0xbf170536	-0.58992326
66	0x3ca43d87	0.02004887
67	0xbf98bb0b	-1.1932081
68	0xc0760f57	-3.8446863
69	0x3ffb6457	1.9639996
70	0x406097f3	3.5092742
71	0x3faa173f	1.3288344
72	0xbc166dc6	-0.009181445
73	0x3f56a425	0.83844215
74	0x3f8ee5ff	1.1163939
75	0x4000fbc6	2.015367
76	0xbff9f7b4	-1.9528718
77	0xc003d0c7	-2.0596178
78	0x40047169	2.069422
79	0x3f8d7a07	1.1052865
80	0x3d17a5e3	0.037023436
81	0xc01f8183	-2.4922798
82	0xbecd35c9	-0.40080097
83	0x3fc7a024	1.5595746
84	0xbf3e19af	-0.7425794
85	0x4095c54d	4.6803346
86	0x3d9a6de4	0.07540491
87	0x3f97629b	1.1826967
88	0xc0408aa9	-3.0084631
89	0xbfa340d0	-1.2754154
90	0x3f7cecf8	0.98799086
91	0x3ff19c77	1.8875874
92	0xc0234849	-2.551287
93	0xbcccb709	-0.024989622
94	0x3fb0cd86	1.3812721
95	0x3cb7d098	0.022438332
96	0xbfc345fe	-1.5255735
97	0xbd1d3ce7	-0.03838816
98	0x3fdf08af	1.7424525
99	0x3bff6796	0.007794331
100	0x3fac7cf2	1.347563
101	0xbfa98cae	-1.3246057
102	0xbfb0e150	-1.381876
103	0xbeba0f13	-0.36339626
104	0x407fdf7e	3.9980159
105	0x3fa854fe	1.3150938
106	0xbd9cec8d	-0.07662306
107	0xbfcc3281	-1.5952913
108	0xc005e112	-2.0918622
109	0x3d953a9f	0.07286572
110	0x3fab15d6	1.3366039
111	0xc0368225	-2.8516934
112	0xc0235149	-2.5518363
113	0xbc919ab7	-0.01777397
114	0x3c034e4d	0.008014274
115	0xbfb94c9f	-1.4476508
116	0xc0a10263	-5.0315413
117	0xbd9683ba	-0.073493436
118	0xbf15bdf4	-0.5849297
119	0xbf182ca7	-0.59443134
120	0xc071d4b8	-3.7786083
121	0xc04e660a	-3.224978
122	0x3f687588	0.9080434
123	0xbfe897de	-1.8171346
124	0x4057cbc9	3.371813
125	0x3f5b9fed	0.857909
126	0xc05a5fae	-3.4120898
127	0xbf405262	-0.75125706
128	0xbfa29b23	-1.2703594
129	0xbf6eeb17	-0.9332747
130	0xc052c1c2	-3.293076
131	0x3fa99be6	1.3250701
132	0xbf657f7e	-0.8964766
133	0xc03f9a78	-2.993803
134	0x402124b3	2.517865
135	0xbf4edfa0	-0.80809975
136	0xc0438855	-3.055196
137	0x3cb08d94	0.021551885
138	0xbf56505f	-0.83716387
139	0x3cb94053	0.02261368
140	0xbf591e1a	-0.84811556
141	0xbfdc500e	-1.7211931
142	0xbf6b77b6	-0.9197954
143	0xbf73f137	-0.9528994
144	0xc0015449	-2.0207694
145	0xbf116c9c	-0.5680635
146	0xbfac4b97	-1.3460568
147	0xbfdfe047	-1.7490319
148	0x3d8cdd61	0.06878162
149	0xbf061a4a	-0.52383864
150	0xbfc38640	-1.5275345
151	0xbf765890	-0.96228886
152	0xc00eb75f	-2.229942
153	0xbf90b76c	-1.1305976
154	0xbf084265	-0.5322631
155	0x3c254fc7	0.010089821
156	0x3c2b7a07	0.010466105
157	0xbf834834	-1.025641
158	0xbf827f8e	-1.0195177
159	0x4000d0f7	2.0127542
160	0xbefd8978	-0.49518943
161	0xbfb6c1ab	-1.4277853
162	0xc05334a1	-3.3000872
163	0xc02dc5bb	-2.7151935
164	0xc06aa514	-3.6663256
165	0x3d176449	0.036960874
166	0xbfae72ef	-1.3628825
167	0xc07d6a7e	-3.9596248
168	0xc0075204	-2.1143808
169	0xc02aae89	-2.6669028
170	0xc05350be	-3.301803
171	0xc084d86f	-4.15142
172	0xc013f5e8	-2.311884
173	0x3fa9c881	1.3264314
174	0x3d1649d5	0.036691505
175	0xc0492fa2	-3.1435323
176	0x3cba0ce6	0.022711229
177	0x4029a528	2.6507053
178	0x3f7cd68c	0.9876487
179	0xc05ff8a5	-3.499551
180	0xc053de4b	-3.3104427
181	0xbfeeb376	-1.8648517
182	0xbc7217e3	-0.014776203
183	0xc00dd85c	-2.2163305
184	0x3fbac2d3	1.4590706
185	0x3f0779f2	0.5292045
186	0xbca0e000	-0.019638062
187	0xc0302090	-2.7519875
188	0xbe972c62	-0.2952605
189	0xbf9eae62	-1.2396967
190	0xbf4f4b8b	-0.80974644
191	0x3cf43809	0.029811876
192	0xc099c83c	-4.8056927
193	0xbf9de0cd	-1.2334229
194	0x3b07fa85	0.0020748687
195	0xbfdd4a05	-1.7288214
196	0xc046794c	-3.1011534
197	0x3fd720c9	1.680688
198	0x404a1c51	3.1579783
199	0x3fcff069	1.6245242
200	0x3ce4916f	0.02790138
201	0x3f8fbab9	1.1228858
202	0x3f8c0e23	1.0941814
203	0x400a192e	2.1577868
204	0xbfd06036	-1.6279361
205	0xbfc5a49e	-1.5440862
206	0x3ff2180b	1.8913587
207	0x3f94521e	1.158756
208	0x3da05cfc	0.07830235
209	0xc02038e9	-2.5034735
210	0xbf2963e3	-0.6616804
211	0x3fc8e794	1.5695672
212	0xc01fabc8	-2.4948597
213	0x4091578b	4.5419364
214	0xbe0b2dc1	-0.13591672
215	0x3f8731d6	1.0562084
216	0xc0406091	-3.005894
217	0xbf8f4285	-1.1192175
218	0x3f6b87cd	0.9200409
219	0x4040051a	3.0003114
220	0xbff70cae	-1.9300745
221	0x3d193c1c	0.03741084
222	0x4033b0f1	2.8076746
223	0x3d4d7074	0.05015607
224	0xbfa2b09e	-1.2710149
225	0xbd2d3063	-0.042282473
226	0x3fe7ca1c	1.8108554
227	0x3c10d700	0.0088403225
228	0x3fc27e2c	1.5194755
229	0xbfe3f3d1	-1.7808782
230	0xbfa41d53	-1.2821449
231	0xbe9e78ce	-0.30951542
232	0x405b261d	3.4242013
233	0x3fa84967	1.3147401
234	0xbd37ed17	-0.04490384
235	0xbfef8c66	-1.8714721
236	0xbfb20895	-1.3908869
237	0x3c7e2ee9	0.015514114
238	0x3f85fd5d	1.0467945
239	0xc0426fb1	-3.038067
240	0xbf9cb421	-1.2242471
241	0xbc9ce69a	-0.019152928
242	0x3ca70344	0.0203873
243	0xbfd242f2	-1.642668
244	0xc0b91986	-5.7843657
245	0x3b050534	0.002029729
246	0xbf3bd43c	-0.7337072
247	0xbf1e8e18	-0.6193557
248	0xc037d665	-2.8724606
249	0xc0256ae9	-2.5846503
250	0x3f924fe8	1.1430635
251	0xc022e8f7	-2.545469
252	0x4009563b	2.145888
253	0x3f099491	0.5374232
254	0xc06f13e3	-3.7355888
255	0xbf2968f7	-0.6617579

net.4.bias f4 [4]
0	0x3e66a946	0.2252551
1	0x3fb02b9e	1.3763311
2	0x3ffe479a	1.9865601
3	0x3f52f75d	0.82408696
