lunar.pth (torch, 278900 bytes, 6 tensors)

net.0.weight f4 [256, 8]
1.0061307 -1.0563711 0.55030924 -0.826298 -0.31112528 0.36260903 -0.46085554 0.33183444
0.50404596 -2.002961 0.9668506 -0.42182678 -1.2564491 0.05395977 0.19458285 0.2652261
0.01701063 -1.5561401 0.8858393 -0.00950694 0.15006338 -0.1267451 -0.24985291 -0.5964898
0.007098859 0.21819618 0.046996497 -0.11880213 -0.15718415 1.0271028 -0.16422087 0.07713066
-0.98193246 -1.7974007 -0.50967145 0.62318814 1.1736104 0.022925835 -0.42100257 0.31191745
-0.12381918 -0.425978 0.41227624 -1.1417333 1.2371261 -0.052946206 0.33623853 -0.26518744
-0.65949976 -0.7570601 -0.99207574 -0.8891541 -0.9532884 -0.6661493 0.30849615 -0.14452176
0.41658643 -0.0129303625 0.4278271 -0.14742242 0.61296207 0.5323995 -0.43173444 -0.799167
-0.52491903 -1.2786022 1.8099014 1.6608082 -1.1912506 0.3139381 -0.023585342 0.057101596
0.760359 -0.059935335 0.27620852 0.8296291 0.23434876 -0.64055604 0.33166665 0.23191494
0.7675928 -3.4410841 0.17454737 1.379918 -0.15668383 -0.03547506 0.5332794 0.1329855
0.83393466 -1.1956078 0.5317174 -0.23396789 -0.6399859 -0.49727947 -0.4387994 -0.60785884
-0.5636638 0.31592083 -0.28846315 0.35415873 -0.2446484 -0.2230486 -0.7209966 -0.33009207
0.7377051 0.2236794 0.026496418 0.3729578 0.25545177 0.1644829 0.5028972 0.31106275
0.91722167 -1.7928174 0.29393122 -1.1489667 0.053101636 -0.18012448 0.008155598 0.07818918
-0.86712295 -0.33309108 -0.32028672 -0.46656755 -0.83637685 0.40155172 -0.09494059 0.11551651
-0.12569359 -0.6468242 -1.452436 0.7743982 0.17436835 0.4087797 0.22536951 0.13126561
-0.19854622 -0.5097411 -0.14524686 -0.4962922 -0.31085297 -0.62015843 -1.2649814 0.21585943
-0.13312039 -0.08842217 1.6512535 1.9888719 0.8796219 -0.23227635 0.41224384 0.17282553
-0.1272912 -2.2262435 -0.66150945 0.31570283 -0.78395873 -0.321256 -0.39196926 0.10242161
0.7024678 0.2802496 -0.389033 0.13387491 1.1583937 -0.071538255 -0.42715773 0.4778231
0.43111375 -0.038043186 0.28295597 0.57224846 -0.33434793 -1.4413522 0.04641563 0.13454904
-0.478588 -0.13637087 0.093461104 0.3124205 0.26638353 1.0807402 -1.0117077 0.02623927
-0.19618565 -0.12265507 -0.1398779 0.49144673 -0.66070783 -0.40344632 -0.15442508 0.28090143
-0.010951391 -3.7197294 -0.7029113 0.29235873 -0.5476099 -0.22951789 0.25601166 0.26611227
0.035347268 0.0005874287 -0.007677154 -0.010269585 -2.319859 0.062924795 -0.10877612 -0.053991273
1.2624099 -0.6526889 0.24249913 0.053478144 -0.38189697 0.013881329 0.023457 0.03318814
0.14801703 -1.4637692 -0.39245102 -0.29007423 1.2643945 0.16572966 -0.09177936 0.056786574
0.6306747 -0.92055166 0.76979417 -0.29063106 -0.49661317 0.8851982 -0.03581491 0.08675503
-0.14974856 0.003751196 0.082658105 0.036433578 -2.2129402 -0.2485243 0.21303257 0.011523495
-0.087626055 0.026232807 -0.4486903 0.100780316 0.13007845 -0.07170216 0.42410648 -0.10344383
0.10135187 -0.5813611 -1.0631564 1.1835066 -0.5537114 -0.007308391 0.16229482 -0.37081754
00000000: e4c8 803f 2b37 87bf 11e1 0c3f 4488 53bf
00000010: d04b 9fbe e4a7 b93e 42f5 ebbe 34e6 a93e
00000020: 2809 013f 8330 00c0 8583 773f aef9 d7be
00000030: 53d3 a0bf eb04 5d3d ba40 473e b7cb 873e
00000040: e059 8b3c 992f c7bf 5dc6 623f ffc2 1bbc
00000050: 37aa 193e 78c9 01be 71d9 7fbe 8eb3 18bf
00000060: 8c9d e83b d26e 5f3e 667f 403d 884e f3bd
00000070: e2f4 20be 1b78 833f 8429 28be aef6 9d3d
00000080: ed5f 7bbf 3a11 e6bf d479 02bf 4289 1f3f
00000090: de38 963f f6ce bb3c a68d d7be a5b3 9f3e
000000a0: e994 fdbd ca19 dabe df15 d33e 5124 92bf
000000b0: 265a 9e3f 1fde 58bd 7527 ac3e a6c6 87be
000000c0: fad4 28bf b1ce 41bf adf8 7dbf 9a9f 63bf
000000d0: b50a 74bf c388 2abf 35f3 9d3e 83fd 13be
000000e0: d14a d53e dfd9 53bc 270c db3e e7f5 16be
000000f0: 15eb 1c3f 554b 083f 4c0c ddbe 3596 4cbf
00000100: 1861 06bf 3da9 a3bf d9aa e73f 5d95 d43f
00000110: e67a 98bf 7fbc a03e 0c36 c1bc 5de3 693d
00000120: e3a6 423f c17e 75bd 346b 8d3e 9362 543f
00000130: 1ff9 6f3e 7bfb 23bf 36d0 a93e 1c7b 6d3e
00000140: f680 443f b93a 5cc0 8cbc 323e 27a1 b03f
00000150: ba71 20be 4c4e 11bd 0085 083f 5a2d 083e
00000160: be7c 553f ad09 99bf a21e 083f 4795 6fbe
00000170: 1ed6 23bf 6a9b febe 51aa e0be a39c 1bbf
00000180: 454c 10bf 60c0 a13e 71b1 93be 4b54 b53e
00000190: 1c85 7abe da66 64be 3c93 38bf d401 a9be
000001a0: 3eda 3c3f 360c 653e 040f d93c 53f4 be3e
000001b0: 93ca 823e 356e 283e dfbd 003f 9e43 9f3e
000001c0: 0acf 6a3f 0a7b e5bf 277e 963e 5711 93bf
000001d0: 1a81 593d 8d72 38be 0f9f 053c a621 a03d
000001e0: c5fb 5dbf ea8a aabe 9ffc a3be f1e1 eebe
000001f0: cb1c 56bf 3098 cd3e 3670 c2bd ec93 ec3d
00000200: d2b5 00be 4596 25bf 6ce9 b9bf f63e 463f
00000210: 9e8d 323e 934b d13e 44c7 663e 7e6a 063e
00000220: b34f 4bbe 657e 02bf 98bb 14be 031a febe
00000230: 1f28 9fbe b4c2 1ebf e9ea a1bf 410a 5d3e
00000240: b650 08be af16 b5bd 465c d33f 5b93 fe3f
00000250: e72e 613f dad9 6dbe a011 d33e 2df9 303e
00000260: a058 02be c67a 0ec0 af58 29bf cda3 a13e
00000270: 85b1 48bf ab7b a4be 32b0 c8be 6cc2 d13d
00000280: eed4 333f e07c 8f3e 552f c7be 8116 093e
00000290: 3f46 943f a682 92bd 6bb4 dabe 3ba5 f43e
000002a0: f1ba dc3e 2cd3 1bbd 9bdf 903e e07e 123f
000002b0: a72f abbe 3b7e b8bf 511e 3e3d 39c7 093e
000002c0: 7d09 f5be cea4 0bbe 8968 bf3d 94f5 9f3e
000002d0: 6c63 883e b255 8a3f a37f 81bf bdf3 d63c
000002e0: e4e4 48be 9532 fbbd 273c 0fbe e89e fb3e
000002f0: 2624 29bf 8490 cebe 9c21 1ebe 50d2 8f3e
00000300: 776d 33bc 0c10 6ec0 fff1 33bf 0bb0 953e
00000310: 2a30 0cbf bd06 6bbe f613 833e de3f 883e
00000320: 4cc8 103d acfd 193a a390 fbbb c341 28bc
00000330: 9278 14c0 b7de 803d 04c6 debd f425 5dbd
00000340: a696 a13f 9f16 27bf b151 783e e60b 5b3d
00000350: 0088 c3be 846e 633c e528 c03c 49f0 073d
00000360: c791 173e ca5c bbbf 57ef c8be 9c84 94be
00000370: aed7 a13f 09b5 293e d1f6 bbbd 0a99 683d
00000380: e673 213f 46a9 6bbf 3b11 453f 98cd 94be
00000390: 1544 febe 599c 623f a8b2 12bd 9fac b13d
000003a0: b057 19be a0d6 753b a748 a93d 603b 153d
000003b0: d0a0 0dc0 277d 7ebe 3625 5a3e 0bcd 3c3c
000003c0: 4a75 b3bd 2fe6 d63c bcba e5be e965 ce3d
000003d0: 4933 053e 95d8 92bd 7c24 d93e 5cda d3bd
000003e0: 9291 cf3d 15d4 14bf 8215 88bf 257d 973f
000003f0: 08c0 0dbf 3a7b efbb 9d30 263e ccdb bdbe

net.0.bias f4 [256]
-0.13087326 -0.50742674 0.431438 0.109284945 -0.559118 0.0086678555 -0.18644644 -0.2104997
0.07235616 -0.47646213 -0.42188993 -0.4999855 -0.54311585 -0.43275976 -0.32967323 0.0031220922
-0.28311867 -0.08467378 0.17492427 0.115394585 -0.41857836 -0.13425162 0.108629785 0.09002553
-0.52556604 -0.0066736834 -0.25967094 -0.4731328 -0.19751374 -0.0055109584 0.06862995 0.47122207
0.115997724 0.22334908 -0.5937952 -0.21154492 -0.7611693 0.24638623 -0.13715829 -0.52656555
-0.12671286 -0.67620397 0.1818844 0.08097165 0.35379562 0.13618132 0.20561987 -0.039267167
0.3492235 -0.45183602 0.1075211 0.18860288 -0.3980493 -0.12119204 0.045271643 -0.0068978877
-0.01582426 0.41324538 0.23700501 -0.47347477 0.13686956 -0.27513057 0.3913868 -0.013759908
-0.30862758 0.07723242 0.21041052 -0.07972312 -0.5261019 0.038568344 -0.052749164 0.36724445
0.059411336 0.10950048 0.14210185 0.016375158 -0.20511885 -0.5135052 0.06917857 0.12849376
-0.10443018 -0.42858362 -0.51509935 0.13331182 -0.038961034 -0.3755277 -0.2959787 -7.2529045e-05
-0.026406335 -0.2848768 -0.4296007 0.0675719 0.012965245 -0.20726134 -0.63124895 -0.052488394
0.33521137 0.05522611 0.38390666 0.0057970486 0.07405125 0.10899488 0.003992354 0.008437349
-0.047513545 -0.40103617 -0.037147168 0.5494676 0.33558357 0.15578201 -0.35516685 0.080437414
0.1639297 0.080320075 -0.019978264 -0.06767595 -0.48195896 -0.5169173 -0.34153947 0.06091221
0.37997302 0.20278032 -0.20337777 -0.97987133 -0.28379127 0.31477243 -0.4300725 -0.27421716
0.17902845 -0.2744805 -0.12639809 -0.35468337 -0.14305413 0.06771599 0.063346416 -0.13304654
-0.014259801 0.46491238 -0.50489545 0.19219425 -0.37751785 -0.25177717 -0.36118582 0.34280622
0.2448308 0.07116135 -0.41242275 -0.15808238 0.108793765 0.3701526 -0.14606042 -0.0021834183
-0.17459764 -0.07555455 -0.20604342 0.14672107 -0.06149871 0.005856413 0.12819062 -0.03593722
0.44233876 0.0037967872 -0.4296703 0.08384921 0.23982163 0.03976513 0.060505692 -0.5147988
-0.31359053 0.050543264 -0.20688887 -0.7624262 -0.31527558 -0.13567337 -0.07044823 0.18559536
0.25272548 0.19221967 0.35418615 -0.74462295 -0.03113271 -0.2011229 -0.10778305 -0.007451648
0.25470698 -0.42362943 -0.43803218 -0.3948611 0.4683271 -0.24302077 -0.41376182 -0.050909422
-0.21474048 -0.7367083 -0.69965386 -0.3507402 -0.012154565 -0.083824836 -0.47195497 0.23230892
-0.40413502 -0.12827061 0.16732094 -0.60419893 -0.6362101 0.007001133 -0.5103967 0.6717789
0.12770286 -0.42020717 0.074444264 -0.72185236 0.027624803 0.08178529 -0.4043102 0.28464046
0.296479 0.21828361 -0.07622289 -0.34923068 -0.06821041 0.16610709 -0.06840368 0.29311284
-0.5425242 0.3344942 -0.06828174 0.3174292 -0.23067172 -0.45952618 0.07748974 0.17643262
0.12939088 -0.32831556 -0.1871694 -0.1988883 -0.433494 0.34103763 0.021691391 -0.28228095
0.2962041 0.16641416 0.014556963 0.12590843 0.21181267 -0.36499253 0.019230897 0.06739652
-0.2829444 -0.1188107 0.11897875 -0.44518965 -0.37963977 0.10425966 -0.05746355 -0.0339028
00000000: a403 06be b8e6 01bf 71e5 dc3e c9d0 df3d
00000010: 5b22 0fbf 9f03 0e3c d1eb 3ebe 3c8d 57be
00000020: 772f 943d d8f2 f3be f501 d8be 19fe ffbe
00000030: a409 0bbf b092 ddbe eeca a8be 049c 4c3b
00000040: eef4 90be 7269 adbd 591f 333e ff53 ec3d
00000050: e74f d6be 4279 09be 4b79 de3d 4e5f b83d
00000060: 7f8b 06bf eaae dabb 97f3 84be 763e f2be
00000070: 0b41 4abe 4595 b4bb dc8d 8c3d 0544 f13e
00000080: 3790 ed3d 9fb5 643e f602 18bf 3b9f 58be
00000090: fedb 42bf ac4c 7c3e 3973 0cbe 00cd 06bf
000000a0: 04c1 01be b41b 2dbf e73f 3a3e 77d4 a53d
000000b0: b324 b53e 1e73 0b3e 048e 523e 9cd6 20bd
000000c0: 6ccd b23e 0d57 e7be 0634 dc3d 1d21 413e
000000d0: 1ecd cbbe 8833 f8bd c26e 393d ad07 e2bb
000000e0: e1a1 81bc e694 d33e 71b1 723e 496b f2be
000000f0: 8927 0c3e eadd 8cbe da63 c83e 3d71 61bc
00000100: 6f04 9ebe 082c 9e3d db75 573e e045 a3bd
00000110: 9dae 06bf d7f9 1d3d 820f 58bd 7707 bc3e
00000120: 4d59 733d ca41 e03d 2683 113e 3225 863c
00000130: ad0a 52be 1475 03bf 7ead 8d3d de93 033e
00000140: 7ddf d5bd 506f dbbe 8ddd 03bf e582 083e
00000150: 9b95 1fbd 2b45 c0be 858a 97be bc1a 98b8
00000160: 1952 d8bc 5fdb 91be 9ff4 dbbe 2363 8a3d
00000170: 2e6c 543c 513c 54be 8899 21bf 12fe 56bd
00000180: d3a0 ab3e c634 623d 6a8f c43e 2bf5 bd3b
00000190: 2fa8 973d b538 df3d 4bd2 823b cf3c 0a3c
000001a0: 909d 42bd 9d54 cdbe a127 18bd e9a9 0c3f
000001b0: 9cd1 ab3e 5285 1f3e 6ed8 b5be 5fbc a43d
000001c0: 30dd 273e da7e a43d 75a9 a3bc b099 8abd
000001d0: 53c3 f6be b154 04bf 43de aebe 157f 793d
000001e0: d38b c23e a5a5 4f3e 4342 50be d9d8 7abf
000001f0: 174d 91be da29 a13e 7632 dcbe 3166 8cbe
00000200: 3c53 373e b588 8cbe 806e 01be 0f99 b5be
00000210: c87c 12be aeae 8a3d c4bb 813d 5a3d 08be
00000220: f1a1 69bc ff08 ee3e d440 01bf 92ce 443e
00000230: 054a c1be f0e8 80be 59ed b8be 4c84 af3e
00000240: edb4 7a3e 0bbd 913d 1329 d3be 59e0 21be
00000250: 44cf de3d a484 bd3e dd90 15be ae17 0fbb
00000260: b9c9 32be 58bc 9abd 0cfd 52be 0c3e 163e
00000270: 12e6 7bbd 27e7 bf3b 6744 033e e832 13bd
00000280: 3a7a e23e 85d3 783b bffd dbbe 22b9 ab3d
00000290: cd93 753e c3e0 223d d1d4 773d dbc9 03bf
000002a0: f08e a0be 7406 4f3d adda 53be 5d2e 43bf
000002b0: cd6b a1be f6ed 0abe 2947 90bd b60c 3e3e
000002c0: 3c65 813e 3cd5 443e e357 b53e 9c9f 3ebf
000002d0: 060a ffbc 29f3 4dbe 5cbd dcbd f42c f4bb
000002e0: f468 823e f5e5 d8be c145 e0be 3c2b cabe
000002f0: 92c8 ef3e 70da 78be 97d8 d3be 6686 50bd
00000300: eee4 5bbe ea98 3cbf 841c 33bf 3894 b3be
00000310: f123 47bc 5bac abbd 15a4 f1be 64e2 6d3e
00000320: c9ea cebe 5f59 03be 2e56 2b3e c8ac 1abf
00000330: aade 22bf c369 e53b 5ca9 02bf b4f9 2b3f
00000340: 8ac4 023e 6525 d7be 3c76 983d 51cb 38bf
00000350: 694d e23c 0c7f a73d bf01 cfbe 65bc 913e
00000360: 18cc 973e bd85 5f3e bf1a 9cbd 5dce b2be
00000370: e6b1 8bbd fa17 2a3e 3b17 8cbd e312 963e
00000380: dee2 0abf d342 ab3e 4cd7 8bbd 1586 a23e
00000390: 3535 6cbe 0447 ebbe f1b2 9e3d c1aa 343e
000003a0: 0b7f 043e fa18 a8be 56a9 3fbe 60a9 4bbe
000003b0: edf2 ddbe 7c9c ae3e 25b2 b13c 2187 90be
000003c0: 10a8 973e 7968 2a3e 5480 6e3c 24ee 003e
000003d0: 6ce5 583e 4de0 babe 1d8a 9d3c 3007 8a3d
000003e0: 17de 90be 0653 f3bd 22ab f33d e6ef e3be
000003f0: 2560 c2be 1786 d53d e65e 6bbd aadd 0abd

net.2.weight f4 [256, 256]
0.00238513 -0.06741601 -0.037029985 -0.06867408 -0.041178465 -0.03168142 0.011854918 0.048563953
-0.034820095 -0.07599226 -0.0409454 -0.006777942 -0.05808189 0.005513264 -0.06179318 -0.019197132
-0.032445006 -0.0047237556 -0.011435259 0.034008082 0.06761839 0.033944044 0.041864112 -0.073959835
-0.02689103 -0.01956964 -0.020997567 -0.06459491 0.011466591 -0.035380602 -0.010721744 -0.025130099
-0.052453287 -0.08459673 0.0470296 0.003159307 0.058429964 0.034489535 0.0148746865 -0.037072703
0.026903294 0.048745885 -0.07146389 0.05382358 -0.034514625 -0.07806575 0.0075217895 -0.09649738
-0.026014501 -0.048563298 0.006854098 -0.02597058 -0.029948702 -0.067300774 -0.07150022 -0.067949004
-0.056612194 0.00834977 0.00029059264 -0.043767057 0.028223783 0.012459809 -0.0052361595 -0.0018208221
-0.026305862 0.0017336427 -0.029676663 0.022375466 0.007821099 -0.04767638 -0.09281265 -0.044969104
-0.07779075 -0.043771777 0.050077636 0.020431787 -0.03868909 0.05116251 -0.091252714 -0.0712904
-0.08463348 0.008592906 0.04143913 -0.093368016 -0.04778149 0.05817145 -0.04337609 0.012107249
-0.05765208 0.032598898 -0.018490057 -0.08988677 -0.08786902 -0.0050464394 -0.03892242 -0.031153858
-0.087193206 -0.051006038 0.034766708 -0.050634358 0.029476319 -0.017692938 0.02349702 0.017980935
-0.011717657 0.0105236685 -0.031583413 -0.056668214 0.0062207803 0.024729986 -0.04170023 -0.056716815
-0.032457583 -0.052977204 -0.078479744 -0.08427417 0.01599969 -0.08534656 -0.0451544 -0.03801153
0.016050845 -0.03727892 -0.0035342749 -0.055492237 -0.0029949653 -0.04696626 0.010036701 -0.0731126
0.016770387 -0.026468452 0.008005559 -0.06969146 -0.039654307 -0.015403707 -0.05882488 0.006849645
-0.0074633528 -0.011153872 0.039604038 -0.0075540505 0.011422514 -0.044526037 -0.056454163 -0.0042445282
-0.013929006 0.0072745467 -0.00041939458 0.050688785 0.051259793 -0.057585675 -0.07927682 -0.044511974
-0.057952527 -0.027489165 -0.07177448 -0.023522371 -0.05264123 -0.020202251 -0.017753433 -0.029170629
0.0022620484 -0.00571839 0.022056064 0.04204542 -0.05286129 -0.068328194 -0.04375151 0.05514594
0.014412782 -0.04605722 -0.042924877 0.03265792 0.04822953 0.046398 -0.02756759 -0.0076932693
0.036505632 -0.075123295 -0.06268367 0.04934934 -0.028106593 0.008402643 0.0013572201 0.03116174
-0.05733101 0.02655004 -0.0018334456 -0.06109964 -0.035251733 -0.05961071 -0.057764176 -0.013888014
-0.062088158 0.026234465 0.04688192 -0.024513088 -0.05346446 -0.046851896 0.0019068581 0.038505644
-0.009636459 0.04758521 0.0029693246 0.013247242 -0.03567202 -0.033582773 0.04388672 0.01147117
0.016051978 0.0055198055 -0.014285321 0.009359496 -0.08358287 -0.04005112 -0.012403794 -0.0667666
0.01483857 0.0013796609 -0.06871645 0.036695573 0.00411072 -0.07017072 -0.06626964 -0.04873508
0.0033243522 -0.031956464 -0.08804693 0.018268192 -0.009958743 0.033060662 -0.0042959973 -0.019371927
-0.011694865 -0.047588505 -0.056792125 -0.042744897 -0.0047193677 -0.085979015 -0.0074856584 0.010013203
-0.039325558 -0.017760258 -0.022939384 0.01871976 -0.002357833 0.05063127 -0.073530644 -0.07420264
-0.040699504 -0.050567664 -0.003726893 -0.031906884 0.022927843 -0.04447759 0.014942697 0.003468316
00000000: d74f 1c3b 6811 8abd c1ac 17bd ffa4 8cbd
00000010: c0aa 28bd 60c4 01bd 213b 423c ffea 463d
00000020: 849f 0ebd d4a1 9bbd 5db6 27bd 8019 debb
00000030: 47e7 6dbd 9ca8 b43b d81a 7dbd 4e43 9dbc
00000040: 0ee5 04bd bcc9 9abb f45a 3bbc 0f4c 0b3d
00000050: 837b 8a3d e908 0b3d b479 2b3d 4178 97bd
00000060: 944a dcbc 8250 a0bc 1703 acbc 564a 84bd
00000070: 5ede 3b3c 40eb 10bd 41aa 2fbc a3dd cdbc
00000080: 42d9 56bd 0d41 adbd 1ca2 403d 600c 4f3b
00000090: 4254 6f3d e644 0d3d f5b4 733c 8cd9 17bd
000000a0: 4c64 dc3c c4a9 473d a95b 92bd 1d76 5c3d
000000b0: 355f 0dbd f0e0 9fbd 5879 f63b 6ba0 c5bd
000000c0: 5d1c d5bc 4fea 46bd 5798 e03b 41c0 d4bc
000000d0: fb56 f5bc fdd4 89bd b56e 92bd d928 8bbd
000000e0: 30e2 67bd 79cd 083c af5a 9839 1645 33bd
000000f0: 9035 e73c 3a24 4c3c 1794 abbb a7a8 eeba
00000100: 647f d7bc 653b e33a 791c f3bc c14c b73c
00000110: 1124 003c 4f48 43bd 8f14 bebd 8631 38bd
00000120: c250 9fbd 094a 33bd 351e 4d3d 9060 a73c
00000130: 7478 1ebd c88f 513d b4e2 babd b400 92bd
00000140: 5154 adbd 43c9 0c3c 14bc 293d bb37 bfbd
00000150: 86b6 43bd 3045 6e3d 20ab 31bd 7c5d 463c
00000160: 9624 6cbd 6c86 053d 7678 97bc 8e16 b8bd
00000170: acf4 b3bd 9a5c a5bb 1e6d 1fbd 6036 ffbc
00000180: 5a92 b2bd b5eb 50bd 8967 0e3d f965 4fbd
00000190: 5278 f13c c8f0 90bc d37c c03c c14c 933c
000001a0: 6afb 3fbc 776b 2c3c 9c5d 01bd ee1c 68bd
000001b0: b0d7 cb3b 8a96 ca3c dccd 2abd e44f 68bd
000001c0: 3ef2 04bd a0fe 58bd fdb9 a0bd f097 acbd
000001d0: c811 833c 2dca aebd d2f3 38bd fab1 1bbd
000001e0: 107d 833c c8b1 18bd 4b9f 67bb d44b 63bd
000001f0: 2e47 44bb b15f 40bd fa70 243c 0fbc 95bd
00000200: 0d62 893c 5ed4 d8bc c029 033c 65ba 8ebd
00000210: 8e6c 22bd d45f 7cbc 5bf2 70bd fd72 e03b
00000220: 248f f4bb bbbe 36bc d837 223d f887 f7bb
00000230: 7f25 3b3c ef60 36bd 7b3c 67bd af15 8bbb
00000240: 7c36 64bc 525f ee3b 30e2 dbb9 0b9f 4f3d
00000250: caf5 513d f5de 6bbd e35b a2bd 3052 36bd
00000260: a15f 6dbd f530 e1bc 80fe 92bd fdb1 c0bc
00000270: 559e 57bd 317f a5bc a66f 91bc 3ef7 eebc
00000280: e03e 143b 5561 bbbb ebae b43c d137 2c3d
00000290: 1485 58bd a7ef 8bbd c934 33bd b6e0 613d
000002a0: 9723 6c3c 7fa6 3cbd ffd1 2fbd 50c4 053d
000002b0: 548c 453d d40b 3e3d 6dd5 e1bc d217 fcbb
000002c0: ee86 153d 3eda 99bd 4c60 80bd 8922 4a3d
000002d0: cc3f e6bc 3dab 093c c0e4 b13a e846 ff3c
000002e0: ecd3 6abd 787f d93c 3a50 f0ba 9e43 7abd
000002f0: 1f64 10bd 5c2a 74bd 219a 6cbd 8d8a 63bc
00000300: 2750 7ebd a9e9 d63c 4207 403d accf c8bc
00000310: 8dfd 5abd c6e7 3fbd 8aef f93a 18b8 1d3d
00000320: 3de2 1dbc b6e8 423d 0099 423b f60a 593c
00000330: d31c 12bd 178e 09bd 90c2 333d 93f1 3b3c
00000340: 707f 833c 7cdf b43b fb0c 6abc 9258 193c
00000350: 7f2d abbd a50c 24bd 4839 4bbc edbc 88bd
00000360: 791d 733c bdd5 b43a 36bb 8cbd 194e 163d
00000370: 38b3 863b abb5 8fbd 61b8 87bd 6f9e 47bd
00000380: 60dd 593b c8e4 02bd f351 b4bd 2da7 953c
00000390: ff29 23bc 9e6a 073d 70c5 8cbb e0b1 9ebc
000003a0: d29b 3fbc 2aec 42bd dc9e 68bd 4615 2fbd
000003b0: eda4 9abb c415 b0bd 414a f5bb 6b0e 243c
000003c0: d613 21bd f67d 91bc 60eb bbbc 2f5a 993c
000003d0: e085 1abb bc62 4f3d 3c97 96bd 8ef7 97bd
000003e0: 86b4 26bd 0a20 4fbd e43e 74bb cbb0 02bd
000003f0: 2cd3 bb3c 222e 36bd 37d2 743c b04c 633b

net.2.bias f4 [256]
-0.0013804457 -0.0952886 -0.058740135 0.20420443 -0.10017134 -0.026351027 0.29335046 0.32353014
-0.06706171 -0.023828585 -0.04680186 0.001565298 -0.06540712 -0.05859251 0.007554659 -0.027105602
0.15860827 -0.03766111 0.18299398 0.022861691 -0.11482452 0.16427046 0.17691027 0.004876984
-0.15238842 0.07201166 -0.012938051 -0.18462153 -0.2384331 -0.048003595 0.15836789 -0.13841906
-0.061830115 -0.099265255 0.16909435 0.10308816 0.1764797 0.119331226 -0.29307795 0.22976708
-0.03790726 0.18916671 -0.028005553 0.124372244 0.249203 -0.609377 0.17940083 -0.17787282
-0.0013257551 0.016757488 0.03222716 0.08268646 -0.05525552 -0.13621002 0.32215723 0.17323352
-0.37429667 0.08810463 -0.009542476 0.07903693 -0.08761739 -0.03663258 -0.06251539 0.17131864
-0.14215794 0.26254576 0.06375928 -0.2456067 -0.09752498 0.01724772 -0.058750503 0.047045317
0.24488707 -0.06722228 0.111101285 -0.080051765 -0.076145716 -0.051693343 -0.051152844 0.057648957
-0.068790466 -0.06443957 -0.0018979545 -0.0044286516 0.06471231 0.11493209 0.096509136 0.10779589
0.077144295 -0.21768858 0.029283863 0.018978896 -0.032716244 -0.32535473 0.009477011 0.19608355
-0.034747764 0.29654607 0.14701998 0.0018820044 0.085677154 0.22515021 0.16130616 -0.052990537
0.17569175 0.03408864 0.29590818 -0.09365684 0.33633813 -0.024129556 -0.14017446 0.004803703
0.023192063 -0.0702484 -0.07597251 -0.0827378 0.008073808 0.11224209 0.21602887 -0.10774412
0.1729193 -0.6082023 0.1004819 0.19714914 0.27536607 0.027256023 -0.04713556 -0.2834192
0.19298412 -0.16652258 0.11521653 -0.05139227 -0.1045019 -0.0050833155 -0.027771749 0.22349738
0.08104691 -0.06971686 -0.17759733 -0.54369664 -0.082293555 -0.06615247 0.021898216 0.002904178
0.09239565 0.0051601934 -0.07885358 0.14620228 0.15144354 0.06379852 0.042942714 0.051473357
0.3893138 -0.027726788 -0.12566392 -0.16065088 -0.11525871 -0.010012038 0.07978452 -0.0474217
-0.09365458 0.12810013 -0.025487142 -0.08339272 0.217219 -0.035634816 0.108727366 0.21539167
0.16158314 0.08788284 0.18368065 0.054410487 -0.0018217253 0.2544396 -0.1696788 0.16476326
0.05824145 -0.23301652 0.08341685 0.06373556 0.24353383 -0.056626063 -0.037768174 0.17281646
-0.055437393 0.016001403 0.051154066 -0.053559557 0.10275447 0.29640093 -0.24616279 0.16212422
-0.22619705 0.0031680278 -0.07259086 -0.06488787 0.36038333 -0.097280614 0.08935105 0.020632189
0.024024459 -0.029720487 0.18078683 -0.19067727 0.28487512 -0.019358326 -0.019106466 0.22560832
-0.0038833092 0.13056697 -0.05045455 0.009063669 -0.10650481 0.32620052 0.08453369 -0.014322576
-0.014857751 -0.12787864 0.12495321 -0.10991738 0.04962094 -0.004837436 -0.17589857 -0.07518477
-0.053448185 -0.2117432 0.10494744 -0.2506906 -0.026418904 -0.0017385699 -0.16268723 -0.36525646
0.1036448 -0.17529266 0.0475806 0.006509904 -0.17414528 -0.044871774 0.1811409 -0.06034747
0.19725621 0.004996473 -0.122532025 -0.029320227 -0.024825346 0.15822051 -0.18703215 0.09688534
-0.24517429 -0.04003238 0.03053908 0.15046488 -0.15143716 0.07072263 0.018966382 -0.022169
00000000: 12f0 b4ba ab26 c3bd 7f99 70bd f71a 513e
00000010: a226 cdbd 1cde d7bc 0832 963e bea5 a53e
00000020: a657 89bd 2a34 c3bc 4fb3 3fbd af2a cd3a
00000030: 2bf4 85bd b3fe 6fbd 138d f73b 910c debc
00000040: 356a 223e 8942 1abd c662 3b3e 7148 bb3c
00000050: 1e29 ebbd 8436 283e f727 353e 1bcf 9f3b
00000060: b60b 1cbe d97a 933d 1efa 53bc 6d0d 3dbe
00000070: ce27 74be 6b9f 44bd 312b 223e babd 0dbe
00000080: 9341 7dbd 954b cbbd 1227 2d3e e31f d33d
00000090: 18b7 343e ee63 f43d 500e 96be 1048 6b3e
000000a0: a544 1bbd ebb4 413e e76b e5bc e0b6 fe3d
000000b0: 122f 7f3e 2200 1cbf dab4 373e 4b24 36be
000000c0: f6c4 adba 0047 893c a000 043d 8557 a93d
000000d0: 9d53 62bd a47a 0bbe cbf1 a43e 2164 313e
000000e0: d0a3 bfbe 3370 b43d 0c58 1cbc 1dde a13d
000000f0: bf70 b3bd 0b0c 16bd 1208 80bd 276e 2f3e
00000100: da91 11be 666c 863e 3a94 823d 5380 7bbe
00000110: 2dbb c7bd 174b 8d3c 5ea4 70bd 97b2 403d
00000120: adc3 7a3e d6ab 89bd 1289 e33d 2ef2 a3bd
00000130: 49f2 9bbd 66bc 53bd a585 51bd 5021 6c3d
00000140: 04e2 8cbd e5f8 83bd c9c4 f8ba 391e 91bb
00000150: e387 843d 8461 eb3d 95a6 c53d 17c4 dc3d
00000160: d4fd 9d3d c1e9 5ebe b6e4 ef3c a179 9b3c
00000170: 7801 06bd e594 a6be 7745 1b3c 20ca 483e
00000180: ac53 0ebd e3d4 973e 688c 163e 97ad f63a
00000190: 8177 af3d c78d 663e 712d 253e 9b0c 59bd
000001a0: 8ae8 333e 88a0 0b3d 4781 973e 28cf bfbd
000001b0: 8334 ac3e 59ab c5bc e589 0fbe 6268 9d3b
000001c0: 48fd bd3c 65de 8fbd 7a97 9bbd 7072 a9bd
000001d0: 0148 043c 2edf e53d ac36 5d3e f3a8 dcbd
000001e0: c211 313e 25b3 1bbf 74c9 cd3d 77e1 493e
000001f0: c8fc 8c3e 0648 df3c 3811 41bd 521c 91be
00000200: a19d 453e e584 2abe a5f6 eb3d b380 52bd
00000210: 1805 d6bd f191 a6bb 9481 e3bc 7fdc 643e
00000220: ecfb a53d b7c7 8ebd 13dc 35be b42f 0bbf
00000230: 8689 a8bd f27a 87bd e363 b33c 0654 3e3b
00000240: ee39 bd3d d716 a93b fc7d a1bd 0db6 153e
00000250: 0414 1b3e cca8 823d b3e4 2f3d bad5 523d
00000260: 2354 c73e 4a23 e3bc 0bae 00be aa81 24be
00000270: c20c ecbd 8809 24bc 1166 a33d 423d 42bd
00000280: f9cd bfbd ae2c 033e 69ca d0bc cdc9 aabd
00000290: a86e 5e3e d0f5 11bd 74ac de3d a28f 5c3e
000002a0: 0d76 253e ebfb b33d c816 3c3e 88dd 5e3d
000002b0: f5c6 eeba e845 823e 48c0 2dbe b3b7 283e
000002c0: 968e 6e3d e29b 6ebe 74d6 aa3d ca87 823d
000002d0: ef60 793e bbf0 67bd cdb2 1abd ccf6 303e
000002e0: 5212 63bd 6015 833c ed86 513d 4461 5bbd
000002f0: f070 d23d ddc1 973e 1912 7cbe e403 263e
00000300: 33a0 67be b09e 4f3b 84aa 94bd eee3 84bd
00000310: 2a84 b83e 0f3b c7bd affd b63d d604 a93c
00000320: f1ce c43c 6178 f3bc 2f20 393e e740 43be
00000330: 27db 913e 5a95 9ebc 2a85 9cbc de05 673e
00000340: 1e7f 7ebb 59b3 053e 6ea9 4ebd c87f 143c
00000350: 321f dabd c103 a73e 0020 ad3d 3da9 6abc
00000360: ed6d 73bc 9ef2 02be 78e7 ff3d 5d1c e1bd
00000370: 543f 4b3d 5b83 9ebb c11e 34be 79fa 99bd
00000380: 7cec 5abd 36d3 58be afee d63d 855a 80be
00000390: 756c d8bc bae0 e3ba 7b97 26be e502 bbbe
000003a0: ba43 d43d eb7f 33be e0e3 423d 0851 d53b
000003b0: 2453 32be 77cb 37bd 007d 393e e92e 77bd
000003c0: 88fd 493e 74b9 a33b 12f2 fabd f930 f0bc
000003d0: 865e cbbc 8f04 223e 5b85 3fbe d26b c63d
000003e0: f80e 7bbe fef8 23bd 182d fa3c 7713 1a3e
000003f0: 5812 1bbe 07d7 903d 635f 9b3c c39b b5bc

net.4.weight f4 [4, 256]
0.020995874 0.054292224 0.010011554 -0.77742445 1.778093 0.0039933627 -0.27964962 -1.0954229
0.010557657 -1.4038723 -0.012450456 -0.015073597 -0.07190814 -0.048087463 0.020429146 0.024578042
-0.99440414 0.033352032 -0.8443038 0.8117302 2.405413 1.1911268 1.1155268 -0.051830463
-0.27937093 0.6713158 0.54682475 -0.9066176 1.6316042 0.010405865 0.9383258 0.26163638
-0.04385047 0.12748295 -1.4768801 0.34231976 0.5704552 -0.7545958 0.5296336 -2.4496992
-0.55886793 -1.2802846 0.0062916274 -1.2730682 -0.8084173 0.92466867 -0.37830898 1.0006229
0.048056573 -0.28714007 0.023462778 0.106147945 -0.9058712 0.8122261 0.7990716 -0.68399787
1.1730514 1.4789673 -0.04160471 1.0026927 0.029868849 -0.0041694012 0.004198671 -0.011289068
-0.7869492 0.70264715 -1.4820195 -0.5218355 -0.012460337 -0.15639739 -0.8046163 0.3449316
-0.8269251 -0.009128464 0.36919388 -0.006665334 -0.0015618409 0.82827306 0.012283221 -0.6790854
-0.056750305 0.08388627 -0.056908213 -0.013102471 -0.08087303 -1.4061636 -1.0225217 -0.5586302
-0.3458422 -0.2404291 1.0496099 -0.1241012 0.05491064 -1.5986973 -0.9468301 0.50197965
0.007819975 0.70345354 -0.29400426 -0.0010229821 -0.7236831 -2.2359746 -1.8308431 0.17416683
0.86771846 0.9460472 -0.7254069 0.00714026 0.7938992 -0.001523979 0.8038618 -1.5837374
-0.7446332 0.030843787 -0.033806242 0.014955908 0.040362366 -0.32151353 0.89005697 0.021168629
0.4743948 1.9793879 -2.1190245 -0.044341158 -0.7775069 -1.2364503 0.02090323 0.22047135
0.41987604 -0.33647397 0.20274813 0.013028071 -0.8650533 0.0072078146 0.059203885 -1.2359387
-0.7567516 0.7815054 -0.7486031 2.114312 -0.056191668 -0.029214496 1.1777813 -0.04291401
1.2022331 0.042356916 0.013444374 0.21152602 -0.22037163 0.38366017 0.03902865 -0.002397586
0.70319843 -0.05428973 -0.07637515 -0.6766276 -0.51418513 0.028234046 -0.36202732 -0.3040561
0.04551365 0.17793761 0.021955634 -1.3138089 1.2180345 -0.0044092634 0.4769899 -0.09590027
-0.4550556 0.09637493 0.69898635 -0.22157179 0.041541226 0.35235313 -0.47874293 -0.24985321
0.82088935 -0.810564 -0.33734643 1.3354206 1.4758269 -0.065291025 -0.04512894 1.0770591
-0.75493985 -1.4176608 0.78636944 -0.029898128 0.83684975 0.6693974 -0.4533143 -0.41789106
-0.71029043 0.017105594 -1.0905619 0.1097936 0.57739 -0.0036219335 -0.41720328 0.07899287
1.5581115 0.0095096305 0.021859199 -0.3664994 0.81186104 -0.00052879436 -0.020362686 0.7107016
0.050046667 0.9758113 0.014691922 -0.0601277 0.9298132 -0.70794034 -0.349069 -0.014651498
0.019494053 -0.86798215 0.09692226 0.7720769 1.1090779 0.8091635 1.5044308 0.024172364
-0.039372087 0.35054895 0.03508207 -0.8801985 -0.0058551435 0.56957996 0.10984782 2.0040576
-3.172833 -1.0686352 -0.031352956 -0.000374523 -0.851442 -1.0305632 0.74076456 0.043067534
-0.93494093 -0.017683327 -0.011942813 -0.005634317 0.043171097 0.514963 0.90016544 0.012667759
-0.4205858 0.025487361 0.15948835 -0.9345229 -0.43442068 0.4687778 -0.033929974 -0.00825121
00000000: 8aff ab3c 8661 5e3d 8007 243c 4a05 47bf
00000010: 8d98 e33f c1da 823b 3c2e 8fbe d136 8cbf
00000020: 06fa 2c3c 16b2 b3bf fffc 4bbc 40f7 76bc
00000030: 9344 93bd 5cf7 44bd 065b a73c e457 c93c
00000040: 4591 7ebf 249c 083d 4b24 58bf 8dcd 4f3f
00000050: 49f2 1940 d876 983f 95c9 8e3f 2e4c 54bd
00000060: b509 8fbe 5adb 2b3f b5fc 0b3f 1718 68bf
00000070: 68d8 d03f 5c7d 2a3c 1f36 703f 34f5 853e
00000080: 8d9c 33bd e48a 023e 680a bdbf 8944 af3e
00000090: 5a09 123f 312d 41bf 1196 073f dfc7 1cc0
000000a0: f811 0fbf 5ee0 a3bf ff29 ce3b e6f3 a2bf
000000b0: 70f4 4ebf 16b7 6c3f b7b1 c1be 6914 803f
000000c0: f8d6 443d 0604 93be 0335 c03c 1864 d93d
000000d0: 2de7 67bf 0dee 4f3f f58f 4c3f 7c1a 2fbf
000000e0: 8c26 963f cd4e bd3f b369 2abd 3c58 803f
000000f0: 84af f43c 799f 88bb 0195 893b c8f5 38bc
00000100: 8175 49bf afe0 333f d1b2 bdbf 0397 05bf
00000110: 7126 4cbc a326 20be 55fb 4dbf e09a b03e
00000120: 5db1 53bf 8e8f 15bc fb06 bd3e e068 dabb
00000130: afb6 ccba b409 543f 903f 493c 8ad8 2dbf
00000140: 0273 68bd 91cc ab3d 9618 69bd bfab 56bc
00000150: c2a0 a5bd 2bfd b3bf fee1 82bf 6402 0fbf
00000160: 3b12 b1be 0c33 76be 9e59 863f c528 febd
00000170: fbe9 603d 1da2 ccbf 7563 72bf bd81 003f
00000180: 5a1f 003c 8815 343f ba87 96be 9515 86ba
00000190: 4c43 39bf 351a 0fc0 1159 eabf ca58 323e
000001a0: cc22 5e3f 2630 723f 44b4 39bf d8f8 e93b
000001b0: fa3c 4b3f 40c0 c7ba e3c9 4d3f e8b7 cabf
000001c0: 48a0 3ebf 1cac fc3c 6a78 0abd a009 753c
000001d0: 0253 253d 6c9d a4be c6da 633f d569 ad3c
000001e0: e0e3 f23e 955c fd3f 199e 07c0 139f 35bd
000001f0: b10a 47bf 0144 9ebf 403d ab3c 3ec3 613e
00000200: fef9 d63e 5146 acbe 359d 4f3e b173 553c
00000210: 2274 5dbf 882f ec3b c67f 723d 3d33 9ebf
00000220: 79ba 41bf bd10 483f 74a4 3fbf e350 0740
00000230: 3c29 66bd 3d53 efbc 8ac1 963f 9ac6 2fbd
00000240: c6e2 993f 727e 2d3d cb45 5c3c 479a 583e
00000250: 1aa9 61be 1b6f c43e 81dc 1f3d d120 1dbb
00000260: d004 343f e85e 5ebd 936a 9cbd 7737 2dbf
00000270: a3a1 03bf 164b e73c a55b b9be 3ead 9bbe
00000280: 856c 3a3d 4735 363e 4ddc b33c e42a a8bf
00000290: 8ee8 9b3f 957b 90bb 0538 f43e 5c67 c4bd
000002a0: 0cfd e8be 3860 c53d c5f0 323f b7e3 62be
000002b0: 2227 2a3d a167 b43e cb1d f5be 85d9 7fbe
000002c0: ce25 523f 1f81 4fbf acb8 acbe 10ef aa3f
000002d0: e5e7 bc3f 4db7 85bd 20d9 38bd 13dd 893f
000002e0: bd43 41bf e975 b5bf 824f 493f ebec f4bc
000002f0: c93b 563f a15d 2b3f d018 e8be d1f5 d5be
00000300: 98d5 35bf 0821 8c3c 8897 8bbf 78db e03d
00000310: d5cf 133f f65d 6dbb ab9b d5be 04c7 a13d
00000320: 3370 c73f 48ce 1b3c 1012 b33c cfa5 bbbe
00000330: 20d6 4f3f ca9e 0aba a6cf a6bc 8af0 353f
00000340: bcfd 4c3d c5ce 793f 63b6 703c 7748 76bd
00000350: 3d08 6e3f 943b 35bf 2cb9 b2be d60c 70bc
00000360: feb1 9f3c 1434 5ebf 2e7f c63d d5a6 453f
00000370: 44f6 8d3f 5725 4f3f 3091 c03f 1f05 c63c
00000380: a044 21bd 277b b33e 37b2 0f3d b054 61bf
00000390: 81dc bfbb fecf 113f e5f7 e03d 7b42 0040
000003a0: b20f 4bc0 0ac9 88bf f56b 00bd a05b c4b9
000003b0: 1af8 59bf 7fe9 83bf bfa2 3d3f 9567 303d
000003c0: 4a58 6fbf a0dc 90bc caab 43bc 14a0 b8bb
000003d0: 2dd4 303d 9dd4 033f 3e71 663f 6f8c 4f3c
000003e0: 0657 d7be dfca d03c ea50 233e e53c 6fbf
000003f0: 636c debe a503 f03e 28fa 0abd 1530 07bc

net.4.bias f4 [4]
0.11318633 0.081618264 -0.02840979 -0.16567622
00000000: 3cce e73d 7a27 a73d a6bb e8bc 07a7 29be
