lunar.pth (torch, 75060 bytes, 6 tensors)

net.0.weight f4 [128, 8]
-3.0733342 -2.2372677 1.8135868 -2.7466588 -1.0561165 0.85867834 -0.6846044 -0.5720968
0.81126356 0.7604074 -0.2584301 -0.05097993 -1.234874 -0.002356658 1.42551 -0.6031409
-0.66758287 -1.3256555 -0.1146188 -1.1090518 2.474651 1.9775102 0.7889822 -1.1474345
1.4300436 0.04492285 1.1677513 -1.0384805 -1.0284355 -1.6293817 -1.1251103 0.49580318
-2.9694817 1.5577043 -0.8408224 -0.08063525 1.1208005 1.4622777 0.3538331 -1.5354396
-0.9141363 -0.21281587 1.7063621 -1.015469 -0.85694236 0.33096606 -0.08417872 -0.43606526
-1.0663776 -1.3568544 0.3910539 1.249852 -2.0164223 -1.4266356 -0.88003176 -0.5385754
-3.3489861 -2.509383 -0.7562629 0.65572375 -0.20398386 0.0069521847 0.12169708 0.26364225
-0.55586237 0.16686696 0.24827276 -0.022955528 3.6488583 -0.09572531 -1.8509954 0.32008854
-2.3787012 0.18478204 0.18267965 -0.7762321 0.7058282 0.6279162 -0.08563602 -0.7870872
1.4286252 0.7070595 1.3568127 -1.6485021 0.45846188 0.7400451 -0.42272502 -0.3662583
-2.5790076 -0.069854565 -0.24470489 -0.54307383 2.4164336 0.8608585 -2.2702425 0.46526182
-1.9664013 0.21931995 1.8449109 0.511423 0.72181374 0.6784351 -0.14443289 1.2327815
-1.0656737 0.933926 0.18941252 -0.17831217 0.8709578 -0.14393407 -0.42574704 -0.63567847
-0.73758054 0.33887443 0.09267444 -2.0780938 -2.4808838 1.5924901 -2.235696 -2.6701362
2.0745893 0.6009609 -0.9726366 1.1932217 -0.21593726 -1.132946 -0.6594716 0.0027455387
2.0758622 0.027993616 0.35893428 -0.35797358 -0.7546215 0.280601 0.05639341 -1.1142167
5.0643406 0.3143911 0.3097095 1.1488565 1.1711088 -0.93911755 0.1705936 0.11093845
-0.6579695 0.029207008 -0.084517054 -0.8987354 -0.539823 0.08274605 0.44228584 0.7421675
3.6546 0.32422873 0.6463956 0.13878961 -1.8590004 -0.53777534 -0.098177716 -0.38917586
0.021204967 -4.598389 -1.2121294 1.780033 -3.3157368 0.48150343 0.9615556 -0.6370146
0.083724044 -0.34353656 -0.7863958 -1.5858481 -0.5062087 0.32163557 0.9787914 0.014266695
-2.355243 -0.37470636 -0.8909562 -0.54763806 0.61869466 0.12022136 -0.076430455 -0.8265267
0.42149466 -0.5669035 -0.6565286 0.057416655 2.1560345 0.97233266 -1.2096168 -0.063836075
-0.86118734 -0.70410955 -0.11368562 -1.3639581 -0.7288276 0.51899594 -1.4580702 -1.9511229
-2.7833602 0.38903025 -1.0362871 0.18214068 1.6204813 0.7540625 0.47859177 -0.24332017
-0.29914933 1.1718231 0.10282014 1.1558297 -0.52500325 -1.5567083 -0.5920766 0.3224183
1.2286675 0.16901349 1.1858776 0.38381723 -1.598579 -0.101262376 -0.22235507 -0.44037336
-0.012068473 -0.24524729 0.9376749 -1.0508971 -0.18581122 -0.12420748 0.29442552 0.069834456
0.9299672 -1.6271466 -1.1773598 -0.078231916 -0.5054506 0.2768759 -1.0784926 0.90934145
0.5663031 0.8336891 -0.6115118 0.16193378 0.22441158 1.1661668 0.6852676 -1.7014017
0.009316024 -8.49164 -0.20538914 2.9939682 3.7458632 -0.625861 0.94811565 -0.13925092
00000000: 82b1 44c0 652f 0fc0 9d23 e83f 42c9 2fc0
00000010: d32e 87bf 58d2 5b3f 3c42 2fbf f074 12bf
00000020: f8ae 4f3f 0faa 423f f350 84be 55d0 50bd
00000030: 5a10 9ebf 2972 1abb 1d77 b63f 7167 1abf
00000040: b6e6 2abf 14af a9bf 43bd eabd 69f5 8dbf
00000050: af60 1e40 0e1f fd3f bdfa 493f 22df 92bf
00000060: ab0b b73f 0601 383d e078 953f eeec 84bf
00000070: c6a3 83bf 948f d0bf 9d03 90bf ead9 fd3e
00000080: fd0b 3ec0 db62 c73f 2340 57bf 1824 a5bd
00000090: 6476 8f3f ea2b bb3f 9d29 b53e 4989 c4bf
000000a0: d604 6abf 67ec 59be 136a da3f e3fa 81bf
000000b0: 9360 5bbf 6274 a93e e565 acbd f243 dfbe
000000c0: 107f 88bf 68ad adbf 3738 c83e 26fb 9f3f
000000d0: 100d 01c0 ff9b b6bf c349 61bf 14e0 09bf
000000e0: ca55 56c0 bb99 20c0 729a 41bf 83dd 273f
000000f0: 25e1 50be 27cf e33b 523c f93d 1efc 863e
00000100: ff4c 0ebf 2cdf 2a3e 373b 7e3e 3b0d bcbc
00000110: e586 6940 a20b c4bd 6bed ecbf a5e2 a33e
00000120: a43c 18c0 8137 3d3e 6010 3b3e 26b7 46bf
00000130: 28b1 343f 1ebf 203f f061 afbd 8c7e 49bf
00000140: 31dd b63f da01 353f 0aac ad3f 1e02 d3bf
00000150: 84bb ea3e 9873 3d3f 6a6f d8be 3586 bbbe
00000160: 760e 25c0 e90f 8fbd eb93 7abe e306 0bbf
00000170: d9a6 1a40 3961 5c3f a74b 11c0 cc36 ee3e
00000180: 0ab3 fbbf 6995 603e 0a26 ec3f 9eec 023f
00000190: c9c8 383f ecad 2d3f 37e6 13be c9cb 9d3f
000001a0: ff67 88bf c615 6f3f 5bf5 413e 7797 36be
000001b0: 17f7 5e3f 7463 13be 84fb d9be d3bb 22bf
000001c0: 14d2 3cbf f380 ad3e 19cc bd3d 7dff 04c0
000001d0: cdc6 1ec0 b7d6 cb3f a515 0fc0 83e3 2ac0
000001e0: 12c6 0440 93d8 193f b6fe 78bf 7dbb 983f
000001f0: a81e 5dbe 6004 91bf 21d3 28bf 7fee 333b
00000200: edda 0440 de52 e53c 3cc6 b73e 5048 b7be
00000210: e02e 41bf efaa 8f3e c7fc 663d a79e 8ebf
00000220: 140f a240 dff7 a03e 3e92 9e3e bb0d 933f
00000230: e5e6 953f 026a 70bf 17b0 2e3e b333 e33d
00000240: b070 28bf 8943 ef3c 4717 adbd 8613 66bf
00000250: d731 0abf c376 a93d 4a73 e23e b0fe 3d3f
00000260: f7e4 6940 4f01 a63e 2f7a 253f dd1e 0e3e
00000270: baf3 edbf a5ab 09bf 6611 c9bd 0f42 c7be
00000280: 0ab6 ad3c 0126 93c0 0e27 9bbf 1fd8 e33f
00000290: 0835 54c0 9e87 f63e 8228 763f 6413 23bf
000002a0: 8377 ab3d 06e4 afbe 3c51 49bf 12fd cabf
000002b0: e596 01bf 6bad a43e 1392 7a3f dbbe 693c
000002c0: 4dbc 16c0 83d9 bfbe b515 64bf 0232 0cbf
000002d0: c662 1e3f 9e36 f63d 9287 9cbd 4197 53bf
000002e0: 26ce d73e 9620 11bf 4212 28bf ba2d 6b3d
000002f0: 78fc 0940 cbea 783f b9d4 9abf 7dbc 82bd
00000300: c676 5cbf 8640 34bf 02d4 e8bd 2e96 aebf
00000310: 7294 3abf ebdc 043f 0ba2 babf 65be f9bf
00000320: 9322 32c0 f92e c73e 0ea5 84bf 1683 3a3e
00000330: ee6b cf3f 3d0a 413f fb09 f53e ec28 79be
00000340: 1a2a 99be 4dfe 953f 5e93 d23d 3af2 933f
00000350: 9d66 06bf 3842 c7bf 5592 17bf 0314 a53e
00000360: fa44 9d3f df11 2d3e d6ca 973f b183 c43e
00000370: 3d9e ccbf a662 cfbd 0cb1 63be 9e78 e1be
00000380: d8ba 45bc 1b22 7bbe 760b 703f cc83 86bf
00000390: 4c45 3ebe 7e60 febd f1be 963e 5e05 8f3d
000003a0: 5512 6e3f 5746 d0bf bab3 96bf 0e38 a0bd
000003b0: 3665 01bf aec2 8d3e 0c0c 8abf 9aca 683f
000003c0: 3df9 103f a66c 553f 0a8c 1cbf f8d1 253e
000003d0: 26cc 653e f444 953f b36d 2f3f 88c7 d9bf
000003e0: 3da2 183c c2dd 07c1 8851 52be 2d9d 3f40
000003f0: 39bc 6f40 6d38 20bf b5b7 723f cb97 0ebe

net.0.bias f4 [128]
-0.39723185 -1.2921268 -0.59682536 -1.8594588 -1.5317647 0.46282762 -1.8412052 -1.1799421
-0.25479883 0.15542717 0.058730286 0.39818105 -0.90471464 1.9233273 -0.02187705 -2.2354012
0.6807126 -0.7643814 -1.1401675 -0.015033447 -0.34464678 0.40680325 0.55819744 -1.8788788
0.984506 -0.021603223 0.19166127 0.569313 0.1890978 -0.6914433 -0.6966791 -0.819481
-0.65706193 -0.15059961 -0.17514172 0.20005862 0.6875436 1.066762 0.80925703 0.28379232
0.6105183 -1.4195619 -0.6623575 -0.7275297 1.0406405 -1.4979646 -1.3805864 0.34943017
-0.38821697 0.1106717 -0.51499736 0.25306672 -0.5733732 -0.07484337 0.2251249 0.37033987
0.033316437 -1.1452487 -0.4349164 -2.01602 -0.6816135 0.1294621 -0.14447881 -0.23057309
0.019645564 0.7890928 -0.053940162 0.8261045 -1.9827938 -1.1360977 0.951076 -1.3594046
-0.08535578 -0.804264 -0.47434422 -0.27605376 -1.7677579 -1.3372124 -0.35152918 -0.40298864
0.40661582 -1.6967732 -0.7896339 -0.58448 0.5015556 -1.1170862 0.103454985 -1.2053859
-0.015649708 0.15605645 -2.3105261 -1.3579286 -0.006176769 -1.7874465 1.0296739 -0.15452355
0.45652342 -0.58246213 0.10400963 -0.5977012 -1.3947124 -1.3992062 1.2867755 -1.2297875
0.67932814 -1.8301833 0.05067884 -2.4250672 0.3800261 0.47301462 -1.0998963 -2.3742268
-0.9072908 0.48046884 -1.1024168 -0.4081824 1.5929247 0.33795717 -1.6534368 -0.9354911
0.8743294 -0.9853861 0.46936756 -1.2425647 -0.06202051 1.4438794 -0.08419804 0.63002914
00000000: f961 cbbe 6964 a5bf 8cc9 18bf bf02 eebf
00000010: de10 c4bf bef7 ec3e 9dac ebbf 5808 97bf
00000020: fe74 82be 4d28 1f3e 2b8f 703d 63de cb3e
00000030: 619b 67bf 972f f63f 8037 b3bc d010 0fc0
00000040: 2e43 2e3f 80ae 43bf 02f1 91bf d94e 76bc
00000050: 8b75 b0be 8448 d03e 07e6 0e3f 1a7f f0bf
00000060: 9608 7c3f 3ef9 b0bc da42 443e 7fbe 113f
00000070: dba2 413e 6e02 31bf 9059 32bf 82c9 51bf
00000080: 3635 28bf c936 1abe 5a58 33be 2bdc 4c3e
00000090: db02 303f a88b 883f 782b 4f3f 3a4d 913e
000000a0: ed4a 1c3f 34b4 b5bf 4390 29bf 633f 3abf
000000b0: b533 853f 4ebd bfbf 0eb7 b0bf 83e8 b23e
000000c0: 60c4 c6be d8a7 e23d ded6 03bf f691 813e
000000d0: 96c8 12bf 7b47 99bd 2487 663e 309d bd3e
000000e0: d176 083d 8297 92bf 5dad debe 7906 01c0
000000f0: 397e 2ebf b691 043e 41f2 13be 5a1b 6cbe
00000100: bcef a03c fc01 4a3f 5cf0 5cbd 967b 533f
00000110: 30cc fdbf a66b 91bf b779 733f f800 aebf
00000120: 03cf aebd 3fe4 4dbf 3fdd f2be eb56 8dbe
00000130: e445 e2bf c729 abbf a2fb b3be 8754 cebe
00000140: f32f d03e dd2f d9bf 7325 4abf 7ba0 15bf
00000150: f365 003f aefc 8ebf 35e0 d33d 164a 9abf
00000160: d133 80bc 43cd 1f3e a9df 13c0 9bd0 adbf
00000170: 7e66 cabb 0ccb e4bf 5bcc 833f 6c3b 1ebe
00000180: 70bd e93e 3d1c 15bf 0003 d53d f202 19bf
00000190: f085 b2bf 3019 b3bf 0fb5 a43f ad69 9dbf
000001a0: 73e8 2d3f 7243 eabf 9e94 4f3d 4d34 1bc0
000001b0: c892 c23e f92e f23e 67c9 8cbf 55f3 17c0
000001c0: 3644 68bf 0300 f63e fe1b 8dbf 49fd d0be
000001d0: f5e4 cb3f b908 ad3e d1a3 d3bf 587c 6fbf
000001e0: 0dd4 5f3f 4342 7cbf f250 f03e 5c0c 9fbf
000001f0: 3809 7ebd 0ad1 b83f 0670 acbd 9749 213f

net.2.weight f4 [128, 128]
-2.48108 1.0217083 -1.1351123 -1.3029903 0.09747195 0.18604039 -5.328429 1.5222896
0.081715636 -0.526197 0.48181212 0.8043575 -0.05408218 0.1495339 0.07960947 0.9573755
0.5612611 -0.48873234 -0.23238252 -0.17069292 -0.70101917 1.2173935 0.036871135 -0.7757111
-0.46172518 -0.016402591 -0.054483615 0.67589664 0.34175864 0.5974934 0.18132524 -3.1522608
0.6238404 0.072945945 -0.2151639 0.69690454 0.40564126 -0.07711068 0.6012917 0.7750466
-0.6399574 0.6169346 0.81630677 0.059460785 0.56362677 -0.66560477 -0.2563518 0.24322838
0.001917568 -0.29897845 -0.58464277 0.28348807 0.33938915 -0.6902499 0.37105715 0.0057007545
0.52531964 0.56564623 -0.4369398 -2.608494 -1.081175 0.26966402 0.48890203 0.41117203
-0.59720165 1.1424266 1.5988209 0.18433876 -2.920722 0.07834283 0.6004406 0.3537866
0.2662393 -1.4202412 -1.9959878 0.01802382 -0.5201932 -0.28118584 -0.043048173 0.6800718
-0.75520563 -1.9958819 0.7541332 0.17138873 0.5778113 -1.0773655 -0.2728175 0.571728
-0.23841117 -0.5261038 1.5291274 -0.45910633 1.3614628 -0.052288316 0.34066606 -0.56035495
0.25658834 -1.7507566 -0.03373605 -0.969214 0.20473398 -0.04777389 0.33565027 -0.50338113
0.45703658 -1.5027395 0.62597305 0.8412045 -0.8674134 0.40796196 0.631737 -0.8389447
-0.27938104 -0.0047141686 -7.240934 -0.43796945 0.56543225 0.3490229 0.27929235 0.5330712
2.3774443 1.8098197 -0.049098898 -1.0535609 -0.15616177 1.0723854 -0.46505755 -0.09869447
-0.6922252 -2.6137297 1.0894761 0.46358848 -1.0045323 2.179377 2.023158 -6.486228
1.612168 -1.6709626 -1.9727288 -0.23621374 1.6242478 0.17585926 3.0613883 -3.1436515
1.1268605 0.6718706 1.1024053 -0.40219724 -3.0866432 0.41255718 1.7453792 0.68806016
-3.0747476 0.6770624 -0.38048548 -0.8757407 -0.060650364 -1.5399574 1.4114717 -1.8943061
-0.64821184 -0.014420653 -0.08954945 0.5436696 0.4519118 1.5487622 -0.61669403 1.1379614
-1.5235076 0.63642687 -6.726874 -4.0154905 0.6327656 -2.768948 -0.825611 -2.9326944
-4.5842633 0.28767517 0.4306382 -0.49699488 0.003613658 -6.025767 -1.6207343 -2.6612315
0.3761893 0.92775536 -10.088947 -3.3179739 3.1574917 0.103090264 0.27773798 -0.004460447
1.0245861 2.4217536 0.5873756 -0.028002862 1.1998848 0.9816446 -0.78349704 0.51281285
-0.66603243 0.27156153 0.32961804 -0.6826961 -2.73065 -0.12120543 -1.53119 0.3371394
-2.3755994 -0.90996635 2.2942517 -1.7201164 1.1949286 0.84636277 -5.2278867 -1.868143
-3.267882 -2.1903524 -2.270294 4.3043776 -7.406682 -0.91837984 -0.3788886 -0.17587885
-1.6509987 -0.23266299 0.5092519 1.2012342 0.53855866 -0.00038891993 -1.139628 2.7678022
-0.2747811 -2.220209 1.3323903 0.22188309 0.1478889 1.0859984 -4.2382913 1.5030265
0.85261256 1.4874957 -12.860907 0.7491753 -0.21522123 0.004355827 0.7160181 1.3995124
0.034973018 0.5982717 -1.7894529 -0.506774 -0.2243825 -2.2960663 0.3812853 0.38646322
00000000: 04ca 1ec0 56c7 823f 5c4b 91bf 63c8 a6bf
00000010: 609f c73d 5f81 3e3e 7e82 aac0 63da c23f
00000020: 875a a73d d9b4 06bf 14b0 f63e 60ea 4d3f
00000030: 4785 5dbd 6a1f 193e 4a0a a33d 9016 753f
00000040: cfae 0f3f 203b fabe aff5 6dbe 20ca 2ebe
00000050: fe75 33bf 8dd3 9b3f 3006 173d 0195 46bf
00000060: 3e67 ecbe ba5e 86bc 362a 5fbd 9007 2d3f
00000070: fdfa ae3e 54f5 183f 53ad 393e a4be 49c0
00000080: 01b4 1f3f af64 953d ed53 5cbe 5668 323f
00000090: 36b0 cf3e 34ec 9dbd 41ee 193f 7469 463f
000000a0: 40d4 23bf 6def 1d3f 7bf9 503f 278d 733d
000000b0: d849 103f 1365 2abf 8b40 83be dc10 793e
000000c0: e856 fb3a b413 99be 26ab 15bf 5925 913e
000000d0: 6ac4 ad3e 38b4 30bf 34fb bd3e 65cd ba3b
000000e0: 597b 063f 31ce 103f 93b6 dfbe 91f1 26c0
000000f0: f163 8abf 6711 8a3e 5e51 fa3e 2485 d23e
00000100: 35e2 18bf 093b 923f 2aa6 cc3f 4dc3 3c3e
00000110: 1ced 3ac0 3572 a03d 7ab6 193f 8423 b53e
00000120: 8450 883e 77ca b5bf 877c ffbf b1a6 933c
00000130: 622b 05bf 97f7 8fbe 4853 30bd 2f19 2e3f
00000140: 2855 41bf 0f79 ffbf e00e 413f 8780 2f3e
00000150: 71eb 133f 1de7 89bf bcae 8bbe c45c 123f
00000160: 0f22 74be bdae 06bf 72ba c33f fc0f ebbe
00000170: 6a44 ae3f 462c 56bd c86b ae3e 6c73 0fbf
00000180: 8c5f 833e cb18 e0bf d02e 0abd 691e 78bf
00000190: c9a5 513e 8eae 43bd 5ada ab3e 96dd 00bf
000001a0: b300 ea3e c559 c0bf c53f 203f 2e59 573f
000001b0: ce0e 5ebf 64e0 d03e 84b9 213f 14c5 56bf
000001c0: 080b 8fbe 5079 9abb bbb5 e7c0 883d e0be
000001d0: 2bc0 103f 21b3 b23e 68ff 8e3e 5b77 083f
000001e0: 0c28 1840 2ca8 e73f ed1b 49bd 15db 86bf
000001f0: dfe8 1fbe ed43 893f 061c eebe 5420 cabd
00000200: ac35 31bf 5947 27c0 f473 8b3f 785b ed3e
00000210: 8494 80bf ea7a 0b40 6c7b 0140 2e8f cfc0
00000220: 855b ce3f 1ae2 d5bf 6182 fcbf 04e2 71be
00000230: 5ae7 cf3f 7314 343e c9ed 4340 9631 49c0
00000240: f73c 903f b6ff 2b3f 9e1b 8d3f ccec cdbe
00000250: 908b 45c0 b23a d33e 9668 df3f b624 303f
00000260: aac8 44c0 f653 2d3f fece c2be 8b30 60bf
00000270: 846c 78bd 531d c5bf 1bab b43f 9f78 f2bf
00000280: 36f1 25bf 9a44 6cbc b465 b7bd ee2d 0b3f
00000290: fc60 e73e d73d c63f a9df 1dbf b8a8 913f
000002a0: 4c02 c3bf dfec 223f 8d42 d7c0 e67e 80c0
000002b0: edfc 213f 7236 31c0 3e5b 53bf 44b1 3bc0
000002c0: 49b2 92c0 294a 933e 9c7c dc3e 1d76 febe
000002d0: 1fd3 6c3b 15d3 c0c0 3974 cfbf 9e51 2ac0
000002e0: e29b c03e 6081 6d3f 546c 21c1 af59 54c0
000002f0: 5814 4a40 fd20 d33d ac33 8e3e f128 92bb
00000300: a325 833f 03fe 1a40 3f5e 163f 4266 e5bc
00000310: d395 993f 0f4d 7b3f 4393 48bf b447 033f
00000320: 1a81 2abf 1d0a 8b3e b2c3 a83e 2cc5 2ebf
00000330: f8c2 2ec0 8d3a f8bd 09fe c3bf 899d ac3e
00000340: d209 18c0 8ef3 68bf 05d5 1240 c62c dcbf
00000350: 6cf3 983f 3bab 583f d94a a7c0 4f1f efbf
00000360: fb24 51c0 bc2e 0cc0 7f4c 11c0 76bd 8940
00000370: 8a03 edc0 f11a 6bbf b0fd c1be 9619 34be
00000380: ed53 d3bf 353f 6ebe 555e 023f 0bc2 993f
00000390: fbde 093f f3e7 cbb9 55df 91bf ac23 3140
000003a0: 1cb0 8cbe e717 0ec0 c48b aa3f 5235 633e
000003b0: 3070 173e ff01 8b3f 15a0 87c0 2c63 c03f
000003c0: d144 5a3f 4266 be3f 46c6 4dc1 f4c9 3f3f
000003d0: f462 5cbe 53bb 8e3b f64c 373f 3923 b33f
000003e0: de3f 0f3d 5628 193f cb0c e5bf f1bb 01bf
000003f0: 87c4 65be c0f2 12c0 d437 c33e 82de c53e

net.2.bias f4 [128]
0.864305 0.5113393 -0.21737568 -0.18209265 -0.068209305 0.53831816 -0.7730103 0.75772834
-0.14279217 -0.064023554 0.75271034 0.002417806 -0.11384419 0.027764997 -0.61150116 1.1738074
1.6409744 -0.16365719 -0.18474105 -0.084725246 -0.69696635 0.9309047 0.033472527 -0.05494177
-1.0624359 1.8421144 1.2725661 0.9743558 -0.44520414 0.99450046 -0.08106017 0.14914452
0.28561512 0.5363575 -0.19635879 -0.061758686 0.12386832 -0.25453478 0.28404632 -0.29739478
-0.11204422 0.22556709 0.865696 -0.19009998 -0.094891034 0.791159 -0.33262986 -0.706338
-0.10253047 0.080682054 -0.29594326 -0.09381001 -0.48491412 -0.0720102 -0.4963599 -0.080874935
0.0049614464 -0.12469623 -0.11125872 -0.03268297 -0.7481473 0.03396659 -0.27580848 -0.06772783
-0.66516054 0.29904574 -0.54706454 -0.907479 1.3462696 -0.079684444 0.42503563 -0.12202811
-0.12284607 -0.17378274 -0.48378396 -0.08786701 0.12336677 -0.08792245 0.6216735 0.53843635
0.32761443 -0.047498837 0.033549882 -0.012109053 0.044474293 -0.07858512 -0.9145499 -0.113083914
0.9601063 0.07584888 1.1461304 -0.13861333 0.055881932 -0.26005226 0.18602687 0.095379345
-0.25062776 -0.12833029 -0.46883488 -0.50951487 0.04319605 0.8931752 1.7273335 -0.54147977
-0.1824503 -1.8848987 0.036925267 -0.04410009 -0.56212115 -0.3365593 0.018503504 -0.031643413
-0.13691524 -0.095005505 0.42116517 -0.453331 -0.071142584 0.18368213 1.0793576 0.013662058
-0.12166606 0.06179573 -1.6466858 -0.012545272 -0.36433846 0.01958087 0.014291251 -0.16027285
00000000: 1843 5d3f 22e7 023f bb97 5ebe 7f76 3abe
00000010: 52b1 8bbd 38cf 093f 01e4 45bf 7cfa 413f
00000020: 1c38 12be c81e 83bd a0b1 403f 0e74 1e3b
00000030: 2527 e9bd 6b73 e33c 578b 1cbf 523f 963f
00000040: 730b d23f c095 27be c22c 3dbe 6e84 adbd
00000050: 636c 32bf c54f 6e3f 7d1a 093d 9f0a 61bd
00000060: e6fd 87bf 68ca eb3f 72e3 a23f 626f 793f
00000070: ccf1 e3be 9597 7e3f e002 a6bd 57b9 183e
00000080: 253c 923e ba4e 093f 4712 49be adf6 7cbd
00000090: acae fd3d 6252 82be 856e 913e 2144 98be
000000a0: 7177 e5bd 0ffb 663e 419e 5d3f 92a9 42be
000000b0: 3b56 c2bd 6589 4a3f 764e aabe 91d2 34bf
000000c0: 7ffb d1bd a23c a53d e085 97be 761f c0bd
000000d0: aa46 f8be 157a 93bd e322 febe c2a1 a5bd
000000e0: a193 a23b bd60 ffbd 9ddb e3bd 94de 05bd
000000f0: 9586 3fbf 8d20 0b3d c536 8dbe e3b4 8abd
00000100: f647 2abf 861c 993e 6c0c 0cbf 8b50 68bf
00000110: 9052 ac3f 9931 a3bd 459e d93e e0e9 f9bd
00000120: b896 fbbd 1af4 31be 88b2 f7be 9ef3 b3bd
00000130: b8a7 fc3d af10 b4bd ff25 1f3f f7d6 093f
00000140: 14bd a73e 248e 42bd 9a6b 093d 0d65 46bc
00000150: ad2a 363d 3cf1 a0bd f11f 6abf 8a98 e7bd
00000160: 87c9 753f a856 9b3d 67b4 923f a7f0 0dbe
00000170: 74e4 643d 9225 85be d47d 3e3e 3f56 c33d
00000180: 4852 80be 0469 03be 200b f0be 916f 02bf
00000190: 57ee 303d 21a7 643f 4419 dd3f 6b9e 0abf
000001a0: 40d4 3abe 5c44 f1bf f33e 173d 4ca2 34bd
000001b0: 2ce7 0fbf 8051 acbe a994 973c 869c 01bd
000001c0: 8233 0cbe 3f92 c2bd f6a2 d73e 001b e8be
000001d0: 34b3 91bd 2b17 3c3e 6428 8a3f d3d6 5f3c
000001e0: 0e2c f9bd 851d 7d3d 9ac6 d2bf af8a 4dbc
000001f0: 928a babe 1068 a03c da25 6a3c 911e 24be

net.4.weight f4 [4, 128]
1.0254912 -1.5784656 -2.111351 -1.2153451 -0.0077632875 1.4040207 -1.9184211 -0.59709877
1.7305164 -0.6807704 0.59425914 0.05373311 1.3248264 0.02767694 -1.628402 0.85919666
2.2501884 -0.0058361664 0.16977598 -1.0485793 -1.6394581 1.7507192 -0.92402005 1.2486627
-1.6807466 1.9951729 2.4833696 0.7414168 -1.5562786 -1.1405921 -1.2049558 -1.7959073
-1.6073908 -0.02740311 -1.7908609 3.9583793 1.6960696 1.0973015 -0.80736196 2.276135
-0.068816505 -0.51691383 2.1441102 -1.9249986 -0.45617443 2.4608128 -4.0035486 1.9718231
-3.760783 -0.3624008 -1.5515615 -0.0028516182 2.1489162 -0.570221 1.709279 -0.06116454
0.024222113 0.02950287 -0.05747239 -0.17352265 1.3626124 1.2013214 -1.2572507 0.0080308225
1.2341495 -0.954749 1.9477824 -2.7233722 1.676313 0.020508109 3.429399 -2.4960322
1.0700698 -0.7141419 -1.2155972 0.084772944 -0.36043182 -0.30038604 -0.32255593 -1.3334762
-1.7556654 0.0007965136 -0.042654164 -4.2432246 0.05404261 -0.024483332 -1.3701869 -0.04681092
-0.5486083 0.7796894 1.3624599 -0.0824197 -2.3908749 -2.8845358 -1.0152369 -1.3918482
0.26345813 -0.031288996 1.8216792 -4.2711043 -5.2724943 -1.0228387 1.549341 -0.77249324
-1.5999914 2.9112113 -1.4192445 0.05330503 -0.97625446 -0.69733524 -1.8694705 -0.9063819
-0.96079284 -3.3085775 -0.2882392 -0.57681143 0.015280623 1.6537901 1.1464853 0.663785
-0.06900741 -0.7804749 1.0053029 -0.00025259703 -5.128523 -0.053404007 0.023657411 0.025504207
1.1319418 -1.0443704 -2.3768868 -1.5565479 0.000747315 1.2428242 -2.1164331 -0.63466305
1.8841758 -0.4605515 0.7901892 -0.00989654 1.2811999 -0.043702953 -1.8938634 0.8884578
2.224448 -0.04567664 0.6205402 -1.1209888 -3.4919715 1.7986548 -0.8839379 1.1922016
-2.0323324 1.9233382 2.2348306 0.64945793 -1.6923894 -1.0784657 -0.4298629 -1.8416207
-2.1326065 -0.14750022 -0.5636602 2.845838 1.591099 1.0692347 -1.1591727 1.8508524
-0.027031124 -0.3383533 2.2143397 -1.03673 -1.291325 2.112903 -4.4030027 1.8417869
-1.7863023 -1.343509 -0.9874932 0.071622305 2.5297906 0.30225003 1.784739 0.032616872
-0.006640989 0.0019209672 -0.06181285 -0.58590573 1.4323516 1.2043974 -0.43338764 0.07898188
1.1008116 -1.0311238 1.7269205 -2.1927617 1.6590656 -0.012648582 3.3260746 -2.7000856
1.0892482 -0.55857515 -0.73637664 0.018395178 0.19694155 0.55669117 -1.247802 -1.3156239
-1.4700077 -0.08769669 0.022565054 -4.975765 -0.05726996 -0.017292507 -1.7032306 0.0033491992
-0.53973836 0.612314 1.4006954 0.06406213 -2.6717207 -3.0981743 -0.863129 -0.7358973
-0.44982627 0.0004198478 1.5228705 -3.407393 -3.854736 -1.0679008 1.831938 -1.6210006
-1.8235224 2.5481021 -1.540662 0.048881333 -0.23461923 0.4759313 -2.0587997 -0.995859
-0.6328757 -2.075609 -0.7442482 -0.9727597 0.03712112 1.6041672 2.8999941 2.4375901
-0.06874849 0.18944031 0.6781269 0.05759077 -5.931831 0.062227722 0.015823701 0.06945536
00000000: 4c43 833f 290b cabf 6020 07c0 6e90 9bbf
00000010: 2d63 febb f3b6 b33f d38e f5bf 77db 18bf
00000020: 9081 dd3f f846 2ebf 5e21 183f 4017 5c3d
00000030: e993 a93f c0ba e23c 7a6f d0bf 50f4 5b3f
00000040: 1603 1040 503d bfbb c1d9 2d3e d937 86bf
00000050: c3d9 d1bf 9117 e03f 948c 6cbf 2ed4 9f3f
00000060: b422 d7bf d361 ff3f 87ef 1e40 7ecd 3d3f
00000070: 2334 c7bf ecfe 91bf fe3b 9abf 4ae0 e5bf
00000080: fbbe cdbf 7d7c e0bc ee3a e5bf 1656 7d40
00000090: cf18 d93f 6074 8c3f 46af 4ebf 32ac 1140
000000a0: abef 8cbd 7754 04bf 1a39 0940 5b66 f6bf
000000b0: b28f e9be f57d 1d40 121d 80c0 b364 fc3f
000000c0: abb0 70c0 998c b9be 9199 c6bf 37e2 3abb
000000d0: d887 0940 01fa 11bf a7c9 da3f ab87 7abd
000000e0: 746d c63c 01b0 f13c 2b68 6bbd ecaf 31be
000000f0: 156a ae3f e6c4 993f 97ed a0bf b693 033c
00000100: 9cf8 9d3f 6e6a 74bf ef50 f93f bb4b 2ec0
00000110: 6d91 d63f 9f00 a83c 467b 5b40 febe 1fc0
00000120: 0cf8 883f 01d2 36bf b098 9bbf 709d ad3d
00000130: 858a b8be 33cc 99be 0d26 a5be 59af aabf
00000140: a5b9 e0bf 1fcd 503a 22b6 2ebd 7fc8 87c0
00000150: c95b 5d3d 4591 c8bc 4962 afbf cfbc 3fbd
00000160: 9871 0cbf b999 473f 1665 ae3f a9cb a8bd
00000170: 1804 19c0 3c9c 38c0 48f3 81bf 1528 b2bf
00000180: fce3 863e e428 00bd c92c e93f e3ac 88c0
00000190: 46b8 a8c0 61ec 82bf ce50 c63f 1ec2 45bf
000001a0: 85cc ccbf 4951 3a40 cea9 b5bf 6056 5a3d
000001b0: d0eb 79bf 9084 32bf cf4a efbf a508 68bf
000001c0: 85f6 75bf bcbf 53c0 1794 93be eaa9 13bf
000001d0: 945b 7a3c 65af d33f 08c0 923f d0ed 293f
000001e0: c253 8dbd 34cd 47bf c4ad 803f 006f 84b9
000001f0: dc1c a4c0 29be 5abd 30cd c13c 33ee d03c
00000200: 78e3 903f eead 85bf ea1e 18c0 f63c c7bf
00000210: 76e7 433a dd14 9f3f a473 07c0 4779 22bf
00000220: ac2c f13f 68cd ebbe d749 4a3f 1925 22bc
00000230: 5cfe a33f de01 33bd 1e6a f2bf f871 633f
00000240: 5b5d 0e40 6e17 3bbd b9db 1e3f 907c 8fbf
00000250: 767c 5fc0 523a e63f c149 62bf 109a 983f
00000260: bc11 02c0 f22f f63f 7707 0f40 e042 263f
00000270: 37a0 d8bf 2a0b 8abf fd16 dcbe 3aba ebbf
00000280: a07c 08c0 4c0a 17be 094c 10bf 3622 3640
00000290: 22a9 cb3f afdc 883f c55f 94bf bbe8 ec3f
000002a0: 6070 ddbc a53c adbe beb7 0d40 92b3 84bf
000002b0: 234a a5bf ce39 0740 66e5 8cc0 acbf eb3f
000002c0: 8ea5 e4bf 1af8 abbf 5bcc 7cbf b7ae 923d
000002d0: 17e8 2140 84c0 9a3e 5472 e43f 4599 053d
000002e0: a79c d9bb f7c8 fb3a 792f 7dbd ebfd 15bf
000002f0: 4c57 b73f b229 9a3f fce4 ddbe 40c1 a13d
00000300: 65e7 8c3f ddfb 83bf bb0b dd3f 3556 0cc0
00000310: 435c d43f 003c 4fbc 68de 5440 34ce 2cc0
00000320: 7c6c 8b3f c8fe 0ebf 2e83 3cbf 7cb1 963c
00000330: 0cab 493e 5083 0e3f fab7 9fbf 5d66 a8bf
00000340: 3629 bcbf 529a b3bd 59da b83c 7839 9fc0
00000350: e893 6abd 04a9 8dbc 7603 dabf 3d7e 5b3b
00000360: 4b2c 0abf 9cc0 1c3f fd49 b33f 0233 833d
00000370: 79fd 2ac0 7d48 46c0 06f6 5cbf c463 3cbf
00000380: a14f e6be 051f dc39 6ced c23f ba12 5ac0
00000390: ffb3 76c0 f9b0 88bf f27c ea3f f37c cfbf
000003a0: 2f69 e9bf 1b14 2340 6a34 c5bf cb37 483d
000003b0: 0640 70be 44ad f33e 60c3 03c0 9ef0 7ebf
000003c0: 2404 22bf c7d6 04c0 0d87 3ebf c806 79bf
000003d0: 510c 183d 5a55 cd3f 8199 3940 7a01 1c40
000003e0: 02cc 8cbd a4fc 413e b999 2d3f 4de4 6b3d
000003f0: 8fd1 bdc0 7fe2 7e3d b5a0 813c 9d3e 8e3d

net.4.bias f4 [4]
0.1422669 0.7233863 1.324368 0.29737976
00000000: 6aae 113e d82f 393f e484 a93f 2942 983e
