lunar.pth (torch, 75060 bytes, 6 tensors)

net.0.weight f4 [128, 8]
00000000: 9b29 8fba f6ab c23e e5a3 2d3d b130 68be
00000010: 5d42 1f3f 13eb 823f b4b3 1abf 045f 11be
00000020: 36dd 94be 0a8f f43e 022e 9ebf 9688 483f
00000030: 437a 11be 5941 87be 3841 ac3e 6af7 5ebd
00000040: 667c 5b3e 4683 033d cb64 283e 95ef 263e
00000050: bcf0 ac3b 004b 513f 0ddb 603f 062d 6c3e
00000060: 9e37 403f 1859 00c0 60db 823d db63 073f
00000070: aae2 053e 02ce 5e3e f73f ec3d 8382 b43e
00000080: ce04 a03e 01b8 f43d 0876 253f 1144 4a3f
00000090: 04fa 6ebf c185 c6be 7701 4bbe 1935 123c
000000a0: 9212 993e 3709 1bbe a3a0 013e c53d 85bf
000000b0: 4e4c 99bf 2dcb 113e 826b 25bd 253b f3bd
000000c0: a61b 9c3d 6257 c43e c88c ce3f 917a 99bf
000000d0: f6e7 24bf 356c fdbb 42d4 08be 61b2 69be
000000e0: 96b9 02bf 5070 1cbe 1f40 913f 5c04 473c
000000f0: 19c9 49bf 056d cabe 4e44 813d 3eef dcbd
00000100: 97b9 bd3d 06ed f9bd 0434 2abf 70e2 853f
00000110: 5f8a 8abf ef02 393e 3ca2 273f ef9f cc3b
00000120: 5eb3 29be 976a 82be 90c1 b83e 6057 453e
00000130: f69f 82bf eed1 c1be e635 bcbe d563 353e
00000140: bd96 61bd 724c e73e dbad 4d3f b658 18bf
00000150: f3ef 2dbf be5a febe 297a 733e 7e60 d6bd
00000160: 0d40 233e f130 463c dded 453f eaf8 0d3e
00000170: b553 abbf 09ca 4abe 95b7 9abe 7706 dd3e
00000180: d7e2 b5be 5543 83be 8739 81be 2c9a 31be
00000190: e0e4 3ebf 3179 4a3f c704 dabd 3898 9b3c
000001a0: 1831 9cbd 87db 133f 9bed 883f 42d2 05bf
000001b0: d3f3 89bf 66b2 b33e d447 afbe 6560 f5bc
000001c0: b562 3d3f ed61 bbbf 0d87 a93e c584 b43c
000001d0: 1e86 14bf dcd9 a9be b5a4 ad3d c467 063e
000001e0: 7723 95be 7962 673f e001 263e 602f 17bf
000001f0: 7635 283f 88c2 643d 2e9d 773d 3bdc b2be
00000200: 3219 873e 16aa 18be 6429 743e 7c8a f13d
00000210: e274 91be 2d4b f73f fcb6 68bd dce9 7fbd
00000220: 225c 513e d3ba 34be 14f7 2fbe 59d0 bbbe
00000230: 4415 4e3f 78f1 0e3f 09fe 373e 3701 51bf
00000240: 8431 cabf d8dc a13e 7bef a4be f0f8 e63e
00000250: fe66 1b3d c4de b53d 1bde d13d f02e 4a3d
00000260: 7374 32bf 6a6a 9dbf 6bd6 a53e b261 76bf
00000270: c138 133e 4f6f 22be 3fb1 c43e 71ab 49bd
00000280: 7af3 083f 5c7c 9bbf 7903 0fbf 6746 87bf
00000290: 58c8 703f a063 be3c 4bde 393e 30e5 db3d
000002a0: ff94 b1bd 3cd6 bcbe 2464 443e 57fc a93e
000002b0: 1d60 2dbf 6369 efbe a78b a13e 9faf 053f
000002c0: 5492 963d 4727 dd3e 30bf 363f 2eb4 ce3d
000002d0: 28cb 203f 2415 d03e 591b a53e a66d adbe
000002e0: 2f0f 87be 69b5 d1be 0714 acbf 4c35 463d
000002f0: 7ee5 1a3f 85a1 063e fba0 1b3e 811a a93d
00000300: 53e6 65be a787 8dbf 4258 3f3f debb 083f
00000310: 3241 4d3e bcbf 38bf 0a7c d93e cd69 a53c
00000320: ccd6 1f3e d777 013f 03ec 46bf 0b8c 50be
00000330: dca0 91bd 42b0 26bf a28e b1bd fab5 aabe
00000340: 3a82 903e 03e1 b5bf 8aff 85bd bb80 6cbf
00000350: eb85 0d3f 0841 08bf f748 14be c1f0 fc3e
00000360: 3b50 893e 4342 3c3f 4edc 933d 5414 12bf
00000370: d4e7 d2bc 5c95 063f 20c5 3a3d 8f2f d0bd
00000380: db17 23bf e0fc 453f dddd fa3d 4ab2 af3e
00000390: d4d5 61be c01f 57bf 8008 95bc 8214 32bf
000003a0: f189 623f 3d7f f8bf 5a98 86bd dd31 0ebe
000003b0: f7fa b83e bb47 7c3e 17d4 3c3e e83b f83e
000003c0: 3835 79be 8a37 743f 438e 283f 34d2 153f
000003d0: 4c01 42bd 55f1 9dbe ea09 a1bc 8cf6 9abe
000003e0: 8307 8bbe a484 b4bb 731e aabd ab55 6cbf
000003f0: 784b 00bf 1961 133d 7064 d63d f94b d7bc
-0.0010922434 0.3802182 0.04239263 -0.22674824 0.6221064 1.0227989 -0.60430455 -0.14196402
-0.2907502 0.4776538 -1.235779 0.78333414 -0.14206795 -0.26417044 0.33643508 -0.05443517
0.21434173 0.032107614 0.164447 0.16302331 0.005277721 0.81755066 0.87834245 0.2306405
0.75084865 -2.0054379 0.06389499 0.5288674 0.13074747 0.21758273 0.11535638 0.35255823
0.31253666 0.119491585 0.64633226 0.7901011 -0.93350244 -0.3877392 -0.19824778 0.008923792
0.2989698 -0.15140234 0.12658934 -1.0409476 -1.1976411 0.14237662 -0.04038573 -0.11876515
0.07622461 0.38347918 1.6136713 -1.1990529 -0.64416444 -0.0077338465 -0.1336222 -0.22821952
-0.5106443 -0.15277219 1.1347693 0.012147035 -0.78822476 -0.395363 0.06311856 -0.10787819
0.09263914 -0.12203412 -0.6648562 1.0459728 -1.0823478 0.18067525 0.65481925 0.0062446515
-0.1657233 -0.25471947 0.36085176 0.19271612 -1.0205066 -0.37855476 -0.3675987 0.17713864
-0.055075396 0.4517551 0.8034341 -0.5951036 -0.6794426 -0.49678606 0.23777069 -0.10467623
0.15942402 0.0120966295 0.77316076 0.13864484 -1.338492 -0.19803633 -0.30218187 0.43168995
-0.35524628 -0.25637308 -0.25239202 -0.17343968 -0.74567986 0.79091173 -0.106454425 0.018993482
-0.076265514 0.5775685 1.0697511 -0.5227395 -1.0777534 0.35097045 -0.34234488 -0.029953191
0.7397874 -1.463926 0.33110848 0.022035966 -0.58017147 -0.33174026 0.08478681 0.13125521
-0.2912862 0.9038463 0.16211653 -0.59056664 0.65706575 0.055849582 0.060452633 -0.34933648
0.2638641 -0.14908633 0.23843914 0.11793992 -0.28409487 1.9319817 -0.056815132 -0.062478885
0.20445302 -0.17649393 -0.17184097 -0.36682394 0.805012 0.558372 0.17968 -0.8164248
-1.5796361 0.31613803 -0.3221396 0.451118 0.037940018 0.0888038 0.102474414 0.04936117
-0.6970894 -1.22981 0.3239015 -0.9624282 0.14377119 -0.15862773 0.38416478 -0.049235765
0.53496516 -1.2147326 -0.55864674 -1.056836 0.940557 0.023240864 0.18151204 0.107370734
-0.08670997 -0.36882198 0.19178826 0.33200333 -0.6772478 -0.4676009 0.3155186 0.522211
0.073521286 0.4319403 0.7138548 0.1009296 0.6280999 0.4064113 0.32247427 -0.33872718
-0.26378772 -0.40958717 -1.3443612 0.04839067 0.6050643 0.13147552 0.15198128 0.08257008
-0.22451143 -1.1057023 0.74744046 0.5341166 0.20044401 -0.72167563 0.42477447 0.020192051
0.15609282 0.50573486 -0.77703875 -0.20365922 -0.071107596 -0.651127 -0.08669783 -0.33341962
0.28224355 -1.4209293 -0.06542881 -0.9238393 0.5528247 -0.5322423 -0.14480959 0.4940243
0.26819023 0.7353861 0.07219754 -0.5706227 -0.02574531 0.52571654 0.04559815 -0.10165321
-0.63708276 0.7733898 0.12249348 0.3431571 -0.22054225 -0.8403282 -0.01819253 -0.6956254
0.8849173 -1.941383 -0.065720275 -0.13886209 0.3612897 0.24636738 0.18440281 0.48483205
-0.24336708 0.95397246 0.65842074 0.5852387 -0.047364518 -0.30848184 -0.019658048 -0.30266225
-0.27154168 -0.005508976 -0.08306589 -0.9231822 -0.50115156 0.03598127 0.10468376 -0.026281344

net.0.bias f4 [128]
00000000: 8ac0 433e 3c3a ab3d 837b 4abe b7c8 75be
00000010: e1fd 633e ebd8 f23d ed8b b53e 436e 543e
00000020: dfe5 093d 5bd6 803e 55ce 9ebd 6bfc 0cbe
00000030: 8da7 b13d 9ce9 ed3e 0da4 5bbe 0eae 79be
00000040: 6035 343e 4d71 47be 6a4d c4bd f814 c3be
00000050: a3db f0bd f98f 873e f411 923d 3947 13be
00000060: 44c1 9e3e bbce 1ebf 8d0f 19bd 3d9a c0be
00000070: 3b72 3e3d a45d aebe fefa 403f 6ccd b1bd
00000080: 42a3 3fbe 1efb a5be 1d45 ccbd d949 03bd
00000090: 99c6 2f3e ea25 2d3e ec64 b0bd 6ebb 093d
000000a0: 03c7 9fbd a6ec 2cbe 4c55 cf3e 46de 233e
000000b0: 0c11 16be cb0c 04be 1cb9 293e e7a4 8c3d
000000c0: a740 a63e 84de 14bf b655 613e 4466 1a3e
000000d0: 82cc 15bf 537d 60be 76c8 3dbd d872 4abe
000000e0: f24c 113e 8c94 213e eb42 433e c588 19bf
000000f0: 3b14 df3c e583 453e 550d d6bb 149f c53e
00000100: 35c2 c43e 3001 9f3c 6f51 423e ac34 0e3e
00000110: 4f04 293e 2499 0ebe 9fa9 2bbe 6152 09be
00000120: 1cc7 17bf 05b0 6fbe 8dea 2b3d 753d 9e3e
00000130: fd83 c7be d9c5 83bc 6040 323e 6cc6 cc3d
00000140: cb2b 133d 0cfe e2bd b735 5abd f310 943e
00000150: 3401 543d 9682 803d 737f 1c3e 129c 9ebe
00000160: 34da 78be e447 c6be e3e4 bc3e 3418 30be
00000170: e761 84bd fe77 a4bd 31d9 40be 8f6f 523d
00000180: bec5 acbe 55d0 cdbd af1b bd3c 73d1 25bd
00000190: ec0b 9cbe 3105 6e3e 4ca0 0cbf 5e95 2d3f
000001a0: 18f1 06bf c89b b339 0ce2 6abe 6d1a dd3d
000001b0: 78dc e23d e8ce 833e 40c4 033e 7f70 7b3e
000001c0: 7c55 d6be 0300 04bf c067 903e 665b 133d
000001d0: e929 843e 772a bbbd 622d 083d 7241 573e
000001e0: 344a 2f3e fc57 13be 777d 38be 0020 8c3e
000001f0: c914 c4be a828 b13e c54b 833e 7326 85be
0.19116417 0.08360717 -0.19773678 -0.24002348 0.22264816 0.1185778 0.35458317 0.20745187
0.033666488 0.2516354 -0.077541985 -0.13768165 0.08674536 0.46467292 -0.21449299 -0.24382803
0.17598486 -0.19476815 -0.09585078 -0.38101935 -0.117606424 0.2647703 0.071323305 -0.14382638
0.31006825 -0.62034196 -0.037368346 -0.37617674 0.046495657 -0.34055817 0.75382984 -0.08681759
-0.18714622 -0.3241815 -0.0997412 -0.03205285 0.17165603 0.16908994 -0.08612999 0.033626013
-0.0780163 -0.16887149 0.40494764 0.1600276 -0.1465494 -0.12895505 0.1657452 0.0686739
0.324712 -0.5815203 0.22005352 0.15078074 -0.5851518 -0.21922807 -0.046333753 -0.19770372
0.14189509 0.15779322 0.19068496 -0.5997432 0.027231326 0.19288595 -0.006532351 0.3859793
0.38429418 0.019409746 0.18976377 0.1388728 0.1650555 -0.13925606 -0.16763924 -0.13410331
-0.5928819 -0.2340699 0.041971732 0.30906263 -0.38967887 -0.016085552 0.1740737 0.099987835
0.035930436 -0.11083612 -0.053273883 0.2891918 0.05175896 0.06274907 0.15282993 -0.30978447
-0.24301988 -0.38726723 0.36893377 -0.17196733 -0.06463986 -0.08030699 -0.18832852 0.05137592
-0.33744615 -0.10049502 0.02308449 -0.04048295 -0.30477846 0.23244168 -0.54932094 0.6780604
-0.5271163 0.00034257607 -0.22937793 0.10796056 0.11077207 0.25743794 0.12867832 0.24554633
-0.41862094 -0.5156252 0.28204155 0.035975836 0.25813225 -0.09138959 0.033246405 0.21021059
0.1711815 -0.14389032 -0.18016611 0.27368164 -0.38297108 0.3460133 0.25643745 -0.26005897

net.2.weight f4 [128, 128]
00000000: e656 b3be bb25 493e 9edb 203f 2858 ae3e
00000010: cea1 fe3e f7ea 073e 9ee4 703e 2e47 a43d
00000020: e7b0 aabf fd52 4a3e 3b6e d2bd c7e0 ef3e
00000030: e639 1fbd 1775 b83a 7446 3b3f f23b 89be
00000040: 6fa1 c73e 8525 09bd d1d9 bd3e f67d 3c3e
00000050: ba43 123d 57ae f6bb 27b1 ee3c d0e0 d13d
00000060: 4b03 a7be e037 003f e8b1 1a3c 3a16 d0be
00000070: 1d01 3fbe 831d b73e 1451 b63b e9cd 443d
00000080: 136f 0e3e 5e44 983e 3973 d93e e9e5 8b3e
00000090: 350a 5abf 34bd 35bd edfa 6a3e c799 91bf
000000a0: 8638 073e 11f4 713e 46a1 663e a5e2 033e
000000b0: 9c7d e53c 4d20 1fbf be1b c53e 6550 183e
000000c0: b50a 2d3d 31ab 723f dcbf 9ebd a10f 6abe
000000d0: e02f 3b3f 314e d53e 7078 333d 984c 823e
000000e0: 543c 553e 2301 883e 9289 c4be f8f6 253f
000000f0: c14c 3c3e f51e e9bd 705a 5fbf b1ec 07bd
00000100: 65b7 1cbe 1042 183b 1ce1 163e 0ec3 613e
00000110: f1f9 f43d 8b33 d63c a9b4 e43d 436c 553f
00000120: d4af 633f 9466 5ebe b1ab e3be 9b2b 91bd
00000130: 860a 4a3e c8b5 a1be 96fc 9dbe 3361 83bd
00000140: 5ddb 08bf ab7c 93bd 58d6 0f3f 0aa9 17bd
00000150: a1ab db3d d4f5 cabe 21e3 e9be e61b e53e
00000160: 815d ab3d b95f 663e 8416 0c3d cfad 003e
00000170: 0e19 7e3e 85ec 2bbe 4d07 b23e 5613 6b3e
00000180: 31a2 cb3c e8ac 093f 6dc4 e3bc fe2f ed3d
00000190: 02e2 dbbd b7e1 02be 06c6 be3e b9b7 68be
000001a0: c28a 32bf 45e8 c6bc 4986 673e e87f d43c
000001b0: 04c6 b9be 2ba9 b7be b9e2 a93e 4ec2 473e
000001c0: 314e a23f 8257 3b3e 82c8 36be 22f8 163f
000001d0: b767 913d f940 c73e b2a7 213e 30f9 cebd
000001e0: da3b d33d 8b59 e0be 0d8b e53e e3b8 133d
000001f0: d2bd 0d3e 73ed 673e dcab 88bd 758e 2f3f
00000200: c11c 443f 26fa a1bf c059 8fbf bff4 5bbf
00000210: 2503 80bd a30c eb3e fd10 183c c0fe ebbd
00000220: 3540 cb3f fbb0 e0be 5c7a a93e 0162 91be
00000230: 7738 1a3f c70f 37bd eb85 1dbf 6490 473e
00000240: c51f 043f e2f2 b8be d918 debf e342 24bf
00000250: b569 3a3e 5db4 c7be fd34 903d db73 c83d
00000260: 3a08 adbc e161 c2bc f936 2fbf fa88 d03e
00000270: 00ee 77bd c100 47bf 5d79 f6be 28c7 933e
00000280: ecfd b4be 119f 28bf 0a1a 16bf 2011 c7bf
00000290: 5e67 b63e 424d 183e 494f a2bf 4c65 c9bd
000002a0: 127b 703e 4367 1cbe 5704 41bf dba3 b93d
000002b0: f5a4 d73e 910c 1e3e 5bdb 833d 6a3b 4cbf
000002c0: 36e8 c63e 8b4d f3be 7b78 463e 6982 503f
000002d0: bd0b b8be 813f 12bf 991e ba3c 3a13 1f3e
000002e0: 9dbe d3bd b8fd 03bf e2f0 6a3f 6509 00bf
000002f0: fd89 14bb d3e2 9c3c e3d8 9b3f 2263 b33e
00000300: 966d 42be 688c 42be 4512 323e bc47 87bc
00000310: d9fd dc3e bbc3 2f3e 25b9 c43e d8fc 04bf
00000320: b1c8 dfbf ab16 17bf db5a be3d e4ab 813c
00000330: ed5f b5bc 042b 8f3e 777d 673d 75a9 b73e
00000340: 22b2 6bbe 6bbc f33e 4a8f b8bf 6d84 273e
00000350: 0d15 81bf e1a7 4b3e eccf 313f f80d b7be
00000360: f762 413c c2b3 e63d 3462 cbbc 4812 59bf
00000370: 8e05 90be f799 5dbe 0097 09bf 129f 1dbf
00000380: ea99 683e 4dad ccbf d57a 0c3f 48d1 103f
00000390: 08d5 153f 3289 8c3f 0173 febe 8428 aebd
000003a0: 2685 243f 152a 0b3e 452c 01bf 755a d73e
000003b0: b177 83be edf9 1c3f fea4 2e3e ac43 f5be
000003c0: a526 b1bf 8622 b8bc 6321 4c3f 7e86 9dbe
000003d0: a855 373f f4e2 903e 00b4 773e 0d0d fe3e
000003e0: f1b9 a23e 4066 693c ccc2 a6bf 1c48 b3bb
000003f0: 6cd7 8b3e f8d0 03bd 7c95 cb3d 59d0 e3be
-0.35027236 0.196433 0.6283511 0.34051633 0.49732822 0.13273226 0.2352471 0.08021389
-1.3335236 0.1975822 -0.10274931 0.4685118 -0.038873576 0.0014072981 0.7315438 -0.26803547
0.38990352 -0.033483047 0.37080243 0.18407425 0.03570912 -0.007528107 0.029137207 0.10247958
-0.326197 0.5008526 0.00944183 -0.40641958 -0.18652768 0.35764703 0.0055638645 0.048047934
0.13909559 0.2973966 0.4247072 0.27323845 -0.85171825 -0.04436989 0.22947283 -1.1375054
0.13205156 0.2362826 0.22522458 0.12879427 0.028013997 -0.6215866 0.38497728 0.14874418
0.04224654 0.9479247 -0.07751438 -0.22857524 0.73119926 0.41661218 0.04381603 0.2544906
0.20823795 0.26563367 -0.38386208 0.6482997 0.18388654 -0.11382858 -0.8724737 -0.03318471
-0.15304334 0.0023232736 0.1473431 0.22047064 0.11961735 0.026147624 0.11167271 0.8336832
0.8894017 -0.21718818 -0.44466928 -0.07088395 0.19730577 -0.31584 -0.3085677 -0.06415024
-0.5345972 -0.07201513 0.5618644 -0.037026443 0.10726095 -0.39640677 -0.45681098 0.44747847
0.08367444 0.22497453 0.03420116 0.12566303 0.24814245 -0.16789444 0.34771195 0.22956595
0.024857612 0.5377946 -0.027803624 0.115814194 -0.10736467 -0.12781416 0.37260455 -0.22726335
-0.6974298 -0.024280677 0.2260982 0.025939897 -0.36283886 -0.35871252 0.33180788 0.19507715
1.2680112 0.182951 -0.17849925 0.5897237 0.0709986 0.38916758 0.15786627 -0.101061225
0.1031415 -0.43818316 0.4483265 0.036064994 0.13841942 0.22649173 -0.066734046 0.6857675
0.76606375 -1.2654464 -1.1199265 -0.8592033 -0.062506 0.4590808 0.009281394 -0.11523199
1.587897 -0.43885025 0.33101165 -0.28395084 0.6024241 -0.04469278 -0.6153247 0.19488674
0.51610976 -0.36122805 -1.7351333 -0.6416456 0.18204387 -0.39004794 0.07041357 0.09787723
-0.021122087 -0.023728313 -0.68443257 0.40729505 -0.06052971 -0.77735525 -0.48139468 0.28862882
-0.35349977 -0.65867716 -0.5863348 -1.5552101 0.35625738 0.14873222 -1.2680446 -0.09833774
0.23484448 -0.15273766 -0.7539725 0.09064456 0.4211804 0.15434481 0.06438323 -0.7977816
0.38849038 -0.47520098 0.19381897 0.8144899 -0.35946456 -0.5712815 0.022719668 0.15534678
-0.10339091 -0.5155902 0.9177381 -0.50014335 -0.0022665255 0.019151127 1.2175564 0.3503657
-0.18987116 -0.18998873 0.17389782 -0.016513698 0.4316242 0.17164509 0.38422504 -0.5194831
-1.7483121 -0.59018964 0.09294673 0.015829034 -0.022140468 0.27962506 0.056516137 0.35871473
-0.23017171 0.4760469 -1.4418728 0.1635911 -1.0084549 0.1988826 0.6945789 -0.35752845
0.01180338 0.11264755 -0.0248271 -0.8479352 -0.28129238 -0.21640764 -0.5374603 -0.6157085
0.22714964 -1.5990387 0.54874927 0.5656934 0.58528185 1.0979369 -0.49697116 -0.085038215
0.6426567 0.13590272 -0.50458175 0.420612 -0.25677255 0.61318856 0.17055127 -0.47903192
-1.3839918 -0.0224774 0.79738444 -0.30766672 0.71615076 0.28298151 0.24189758 0.49619332
0.31782487 0.01424557 -1.3028197 -0.0054712426 0.2731279 -0.03218171 0.09940621 -0.44494894

net.2.bias f4 [128]
00000000: 4062 d63d fd38 e4bd 83ac bd3c 0e87 903e
00000010: eabc 4b3e 3464 88be d200 97bd f86d cdbc
00000020: 61a9 663d e7e0 14be 708f 5b3e 092b 883d
00000030: e236 1dbd d08d 183e 5151 dd3e 9ef6 d63d
00000040: 2954 5a3e 9a0e ab3e 1dfc 1f3e 48bb babc
00000050: da04 953d 1280 743e 155d 10bd 6893 e2bd
00000060: dc90 223d 141a bdbd 7bde 703d e15b 423c
00000070: bca8 c23c a443 cbbe 3e17 3ebe 2bda 593e
00000080: 1708 52bb c3c2 9bbe b3ce d0bd 917f 923e
00000090: a691 17bd 9b1a d83b d3e9 153e 15eb 553c
000000a0: 881d 5d3e c0ea 7c3c 4de6 bdbd 5ba0 6abd
000000b0: e9a5 e6bd 9e30 76bc 2c09 d03c b0bd 91be
000000c0: 33de bcbd 4f0c d2bd ca15 a73c 6652 9e3e
000000d0: f121 6bbe 6b16 d7bd 58b6 943d 0034 b13e
000000e0: 500e dcbe 20de cd3e 90b0 8a3e afff 973e
000000f0: db37 a63d 18dd 9b3d 3887 ca3e 00ef e43e
00000100: dcfa 9b3e e8ba acbe 5dba 9fba 65bc f0bd
00000110: 3509 993e a380 eabc 9c6c 50bd ff84 c5bd
00000120: 217f c2bd e6a3 903d 23eb c03d c1f2 143d
00000130: e3d3 2e3c 3bfc a5be 6e34 5d3d 2a13 cfbb
00000140: f2f2 213e 1e2b eb3d 351b 823d 6f6a 49bc
00000150: 3d52 42be bf8e 96be cc00 ab3e 4d8c e6bb
00000160: 5e99 4d3c 15f0 af3d 41e6 c33e 238f 00bc
00000170: 4aea 2dbd 0d69 c1bd 9bae bcbd 708f cfbd
00000180: fee5 a03c 0080 e13d 72df 40be 0244 9e3d
00000190: c0d8 8abd 50da d73d 1a5d cdbd 741e 8b3e
000001a0: dae1 03be 7a42 123e 493d 88be 6448 babe
000001b0: 2ef5 e03d 5fd5 12be a51d 843e 5f35 9f3d
000001c0: 67e4 02bd dcdb 933e 781f e9ba f1c9 383e
000001d0: a701 673e 165e 6cbd f1a9 b4bd f5cc c1bd
000001e0: 830f d63c a498 743d 9553 063e efaa cb3e
000001f0: 4ee7 1abd ce4e d63d a307 23bd f10f fc3e
0.104679585 -0.11143682 0.023153549 0.2822804 0.19896284 -0.2663895 -0.07373203 -0.025076851
0.056313876 -0.14538918 0.21441436 0.06648833 -0.03838242 0.14897847 0.43226102 0.10496257
0.21321167 0.33409578 0.15623517 -0.02279438 0.07276316 0.2387698 -0.03524502 -0.11063272
0.03968893 -0.0923349 0.058805924 0.011862726 0.0237621 -0.39700043 -0.18563554 0.2127463
-0.003204828 -0.3042203 -0.10195675 0.2861295 -0.037004136 0.0065949685 0.14639978 0.013056536
0.21593297 0.015436828 -0.09272442 -0.057281833 -0.112621136 -0.01502624 0.025394998 -0.28465033
-0.09222069 -0.10256254 0.020396132 0.3092224 -0.22962166 -0.10502323 0.07261342 0.34609985
-0.4297967 0.4020853 0.27087831 0.2968726 0.08116122 0.0761053 0.3955629 0.44713593
0.30464828 -0.33736348 -0.0012186278 -0.117546834 0.29889837 -0.028625792 -0.050884828 -0.096445076
-0.09496904 0.07062511 0.09419849 0.03636432 0.010670635 -0.32419 0.05400508 -0.006319423
0.15815333 0.11482833 0.063528456 -0.012293442 -0.18976684 -0.29405782 0.33399045 -0.007035768
0.012548773 0.08590714 0.38261607 -0.007846626 -0.042459764 -0.09443865 -0.09212991 -0.101347804
0.019640919 0.11010742 -0.18835238 0.07727815 -0.06779623 0.10539687 -0.10027523 0.2717167
-0.12879124 0.14283171 -0.26609257 -0.36383355 0.10984264 -0.14339207 0.25803867 0.077738516
-0.031956103 0.28878677 -0.0017785868 0.18045785 0.22559224 -0.057706915 -0.08821476 -0.094629206
0.026130443 0.059715882 0.13117822 0.3977885 -0.037818246 0.104642496 -0.039802205 0.49230912

net.4.weight f4 [4, 128]
00000000: b960 f3bd f8ff 963f 2e1f 52be 67df fe3f
00000010: 332d 693f fb3b f6be 2fb9 863e ee0c 5abd
00000020: 0069 6dbe dfc2 6dbf d41c 833f 47d0 303b
00000030: de43 2bbf d8fe f9be 0e36 9e3f a62d b1bf
00000040: 5541 773f d703 793f fea8 24be a3a7 3abe
00000050: 9763 303f a33e 34bf ef66 e93c c590 8c3f
00000060: 5aa9 15be bd16 8bbd c316 7fbf 7415 9abc
00000070: 03c0 5b3d 00ac 95be 140a 48bf 6698 b7bd
00000080: 53da 993f f75d 003f a08e b1bd 69fd 7b3f
00000090: a7f4 66bd 84fc 9cbd bcaa e1be 7880 863f
000000a0: cc8d 9f3f bf1c 7d3d 3640 c1bc 7457 5abf
000000b0: 2e5a 6fbf 5528 e4bd d326 76bd 1590 b83e
000000c0: 366f ad3c 86c2 16bd 969a 05bc 90f4 5cbf
000000d0: 6948 0bbf 7abf 07bd 888d 5ebe c237 77bf
000000e0: 003c febe a23f 9cbf a434 2f3f f549 1a3d
000000f0: 962c 63be c0b1 d93e ee4f 563f 749c 623f
00000100: f06c 83be ee66 13bf 12fd 22bd 4749 7bbf
00000110: 4d53 37bf 950c 473d 959b e63c 669f 25bd
00000120: 7ec1 76bd 9ab2 65bf f428 9bbd 1c14 8f3c
00000130: 1cee dd3c cedf 07bf fe83 ff3e 955f 9f3e
00000140: 741f 67be c556 fdbe 1e37 c7bc 9460 a5be
00000150: 2703 acbf f120 61bf 687a 393f c0da 3b3d
00000160: 8bb3 04be 89c7 78be 3f2d 483e 4abc b3bd
00000170: c7e1 32be b7ca 253d a1e8 ccbc 8f05 113d
00000180: 061e 8abd 4d43 45be 2467 82bf e913 bfbf
00000190: 6d6b 11bd f21b 21bf d735 8e3d da46 b8be
000001a0: 12b4 cc3a 33ba 613f 3e37 83bf 7bea 35bf
000001b0: f725 e3bd 68ea b0be e0f3 1dbf 0e5c e2bd
000001c0: aa1f 02be 9b7a 94bf d982 8ebd d3f4 ffbe
000001d0: 41ec 84be be24 2dbb bc53 f7be c2d7 0c3e
000001e0: 6178 b5be 878f 493f b119 61bf 02cd 49bf
000001f0: 40ff 673c 4250 873f 612b 4539 8bb3 b9bf
00000200: c17a 8cbe f422 b83f cfe0 68be b49f d53f
00000210: 6950 563f f752 dabe 28ad 8fbe 5c17 b0bc
00000220: 277a 92be 90f1 5cbe cc32 4a3f ba39 88be
00000230: 6eb2 413e f126 0abf 75b5 7b3f 4619 5abf
00000240: ef1d 663f a4e4 3d3f 4673 84be eab5 31be
00000250: d2db 453f 7e64 71bf 72f6 563d a82e 0a3e
00000260: 3ea7 64bc af21 203d 20bf bebd fb62 f13c
00000270: a111 1d3c d0e8 9bbe 9002 4ebf 1b77 c8bd
00000280: 261b 883f 513c 2abf e664 a13d 496b 5b3f
00000290: b0e0 b63c e5d4 5e3d 0b3b 74be c2bb 923f
000002a0: 1ea8 a23f 9b93 19bd 1950 213a 056d 6ebe
000002b0: 5ea2 49be 9db2 0cbf 18f3 19bd 158d fcbe
000002c0: e326 98bc 2cb4 eebd d90e 823d efdb 32bf
000002d0: 9a5e c6be cac4 dfbd b166 bebe 3277 88bf
000002e0: 7b27 26bf 390a fbbe cb0d 893f a290 85bd
000002f0: 13ca 00be b2ae 9a3e c9cf 413f ef2f 373f
00000300: be1e 86be 4f91 d4be 7bce 823b eb49 c0be
00000310: ee32 89bf 2487 bc3b da52 57bd 7dca 74bd
00000320: 33e6 57bd c36e 4fbf d033 bcbe e693 0a3d
00000330: c2df f2be 24b2 9dbe 9a8f ed3e 8c6d 2f3d
00000340: d427 6abe 7a32 0f3e 8e61 013d 06b8 a9be
00000350: f08f 25be 6078 14bf baa9 663f 4afd 993d
00000360: 210c 84be b298 79be 55f9 673f 27df 3ebd
00000370: ff14 5dbc d75e 473d 2cba 383d bc4c 8f3c
00000380: 73e0 87be 2839 82be dad1 64bf f370 a9be
00000390: ecbe 4f3d c50c 88be 0ecd 713b 65e5 e7be
000003a0: 755a 12bf c875 8c3f 84cf 76bf 65f3 eebe
000003b0: 5502 11be 206f 79be 779d 59be eec3 72be
000003c0: f487 4dbf 8bd4 47bf 9e05 823d 3937 42bf
000003d0: a0e5 a0be d76e 02bd de2f b0be 251a adbe
000003e0: 7b67 fdbe 11f8 ec3e d4eb 22bf 9aaf adbf
000003f0: 8c1a 60be e4c2 803f 80cb 883d d1f2 85bf
-0.11883683 1.1796865 -0.20519707 1.9911927 0.91084594 -0.48092636 0.2631316 -0.053234987
-0.23184586 -0.92875475 1.0243173 0.0026979612 -0.6690043 -0.48827243 1.2360246 -1.3842056
0.96584064 0.97271484 -0.1608009 -0.18228011 0.6890196 -0.70408076 0.028491465 1.098168
-0.14615384 -0.06791446 -0.99644107 -0.018809058 0.053649914 -0.29232788 -0.7814038 -0.089646146
1.2019752 0.5014338 -0.08669782 0.9843355 -0.056385662 -0.07665351 -0.44075572 1.0507956
1.2465148 0.061794993 -0.023590188 -0.8528969 -0.9349698 -0.11140505 -0.06009562 0.36047426
0.021171194 -0.036806606 -0.008154532 -0.8631067 -0.54407364 -0.03314159 -0.21733677 -0.96569455
-0.4965515 -1.2206919 0.684397 0.037668187 -0.22184977 0.42518425 0.83715713 0.8851998
-0.2566905 -0.57578933 -0.039792128 -0.9815869 -0.7161148 0.048595984 0.02815036 -0.040435217
-0.060243122 -0.8972565 -0.075761706 0.017465644 0.027091078 -0.53075874 0.4990539 0.3112761
-0.22570592 -0.49480262 -0.024318274 -0.32300246 -1.3438462 -0.8794089 0.724524 0.045862913
-0.12959115 -0.24294867 0.1954851 -0.08776148 -0.1746894 0.040476527 -0.02501327 0.03540569
-0.06744008 -0.19263954 -1.0187726 -1.4927951 -0.03550284 -0.62933266 0.06943863 -0.35991555
0.001561763 0.8817474 -1.0251234 -0.71060914 -0.110912256 -0.34553838 -0.6170025 -0.11052714
-0.12707391 -1.1599916 -0.06958551 -0.49991474 -0.25961497 -0.0026419605 -0.48306072 0.1375418
-0.35443404 0.7873463 -0.87929827 -0.7882844 0.014159977 1.0571368 0.00018803544 -1.4507917
-0.27437404 1.4385667 -0.22742008 1.6689363 0.83716446 -0.42641422 -0.28061795 -0.021495514
-0.2860882 -0.21576524 0.7898376 -0.26606542 0.18915722 -0.5396567 0.98323756 -0.85194814
0.89889425 0.74177 -0.25869197 -0.17354551 0.77288544 -0.94293964 0.052481122 0.1349436
-0.013955889 0.039094623 -0.09313798 0.029466143 0.009586723 -0.3045106 -0.8047266 -0.097883426
1.0633285 -0.66498286 0.07880573 0.8571058 0.022323936 0.05440225 -0.23850648 1.1463549
1.2707555 -0.037494283 0.0006153598 -0.23283775 -0.19690844 -0.5496004 -0.037585348 -0.49326387
-0.01857323 -0.11655459 0.06350488 -0.6986684 -0.3874405 -0.109262064 -0.37187722 -1.0661376
-0.6490399 -0.49031237 1.0707334 -0.06521727 -0.12577085 0.30211407 0.7570768 0.71557516
-0.2619533 -0.41517112 0.0039918995 -0.37556395 -1.0718668 0.0057534147 -0.052569248 -0.05976342
-0.05270977 -0.81028384 -0.3675828 0.033832453 -0.4743634 -0.30799973 0.46398622 0.04282908
-0.22866756 0.13984099 0.031587176 -0.3314821 -0.16168189 -0.5799618 0.9010273 0.07519014
-0.25790504 -0.24374655 0.90614825 -0.046599533 -0.013493775 0.04867443 0.045099422 0.017492644
-0.2653843 -0.25434232 -0.8938271 -0.33093986 0.050719187 -0.26572242 0.0036895904 -0.45292202
-0.57169276 1.0973444 -0.96410394 -0.4667007 -0.14161046 -0.24358797 -0.21251474 -0.23707554
-0.80285573 -0.7805869 0.06348728 -0.75865513 -0.3142519 -0.031843986 -0.3441152 -0.3380901
-0.49493012 0.4628301 -0.63641095 -1.3569214 -0.21885127 1.0059476 0.066794395 -1.0464727

net.4.bias f4 [4]
00000000: 32bd 30bd 33bb 43bd de9b bfbd ec26 b43d
-0.04314918 -0.04778595 -0.09355901 0.08796486
