lunar_large.pth (torch, 409392 bytes, 8 tensors)

net.0.weight f4 [256, 8]
0	0x3e0ca028	0.1373297
1	0x3ebc7e76	0.36815232
2	0x3e541a9d	0.20713277
3	0xbd0aba74	-0.03386922
4	0xbe75207f	-0.23938178
5	0xbe6eff3f	-0.23339556
6	0xbe7b69c8	-0.24552071
7	0xbe3737c8	-0.17892373
8	0x3e44117c	0.19147295
9	0xbf20f688	-0.62876177
10	0x3e02d6e0	0.12777281
11	0xbea7d517	-0.32779762
12	0xbebe6dc6	-0.37193125
13	0xbe0021aa	-0.12512842
14	0xbeae3be0	-0.34030056
15	0xbd8cf750	-0.068831086
16	0x3cdf2f1f	0.027244149
17	0x3e481861	0.1954055
18	0x3ecb5dc9	0.3971999
19	0xbd89366a	-0.06699832
20	0x3e4a75d1	0.19771506
21	0x3e9a0692	0.30083138
22	0xbe296a56	-0.1654447
23	0xbdd7c7a9	-0.10536129
24	0xbe12f5a2	-0.14351514
25	0x3f02e9ad	0.5113781
26	0x3e8cde59	0.27513388
27	0xbe542b1e	-0.20719573
28	0x3e8f87d2	0.2803331
29	0xbede665f	-0.43437478
30	0xbd5b3af5	-0.053523023
31	0xbdb24436	-0.087044165
32	0x3efd9688	0.4952891
33	0xbe852fc7	-0.26013014
34	0x3e8a50b2	0.2701469
35	0xbe8ebbbe	-0.2787761
36	0x3c5be5ff	0.013421535
37	0xbda00429	-0.078132935
38	0x3ecb023c	0.39650142
39	0x3d97af4c	0.07406482
40	0x3f14184f	0.5784959
41	0xbe4c3071	-0.19940354
42	0x3ec87c17	0.39157173
43	0xbe9760ae	-0.29565948
44	0x3df3836b	0.118903
45	0x3d0a1cd6	0.033718906
46	0xbddde0a8	-0.108338654
47	0x3e300ac8	0.17191613
48	0x3dc28bc1	0.09499312
49	0x3e1c6586	0.15273103
50	0x3e97b9e6	0.29634017
51	0xbe5e1d99	-0.21690978
52	0xbc9bda7f	-0.019025085
53	0x3d0d8381	0.03454924
54	0xbe5abf6c	-0.21362084
55	0xbe8ae6ac	-0.27129114
56	0x3dab6dd9	0.08370561
57	0x3ed39501	0.41324618
58	0x3da9a712	0.08283819
59	0xbef5a78c	-0.4797939
60	0xbe4e9621	-0.20174457
61	0x3d77fa67	0.060541537
62	0x3e231d03	0.15929036
63	0xbe125995	-0.14291985
64	0x3c88d303	0.01670218
65	0x3e2b990f	0.16757606
66	0xbe30f355	-0.17280324
67	0x3deea581	0.11652661
68	0x3dea4a61	0.11439968
69	0x3f06288b	0.52405614
70	0x3e8d8a84	0.27644742
71	0x3c280fbe	0.0102576595
72	0x3ea49282	0.32143027
73	0xbe43d7cd	-0.1912529
74	0x3e6b5abb	0.2298383
75	0xbeb4fd40	-0.35349464
76	0xbdfa1bd4	-0.12212339
77	0xbd8570d3	-0.0651566
78	0x3ec8c39f	0.39211747
79	0xbeb624c0	-0.35574913
80	0x3e6cdefe	0.2313194
81	0x3d67d0be	0.056595556
82	0xbe196311	-0.14979197
83	0xbe7ec9c2	-0.24881652
84	0x3ee8e56b	0.45487532
85	0xbe761666	-0.24031982
86	0x3db60181	0.088870056
87	0xbdabb5fd	-0.08384321
88	0x3eb91c36	0.36154336
89	0x3f05bdce	0.52242744
90	0xbea32d23	-0.31870374
91	0xbe8889d1	-0.26667646
92	0xbdddca87	-0.10829645
93	0xbd8bb011	-0.068206914
94	0x3eb34977	0.35016987
95	0xbe881e39	-0.26585558
96	0xbe2e7c71	-0.17039658
97	0xbf1899c5	-0.59609634
98	0x3df60da9	0.12014324
99	0xbf250101	-0.64454657
100	0xbe451a3d	-0.1924829
101	0x3df56965	0.11982993
102	0x3e40fedc	0.18847221
103	0x3bc86b25	0.0061162882
104	0xbc32d33c	-0.01091462
105	0xbf050f5e	-0.51976573
106	0x3d487291	0.048937384
107	0xbd808dd0	-0.062770486
108	0xbec964e0	-0.39334774
109	0xbe81ef61	-0.25377944
110	0xbf0b19e4	-0.5433638
111	0x3e88e4ee	0.2673716
112	0xbccfc1ef	-0.02536103
113	0x3e97aa07	0.29621908
114	0x3e267b12	0.16257885
115	0x3d633cfc	0.05547808
116	0xbd3a0788	-0.04541734
117	0xbe8bdb93	-0.2731596
118	0xbd8a65d2	-0.06757702
119	0xbe7fa2d9	-0.24964465
120	0xbdec0aab	-0.11525472
121	0x3ec819b1	0.390821
122	0xbd2be974	-0.041970685
123	0x3f1b0ae3	0.60563487
124	0x3e9a5567	0.30143282
125	0xbed150a7	-0.40881845
126	0x3b5200a5	0.0032043841
127	0xbca1598b	-0.019696018
128	0x3e8d58f9	0.27606943
129	0xbf4660d3	-0.7749149
130	0x3e7b5e76	0.24547753
131	0xbe1c74fa	-0.15278998
132	0xbe5a8e13	-0.2134326
133	0xbd91c630	-0.071178794
134	0x3ce107e4	0.027469583
135	0x3e6fc1c3	0.23413758
136	0x3ea9e06c	0.33179033
137	0x3e965073	0.29358253
138	0xbd6a858b	-0.057256263
139	0xbdb6997f	-0.08915996
140	0x3ed38ae0	0.4131689
141	0x3ef62f48	0.48082948
142	0xbde8c16d	-0.11365018
143	0x3d99d18f	0.07510673
144	0x3e9838af	0.29730746
145	0x3ecbcadf	0.39803216
146	0x3dcd08f7	0.100114755
147	0x3db62cb7	0.088952474
148	0xbad0c886	-0.0015928901
149	0xbeb48051	-0.35254148
150	0x3d471845	0.04860713
151	0xbed92ee9	-0.42418602
152	0x3e031b40	0.12803364
153	0xbda7623a	-0.08173032
154	0xbe491be3	-0.19639544
155	0x3ec77448	0.38955903
156	0xbef1261c	-0.47099388
157	0x3ea69fc9	0.3254378
158	0xbe9946b4	-0.29936755
159	0xbe70659a	-0.23476258
160	0x3e2e6a54	0.17032748
161	0xbe7d2299	-0.24720229
162	0xbe43fd2b	-0.19139545
163	0xbe8db6ef	-0.2767863
164	0x3e758ca3	0.2397943
165	0x3e2f4366	0.17115554
166	0x3eb81419	0.35952833
167	0xbeac1a82	-0.33613974
168	0x3e746465	0.23866422
169	0x3bf00df0	0.00732588
170	0x3ea76d1a	0.32700425
171	0xbe5a7750	-0.21334577
172	0x3d5ea34e	0.05435496
173	0x3e268657	0.16262184
174	0x3e34c489	0.17653097
175	0x3e18393a	0.1486558
176	0x3db5b002	0.088714615
177	0xbeedacdc	-0.46420944
178	0x3e57531c	0.21027797
179	0x3dc93b9e	0.09825824
180	0xbb221548	-0.0024731923
181	0xbea8339c	-0.32851875
182	0x3ed58324	0.41701615
183	0xbcd5ac37	-0.026083095
184	0xbed4129a	-0.41420442
185	0x3ccf4583	0.0253017
186	0xbef0d323	-0.47036085
187	0x3e22cbe5	0.15898092
188	0xbe6ec444	-0.23317057
189	0xbeb4ccc7	-0.35312483
190	0xbd1dd26b	-0.03853075
191	0xbe11fb6f	-0.1425607
192	0xbd0d19ef	-0.03444856
193	0x3e76fe8c	0.2412054
194	0xbe9b85b2	-0.3037544
195	0xbdcd8c8e	-0.10036574
196	0xbe2eaadb	-0.17057364
197	0x3e621311	0.22077586
198	0xbeede5aa	-0.46464282
199	0xbe289a46	-0.164651
200	0x3ba1a190	0.00493259
201	0xbe2caa81	-0.16861917
202	0x3e0de8f3	0.13858394
203	0x3ce57c03	0.028013235
204	0xbede0de9	-0.43369988
205	0xbe053f36	-0.13012394
206	0xbbbb341b	-0.0057129986
207	0xbe8cb28b	-0.27479967
208	0x3c9a4ca2	0.01883537
209	0xbe5a13bc	-0.2129659
210	0xbd829ad1	-0.06377185
211	0xbebc4151	-0.36768582
212	0x3d2a011a	0.041504957
213	0xbea05fd2	-0.31323105
214	0x3ec51c79	0.38498285
215	0x3e2d6ecc	0.16936797
216	0x3e877c82	0.2646218
217	0x3e89b3d0	0.26895
218	0xbe4d91b2	-0.2007511
219	0x3dca2fb1	0.09872378
220	0x3e2b83c3	0.16749482
221	0xbf021715	-0.5081647
222	0xbeb374a2	-0.3504992
223	0xbd8bf033	-0.06832924
224	0x3da80465	0.08203963
225	0xbe56cced	-0.2097661
226	0xbe73d2c2	-0.23810866
227	0xbc9189d1	-0.017765911
228	0x3ed5f1f7	0.41786167
229	0x3e883d2d	0.26609173
230	0x3d609613	0.054830622
231	0x3d9009ce	0.0703312
232	0xbe26c050	-0.16284299
233	0xbe92242d	-0.28543225
234	0x3c9c3d51	0.019072207
235	0xbdb3b517	-0.087747745
236	0x3e705a5d	0.23471971
237	0x3e6a07d8	0.22854555
238	0x3e615701	0.22005846
239	0x3e00bf07	0.12572871
240	0x3e3f1ed8	0.1866411
241	0x3d7bc14c	0.06146364
242	0x3de17c32	0.110100165
243	0xbe48f68b	-0.19625299
244	0x3e972887	0.29523107
245	0xbeafc5b2	-0.34330517
246	0x3dabef01	0.08395196
247	0xbebc9d86	-0.3683893
248	0xbd2b9e6d	-0.041899133
249	0x3e38e2eb	0.18055312
250	0x3e952539	0.2912996
251	0x3f0b8d18	0.54512167
252	0x3edbe8eb	0.4295114
253	0x3ecfd954	0.40595496
254	0xbe8a48e3	-0.27008733
255	0xbd9c3a26	-0.076282784

net.0.bias f4 [256]
0	0x3d1202c1	0.035647158
1	0x3e928d5d	0.28623477
2	0xbed14999	-0.40876463
3	0x3db38af9	0.08766741
4	0x3ced8a82	0.02899671
5	0xbe30dd4b	-0.17271917
6	0x3e84cec9	0.25939015
7	0xbde3c486	-0.11121468
8	0xbc504851	-0.012712554
9	0xbe0e8629	-0.13918366
10	0xbe165b8c	-0.1468336
11	0x3ee145ac	0.43998468
12	0x3e06bd53	0.13158159
13	0xbdafca61	-0.085835226
14	0xbd3ebffe	-0.046569817
15	0x3de5785e	0.11204599
16	0xbe6bd106	-0.23028955
17	0xbe22ee5d	-0.15911241
18	0xbe269652	-0.1626828
19	0x3cc6cc6f	0.024267403
20	0xbeadee39	-0.33970812
21	0xbe689b6d	-0.2271554
22	0x3e808112	0.25098473
23	0xbe5585d3	-0.20851831
24	0xbd793efd	-0.060851086
25	0xbea3283c	-0.31866634
26	0x3deee2c0	0.11664343
27	0x3d056df8	0.032575577
28	0xbeee77f2	-0.46575886
29	0x3dd93075	0.106049456
30	0x3e9cf4b3	0.3065544
31	0xbec79b0b	-0.38985476
32	0xbd0a4946	-0.033761285
33	0x3d38b551	0.04509479
34	0xbe873525	-0.26407734
35	0x3dd8b628	0.105816185
36	0xbea0c7a5	-0.31402317
37	0xbea6b66b	-0.3256105
38	0x3eb9e98a	0.3631099
39	0xbdd735bb	-0.10508295
40	0xbe2214a9	-0.15828194
41	0x3e33400f	0.17504905
42	0x3e6c2ce9	0.23064007
43	0x3ee604af	0.44925448
44	0xbd295bc4	-0.04134728
45	0x3e6f833b	0.23389904
46	0x3eca33fc	0.39492786
47	0x3e155bda	0.1458582
48	0x3eb4db51	0.35323575
49	0x3f08b705	0.53404266
50	0xbd1f0019	-0.038818453
51	0x3ea3b887	0.3197672
52	0x3d2d04bd	0.042240847
53	0x3ef5468e	0.4790539
54	0x3f02b5c5	0.5105861
55	0x3ca7376c	0.02041217
56	0x3ef00620	0.46879673
57	0x3e550095	0.20801003
58	0x3e48883a	0.19583216
59	0x3be3059e	0.00692816
60	0x3eb8ca05	0.3609163
61	0x3d2a4f73	0.041579675
62	0xbd5e83ec	-0.05432503
63	0x3e486ca4	0.19572693
64	0xbe441048	-0.19146836
65	0xbd720663	-0.059088122
66	0x3d3cb8e2	0.046074755
67	0xbcb2eaca	-0.021840472
68	0xbdbdf06a	-0.09274371
69	0xbe9b5750	-0.30340052
70	0xbda12616	-0.078685924
71	0x3edb49cc	0.4282974
72	0xbe220932	-0.1582382
73	0x3e0d4654	0.1379636
74	0x3cac3a0d	0.021023775
75	0x3ed9f675	0.42570844
76	0x3eab8ab0	0.33504248
77	0xbdec20c7	-0.11529689
78	0x3d11d370	0.035602033
79	0x3e8de476	0.27713364
80	0x3ea0dad8	0.31416965
81	0x3e2060a5	0.15661867
82	0xbdfc1487	-0.12308603
83	0x3e057df0	0.13036323
84	0xbedd7933	-0.4325653
85	0x3e35c9f0	0.17752814
86	0xbd91c6a2	-0.07117964
87	0xbeebb313	-0.4603506
88	0x3e0c397b	0.13693802
89	0x3eca129a	0.39467317
90	0x3e99a866	0.3001129
91	0x3e995ac8	0.29952073
92	0xbe99da29	-0.30049255
93	0x3e2cd968	0.16879809
94	0xbd5c137b	-0.053729516
95	0x3e3c16bf	0.18368052
96	0x3d5eaa42	0.05436159
97	0xbe3a541c	-0.18196148
98	0x3e8607f9	0.26177958
99	0x3eaf6f56	0.3426463
100	0x3cb5c522	0.022188727
101	0xbaedf3ef	-0.0018154363
102	0xbe942e16	-0.2894141
103	0x3d613ad2	0.054987736
104	0xbeb8a495	-0.36063066
105	0x3de86a37	0.11348384
106	0xbe8ccd5a	-0.2750042
107	0xbe10ebed	-0.14152499
108	0x3e8451df	0.25843713
109	0x3e27079d	0.16311498
110	0x3ea78bd1	0.3272386
111	0x3ee2b2ef	0.4427714
112	0xbe4c86ed	-0.19973345
113	0xbd17fab8	-0.03710434
114	0xbc584c39	-0.013201767
115	0x3e0c5213	0.13703184
116	0x3d3ecb49	0.046580587
117	0x3caefc96	0.021360677
118	0x3ed2ba1a	0.4115761
119	0xbec69b5f	-0.38790414
120	0x3d268320	0.040652394
121	0xbdb37890	-0.0876323
122	0x3e021af0	0.12705588
123	0x3da002b7	0.07813018
124	0x3e2b8a06	0.1675187
125	0x3d5d942f	0.054096397
126	0x3e99169f	0.2990007
127	0x3eecdfa8	0.46264386
128	0xbe6dd486	-0.23225603
129	0x3d1bb599	0.038014982
130	0x3e524707	0.20534907
131	0x3da2ed8d	0.079554655
132	0xbe59620c	-0.21228808
133	0x3ee7c948	0.45270753
134	0x3e614b6f	0.22001432
135	0x3ea8ade7	0.32945177
136	0x3e43ccdf	0.19121121
137	0xbe5e4698	-0.21706617
138	0xbdd057b5	-0.10172979
139	0xbe8a3ac3	-0.26997957
140	0xbe851157	-0.25989792
141	0x3d53e288	0.05172971
142	0x3c207757	0.009794078
143	0xbea68f2f	-0.32531115
144	0x3e8519f4	0.25996363
145	0x3ee2802d	0.44238415
146	0x3e8c4f0a	0.27404052
147	0x3d44d164	0.048051253
148	0xbce8fe6c	-0.02844163
149	0xbe7d1986	-0.24716768
150	0x3e7e4b50	0.24833417
151	0xbe654f05	-0.22393425
152	0x3eabe5a5	0.33573642
153	0xbea34572	-0.3188892
154	0xbe4a52eb	-0.19758193
155	0xbe83d6cf	-0.25749823
156	0xbe8a730b	-0.27040896
157	0x3ead1425	0.33804432
158	0xbe10c69f	-0.14138268
159	0x3e4a676d	0.19766016
160	0x3e7132c2	0.23554519
161	0xbe048f5e	-0.12945315
162	0x3e2c26f7	0.16811739
163	0x3e180f8c	0.1484968
164	0x3dc2d1df	0.09512686
165	0xbdfc2b03	-0.12312891
166	0xbe866f90	-0.2625699
167	0x3f121c93	0.5707485
168	0x3d95c746	0.07313399
169	0xbe400d6b	-0.18755119
170	0xbecb0876	-0.39654893
171	0xbe4645c1	-0.19362547
172	0xbcb6416d	-0.022247994
173	0x3e4b0709	0.19826902
174	0xbe0be197	-0.13660274
175	0x3d62531d	0.055255044
176	0xbe90449a	-0.2817734
177	0x3eac5ee3	0.33666143
178	0x3e4da9bc	0.2008428
179	0x3ebbdf12	0.36693627
180	0xbf1d9080	-0.61548615
181	0xbe34e729	-0.17666306
182	0xbea7efcf	-0.32800147
183	0xbcff0d4b	-0.031134268
184	0x3edbf772	0.42962223
185	0x3edf1fbf	0.43578908
186	0x3c2e9345	0.010655229
187	0x3d9b8f44	0.07595685
188	0xbe8052fd	-0.25063315
189	0x3d5197ec	0.051170275
190	0x3e9a2676	0.30107468
191	0x3e1a290d	0.15054722
192	0xbe5d12db	-0.21589224
193	0xbdaf004d	-0.08544979
194	0xbe04d1b3	-0.12970619
195	0xbd66c418	-0.056339353
196	0x3e621987	0.2208005
197	0x3d5fdbeb	0.05465309
198	0xbe165e21	-0.14684345
199	0xbd9fece2	-0.07808854
200	0xbdd5e298	-0.1044361
201	0xbddecb1e	-0.10878585
202	0x3e03f3b2	0.12885931
203	0x3e06fe54	0.13182956
204	0xbd19cf32	-0.037551112
205	0xbe1ead51	-0.15495802
206	0x3eaa00a7	0.33203623
207	0xbebced29	-0.3689969
208	0xbe3c0b78	-0.1836375
209	0xbe288268	-0.16455996
210	0xbdd29836	-0.10282938
211	0x3e694b3b	0.22782604
212	0x3dbabd91	0.09118188
213	0xbba8d668	-0.0051525123
214	0xbdabc3ef	-0.08386981
215	0x3e9a51d4	0.30140555
216	0x3d30fc5b	0.043209415
217	0x3dc92269	0.09821016
218	0xbe975aae	-0.2956137
219	0xbee749fe	-0.4517364
220	0xbe8b61ae	-0.2722296
221	0xbde45bad	-0.11150298
222	0x3e09ae9b	0.13445513
223	0x3ece698a	0.40314895
224	0xbe761f5a	-0.24035397
225	0xbf0d7ad2	-0.55265534
226	0x3e05f394	0.13081199
227	0xbebf64a2	-0.37381464
228	0x3dd13d46	0.10216765
229	0x3d95fb9f	0.073233835
230	0x3d816251	0.063175805
231	0x3d01ff8b	0.031737845
232	0x3e823748	0.254328
233	0xbe084c0d	-0.13310261
234	0x3d6e634f	0.058200177
235	0x3d6a518e	0.057206683
236	0x3e7a36ef	0.24435018
237	0x3e44a3cc	0.19203109
238	0x3e84dd50	0.25950098
239	0x3ea448fe	0.3208694
240	0xbeb1a8a7	-0.34698984
241	0xbeae5a61	-0.3405333
242	0xbd7ec7ab	-0.062202137
243	0x3eb4877b	0.35259613
244	0x3d07da95	0.03316744
245	0x3ea05a35	0.31318823
246	0xbe3b9c3c	-0.18321317
247	0xbddce141	-0.10785151
248	0x3e11353c	0.14180464
249	0xbca8445a	-0.020540405
250	0x3e5eb002	0.21746829
251	0x3e44d3e4	0.19221455
252	0x3d887298	0.06662482
253	0xbe5f9fb5	-0.21838267
254	0xbeace981	-0.337719
255	0xbc2ed2f5	-0.010670413

net.2.weight f4 [256, 256]
0	0xbd082e00	-0.033246994
1	0xbcb85994	-0.022503652
2	0x3d368b30	0.044566333
3	0x3d0dd03e	0.034622423
4	0xbd139bc8	-0.036037236
5	0xbcf5f134	-0.030022241
6	0x3d043eda	0.032286502
7	0x3d540062	0.051758178
8	0xbc06c310	-0.008225217
9	0xbd0a2056	-0.033722244
10	0xbc85a1bc	-0.016312473
11	0x3bf4c070	0.0074692294
12	0xbd5c7116	-0.053818785
13	0x3d384350	0.04498607
14	0xbc839e4c	-0.016066693
15	0x3ca074d4	0.019586958
16	0xbc4dac90	-0.012553349
17	0xbd20d6a8	-0.039267212
18	0x3d6c676c	0.05771582
19	0xbd07d296	-0.033159815
20	0x3ca26a14	0.019825973
21	0xbc72abb0	-0.014811441
22	0xbd2dea3c	-0.04245971
23	0x3ccc65f8	0.024950966
24	0xbd4b7e98	-0.049681276
25	0xbd4e4fc2	-0.05036903
26	0x3c0578a8	0.0081464425
27	0xbd1dac2e	-0.03849428
28	0x3ba13b60	0.004920408
29	0xbcca9c64	-0.024732776
30	0x3c4f93a0	0.012669474
31	0x3d536724	0.051612034
32	0xbd05025a	-0.032472946
33	0xbc195b98	-0.009360217
34	0x3cba779c	0.022762112
35	0x3d0d9130	0.03456229
36	0xbd387014	-0.04502876
37	0xbd12b63e	-0.03581833
38	0x3c21e4d8	0.009881221
39	0xbcdf8178	-0.027283415
40	0xbcbc72e8	-0.02300401
41	0xbd5d6b60	-0.05405748
42	0x3d1879b0	0.037225425
43	0x38f7b800	0.000118121505
44	0xbd048f86	-0.032363437
45	0x3d540628	0.051763684
46	0xbcaafcd0	-0.020872504
47	0x3c931f24	0.017959185
48	0xbd14c890	-0.036324084
49	0xbcfebb64	-0.031095214
50	0x3d5bebf4	0.05369182
51	0xbcdeeee8	-0.027213529
52	0x3d7dc0be	0.06195139
53	0xbb4126a0	-0.0029472485
54	0x3d76c410	0.060245574
55	0xbcc439a0	-0.023953259
56	0xbc940608	-0.018069282
57	0xbc9e910c	-0.019356273
58	0xbced9534	-0.02900181
59	0x3d364a08	0.044504195
60	0xbd7c5176	-0.061601125
61	0x3b224920	0.0024762824
62	0x3ccde598	0.025133893
63	0xbc9dc714	-0.019259967
64	0x3ce0a3ec	0.027421914
65	0x3d70a2ac	0.058748886
66	0xbd4285d2	-0.047490902
67	0x3c1046e0	0.00880596
68	0xbceed6d8	-0.02915518
69	0x3c06f2a8	0.008236565
70	0x3c8fc748	0.01755108
71	0xbd57a45e	-0.052646987
72	0xbccbcd00	-0.024878025
73	0x3cbf6110	0.023361713
74	0xbd13345a	-0.0359386
75	0xbd7f9f8a	-0.062408008
76	0x3d0b0442	0.033939607
77	0xbbf9f140	-0.007627636
78	0xbd0c9286	-0.034319423
79	0x3b5e23a0	0.0033895746
80	0xbd5687ec	-0.05237572
81	0xbd1c58f6	-0.038170777
82	0xbd72f472	-0.059315152
83	0x3c9c88b8	0.019108161
84	0x3d76124c	0.060076043
85	0xbd5f6cf4	-0.054547265
86	0x3b041340	0.0020153075
87	0x3c21c330	0.0098731965
88	0xbd7656ac	-0.06014125
89	0xbbfaafa0	-0.0076503307
90	0x3cc7b888	0.024379984
91	0xbd2d688a	-0.042336024
92	0x3d4bb762	0.049735434
93	0x3bd9cbd0	0.006646611
94	0xbd41d8e4	-0.047325984
95	0xbd1cbb48	-0.038264543
96	0xbc3af3f0	-0.011410698
97	0x3c03d040	0.008045256
98	0xbd467544	-0.048451677
99	0x3d014062	0.03155554
100	0x3d368972	0.04456467
101	0xbd1f4c44	-0.038891092
102	0x3d3e69fe	0.0464878
103	0x3d2387fe	0.039924614
104	0x3d4b058e	0.049565844
105	0x3b5a9540	0.003335312
106	0xbc2d5e88	-0.01058162
107	0x3d3c87cc	0.046027943
108	0x3d28e2f6	0.04123207
109	0xbcd470d8	-0.025932714
110	0xbd07c6b6	-0.03314849
111	0xbd664c78	-0.05622527
112	0x3cceef98	0.025260732
113	0x3ce6be30	0.02816686
114	0xbd2f634c	-0.042819306
115	0xbc064108	-0.008194216
116	0x3d08eba0	0.033427835
117	0xbd6dbe36	-0.058042727
118	0x3ac51080	0.0015034825
119	0xbbf21450	-0.0073876753
120	0x3d1369a8	0.035989434
121	0xbd7f048c	-0.062260196
122	0xbd17ce90	-0.037062228
123	0xbd3b49b6	-0.045724593
124	0xbd660958	-0.056161255
125	0xbd6c3c36	-0.05767461
126	0xbc4106f8	-0.011781447
127	0xbcef72cc	-0.029229544
128	0x3b2c6460	0.0026304945
129	0x3c47a180	0.012184501
130	0xbd7fad8c	-0.062421367
131	0xbd5a51ce	-0.05330067
132	0x3bce95c0	0.0063044727
133	0xbcebd1c0	-0.02878654
134	0xbc936e98	-0.017997071
135	0x3c31b888	0.010847218
136	0x3caa0f44	0.020759232
137	0xbc70f628	-0.014707126
138	0xbcf6997c	-0.030102484
139	0x3d2fb522	0.04289735
140	0xbb92f5a0	-0.004484847
141	0xbce0e3d8	-0.027452394
142	0x3cd6c7e8	0.02621837
143	0xbb80b790	-0.0039281324
144	0xbd21c2ae	-0.0394923
145	0xbd3da552	-0.04630024
146	0xbd600ce2	-0.054699786
147	0xbccbeb08	-0.024892345
148	0xbca19e50	-0.01972881
149	0x3cf223b0	0.029558033
150	0xbb05cb20	-0.0020415261
151	0x3d7c2082	0.06155444
152	0x3d682020	0.05667126
153	0xbd4d4eae	-0.050123863
154	0xbd0627c0	-0.032752752
155	0xbcb07ef4	-0.021544911
156	0xbd69bd7a	-0.057065465
157	0xbc9713d0	-0.018442065
158	0x3d291bec	0.041286394
159	0x3c9fa354	0.01948706
160	0xbcecaf7c	-0.028892271
161	0xbc435758	-0.01192268
162	0x39b1c800	0.00033909082
163	0xbd675bbe	-0.056483977
164	0xbd218aa0	-0.039438844
165	0x3d0d3b14	0.03448017
166	0x3d560c34	0.05225773
167	0x3d690af4	0.05689521
168	0x3cbf4aac	0.023351036
169	0x3c31a3e0	0.0108422935
170	0xbbd246d0	-0.006417133
171	0xbd06347a	-0.03276489
172	0x3b3f6100	0.0029202104
173	0x3d69e974	0.057107404
174	0xbd3547c4	-0.044257894
175	0xba7f4e80	-0.00097391754
176	0xbc61ef70	-0.0137899965
177	0xbd309f0a	-0.04312042
178	0x3ca01b28	0.0195442
179	0xbc7e55f0	-0.015523419
180	0x3d0c1ee6	0.034209155
181	0x3d2b770e	0.041861586
182	0xbc849b0c	-0.016187213
183	0xbbb88030	-0.0056305155
184	0x3cdfdd68	0.027327254
185	0x3d438814	0.047737196
186	0xbd28ad18	-0.0411807
187	0x3d0ccade	0.034373157
188	0x3d5b17a6	0.05348935
189	0x3b910660	0.004425809
190	0x3d23e888	0.04001668
191	0x3c0999d0	0.008398488
192	0xbd148cde	-0.036267154
193	0xbc07ce60	-0.00828895
194	0x3d4e8508	0.050419837
195	0x3ce8136c	0.028329574
196	0x3ced8544	0.02899421
197	0xbd5da080	-0.054108143
198	0xbd6e930a	-0.058245696
199	0xbce6d720	-0.028178751
200	0x3c03e370	0.008049831
201	0x3d4267ae	0.047462158
202	0x3c596958	0.013269745
203	0x39608400	0.00021411479
204	0xbc11c688	-0.008897431
205	0xbd1e3292	-0.038622446
206	0x3c8d30b0	0.01723513
207	0x3d490778	0.04907939
208	0xbc61afd8	-0.013774835
209	0x3cccc4e8	0.024996236
210	0x3d160912	0.036629744
211	0x3d1f15d8	0.03883919
212	0x3b069d00	0.0020540357
213	0xbd6d4f5e	-0.05793702
214	0xbd61560e	-0.05501371
215	0x3a2fba80	0.0006703511
216	0x3cd88ad8	0.026433393
217	0x3d77db88	0.060512096
218	0x3c828d10	0.015936404
219	0xbd586a46	-0.052835725
220	0x3c3cb5d0	0.011517957
221	0xbd1c7822	-0.038200505
222	0xbd13543c	-0.035969004
223	0x3ca1f28c	0.019768976
224	0x3d44c5d8	0.04804024
225	0xbd0da064	-0.03457679
226	0xbd3cdd3c	-0.046109423
227	0xbd01c95e	-0.03168618
228	0xbd6723da	-0.056430675
229	0xbcdf6c9c	-0.027273469
230	0xbd0dafc6	-0.03459146
231	0x3d2cc63a	0.04218123
232	0x3c00b638	0.007855944
233	0xbd27f344	-0.04100348
234	0x3b3c30e0	0.0028715655
235	0x3d275f10	0.040862143
236	0xbd450018	-0.048095793
237	0x3c223068	0.009899236
238	0xbd6d2b70	-0.057902753
239	0xbd1be580	-0.038060665
240	0x3d3532b6	0.044237815
241	0xbd384568	-0.044988066
242	0xbc63f118	-0.013912462
243	0xbb9ddbe0	-0.004817471
244	0x3b9b3d70	0.0047375485
245	0x3c82694c	0.01591935
246	0xbbc722b0	-0.006077133
247	0xbd69e53a	-0.057103373
248	0xb9c18800	-0.00036913157
249	0xbd489c1e	-0.04897701
250	0xbd790e40	-0.060804605
251	0x3d27048e	0.040775828
252	0xbd546ade	-0.05185973
253	0xba9f09c0	-0.0012133643
254	0xbd4e8ccc	-0.050427243
255	0xbcf16d34	-0.029471017

net.2.bias f4 [256]
0	0x3a1c4d00	0.00059624016
1	0x3db90cff	0.09035682
2	0xbd342efc	-0.04399012
3	0xbdabc4cc	-0.083871454
4	0x3d2b9cfd	0.041897763
5	0x3dd6fcb5	0.10497419
6	0x3e80b350	0.25136805
7	0xbdbb58d4	-0.09147802
8	0xb9ea8c2b	-0.0004473639
9	0x3c9a0ce1	0.01880497
10	0xbd52c0b0	-0.051453292
11	0x3d67fb39	0.05663607
12	0x3bd6c28c	0.0065539535
13	0x3e8b4cce	0.27207035
14	0x3d9d6577	0.076853685
15	0x3d97f613	0.07419982
16	0x3dff0f04	0.12454036
17	0x3d368936	0.04456445
18	0xbd17f12a	-0.037095226
19	0x3b7c462d	0.0038493976
20	0xbd85c140	-0.06531
21	0x3e041998	0.12900388
22	0x3d226433	0.03964634
23	0xbd5148da	-0.051094867
24	0x3e161139	0.14655007
25	0x3e37e9ce	0.17960283
26	0x3a82850e	0.0009957866
27	0xbceb8eed	-0.028754676
28	0x3c9cc448	0.019136563
29	0x3eb8452c	0.35990274
30	0xbcf370fd	-0.029716963
31	0xbc1e4a7a	-0.009661311
32	0x3d260275	0.040529687
33	0xbcf13a23	-0.029446667
34	0x3d15f131	0.03660697
35	0x3c9de159	0.019272493
36	0x3dd9a95a	0.10628004
37	0x3db38de4	0.08767298
38	0x3d6145fc	0.054998383
39	0x3de8b49c	0.113625735
40	0x3e123966	0.14279708
41	0x3ca0a883	0.019611603
42	0x3e41eebb	0.18938725
43	0xbdc08485	-0.09400276
44	0x3d9373d0	0.07199824
45	0x3d4bc7df	0.04975116
46	0x3d1d4c1e	0.03840267
47	0x3d9b5ac0	0.075856686
48	0xbd581652	-0.05275566
49	0xbcfe0b95	-0.031011382
50	0x3e0cb7b1	0.13741948
51	0x3c5b2c1c	0.013377216
52	0xbd7964fd	-0.060887326
53	0x3d8511a1	0.06497503
54	0xbd7d33ca	-0.061816968
55	0x3d84fb7e	0.06493281
56	0xbc86864e	-0.016421463
57	0x3c05cd5b	0.008166636
58	0x3e187c3d	0.14891143
59	0x3df417bf	0.11918592
60	0x3d966c04	0.07344821
61	0x3cb7e730	0.022449106
62	0x3cd3078d	0.025760436
63	0x3cda0a40	0.026616216
64	0xbc5e202c	-0.013557475
65	0x3c3784ed	0.011201126
66	0x3d6ac753	0.057318997
67	0x3c2eeaae	0.010676069
68	0xbc97ebd6	-0.018545073
69	0x3d9e1c09	0.07720191
70	0xbcd426a0	-0.025897324
71	0xbd38373c	-0.04497455
72	0x3d8dfb2c	0.06932673
73	0x3cb22623	0.0217467
74	0x3c312809	0.010812768
75	0xb7875186	-1.6131216e-05
76	0x3da076b2	0.07835139
77	0x3d6aa28e	0.05728393
78	0xbd6937c6	-0.056937955
79	0x3c996c85	0.018728504
80	0x3d2106fd	0.039313305
81	0x3e37aa3e	0.17936036
82	0x3dc73f15	0.09728829
83	0x3ad5bc57	0.001630674
84	0x3dc88098	0.09790152
85	0x3e50b672	0.20382097
86	0x3db207e9	0.08692915
87	0x3d20408b	0.039124053
88	0x3c781d9c	0.015143778
89	0x3e0f5e12	0.14000729
90	0x3d9da3fc	0.07697293
91	0xbd75f13b	-0.06004451
92	0x3d65c300	0.05609417
93	0x3d7edd35	0.06222268
94	0xbd0cb831	-0.034355346
95	0x3d8fa8b9	0.07014603
96	0x3e00302f	0.1251838
97	0xbd7ccc3e	-0.061718218
98	0x3d2a678c	0.041602656
99	0xbdb614f7	-0.088907175
100	0xbd1d5deb	-0.038419645
101	0x3dae9e5f	0.08526301
102	0x3d8a4c32	0.06752814
103	0x3be977cf	0.007124878
104	0xbbc31d18	-0.005954396
105	0xbc93e84a	-0.0180551
106	0x3e2a26df	0.1661639
107	0x3ccb5bc0	0.024824023
108	0x3dd25c2e	0.10271488
109	0xbd76be25	-0.06023993
110	0xbcb7363e	-0.022364732
111	0x3cd3f809	0.025875108
112	0x3cfd2788	0.030902639
113	0x3de1eaa8	0.11031085
114	0xbd37270d	-0.044714976
115	0x3dc1c565	0.09461478
116	0x3dc73e4b	0.09728678
117	0x3da21b9e	0.07915424
118	0x3ba38323	0.004989998
119	0x3db8be0a	0.09020622
120	0xbd028557	-0.031865444
121	0x3d9b6b87	0.075888686
122	0x3e955a9e	0.29170698
123	0xbd3c8cf0	-0.046032846
124	0xbd835e33	-0.064144515
125	0x3dafc802	0.0858307
126	0x3e6917e5	0.22763021
127	0xbccdff25	-0.025146076
128	0xbbe93356	-0.0071167154
129	0x3dcc2eab	0.09969839
130	0x3d7c9d8a	0.06167368
131	0x3d94b8cf	0.07261812
132	0x3da970d2	0.08273472
133	0x3c5909c6	0.013246959
134	0x3d8727fa	0.06599422
135	0x3e553aca	0.20823207
136	0x3d9e96fd	0.077436425
137	0x3e097f91	0.13427569
138	0x3a072c82	0.00051564735
139	0xbd97f649	-0.07420022
140	0x3d0cb3ff	0.034351345
141	0x3e5b5590	0.21419358
142	0x3d67d60a	0.056600608
143	0x3e2c4824	0.16824394
144	0x3dde98d3	0.10868993
145	0x3dd1c876	0.10243313
146	0x3e8cfe2f	0.27537677
147	0x3cdf4783	0.02725578
148	0xbc7f4e58	-0.015582643
149	0x3db761ce	0.08954202
150	0xbd0483fe	-0.03235244
151	0xbe067c03	-0.13133244
152	0x3baf6eb4	0.005353773
153	0xbd8264cb	-0.06366881
154	0x3c94747d	0.018121952
155	0x3c9480e1	0.01812786
156	0x3cf1448f	0.029451637
157	0xbd58088a	-0.05274252
158	0x3e135aff	0.14390181
159	0xbdc27645	-0.094952144
160	0x3c622ce8	0.013804652
161	0x3d96beaf	0.07360589
162	0xbd7737c8	-0.06035593
163	0x3e6ea3e1	0.23304702
164	0x3d1d5f28	0.038420826
165	0x3df19ce1	0.117975004
166	0xbd8005b4	-0.06251088
167	0xbc396168	-0.011314727
168	0x3b96f410	0.0046067312
169	0xbe641f20	-0.22277498
170	0x3d942e14	0.07235351
171	0x3e2bed28	0.16789687
172	0x3e14738b	0.14497201
173	0x3cb00266	0.021485519
174	0x3e47c858	0.19510019
175	0xbd264162	-0.040589698
176	0x3d802836	0.0625767
177	0x3b5ee562	0.0034011235
178	0xbc5f3303	-0.013623002
179	0xbcd08db6	-0.025458198
180	0x3def5d61	0.116877325
181	0x3daff211	0.085910924
182	0x3e0a91f0	0.13532233
183	0x3b5ac74b	0.0033382948
184	0x3dddf720	0.10838151
185	0xbd924c50	-0.07143462
186	0xbd8d76d9	-0.06907434
187	0xbd30d853	-0.043175053
188	0x3e0a2bce	0.13493273
189	0x3db6d77e	0.089278206
190	0x3d7ac9ff	0.061227795
191	0x3e49bf72	0.19701937
192	0x3d8a2917	0.067461185
193	0xbd60ae76	-0.05485388
194	0x3db4ee9a	0.08834572
195	0xbca8a5f4	-0.020586945
196	0x3dbf0608	0.09327322
197	0x3cd52310	0.026017696
198	0x3de62e4a	0.11239298
199	0x3cfa29c9	0.030537503
200	0xbd0cdfff	-0.034393307
201	0x3e505048	0.20343125
202	0x3c770900	0.015077829
203	0xbcbbb1da	-0.022911955
204	0xbd33df76	-0.04391428
205	0x3d263ac4	0.040583387
206	0x3cfeb3f9	0.031091677
207	0x3cfc5f6b	0.030807218
208	0x3deb2750	0.11482108
209	0x3d944a33	0.07240715
210	0x3dcd0e60	0.100125074
211	0xbd1db36d	-0.038501192
212	0x3d8a1a8d	0.067433454
213	0x3a542e4c	0.0008094057
214	0x3e3dc93f	0.185338
215	0xbd77574d	-0.06038599
216	0x3de46388	0.111517966
217	0xbc9ffda6	-0.019530129
218	0xbd31c910	-0.04340464
219	0xb9c5f8fa	-0.0003776027
220	0xbd709fe1	-0.058746222
221	0x3ce319ff	0.027722357
222	0xbdb2a2f5	-0.08722488
223	0xbd614429	-0.054996643
224	0xbc24a913	-0.010050076
225	0xbda92714	-0.08259407
226	0xbd6714bb	-0.056416254
227	0x3d4d635a	0.050143577
228	0xbc77a7d3	-0.015115696
229	0x3dc42454	0.095772415
230	0x3e6677d9	0.22506656
231	0x3d2311f1	0.039812032
232	0x3d412ee7	0.04716387
233	0x3d790845	0.060798902
234	0xbcf8299b	-0.030293277
235	0x3e04a3cc	0.12953109
236	0x3e694ee1	0.22783996
237	0x3d80e676	0.06293957
238	0x3e998161	0.2998152
239	0x3d13546f	0.035969194
240	0x3df6bbe1	0.12047554
241	0x3c8783cf	0.016542343
242	0xbcbc2e1b	-0.022971204
243	0xbc97f014	-0.018547095
244	0x3d321bd6	0.043483578
245	0x3d89feb9	0.067380376
246	0x3da7a7c4	0.08186296
247	0x3e0b7eab	0.13622539
248	0x3d9b21f5	0.07574836
249	0xbcdd7b1f	-0.027036248
250	0x3d51d411	0.051227633
251	0x3bee10bc	0.0072651785
252	0x3dc84b6b	0.0978001
253	0x3b796a44	0.0038057724
254	0x3d1371fa	0.03599737
255	0x3dcc8451	0.09986175

net.4.weight f4 [128, 256]
0	0x3d3c347c	0.04594849
1	0x3df34ae5	0.118795194
2	0x3cb62ab8	0.022237167
3	0x3dbf80ea	0.0935076
4	0x3e02d71f	0.12777375
5	0x3ded6bb3	0.115928076
6	0x3d6d7919	0.057976816
7	0xbcd49faf	-0.02595505
8	0xbe651821	-0.22372486
9	0x3e2fee71	0.17180802
10	0xbd74f728	-0.05980602
11	0x3d3d358f	0.046193656
12	0xbdc28eca	-0.09499891
13	0x3dd50712	0.10401739
14	0x3e0b84c4	0.13624865
15	0xbdeddaf4	-0.116140276
16	0x3d94c5f8	0.07264322
17	0x3d7e203b	0.062042456
18	0xbe4c2bc2	-0.19938567
19	0xbc712f37	-0.01472073
20	0x3ce9611d	0.02848869
21	0x3e58daf2	0.21177271
22	0x3e2a61d8	0.16638887
23	0x3de40269	0.11133272
24	0x3d19c0eb	0.037537497
25	0x3dfb72ca	0.12277754
26	0x3d895738	0.06706089
27	0xbe845c56	-0.25851697
28	0xbe4b05de	-0.19826457
29	0x3d5cb867	0.053886797
30	0x3d27547f	0.040852066
31	0x3d46fb01	0.04857922
32	0xbd558c68	-0.052135855
33	0xbe3272cf	-0.17426609
34	0x3e177360	0.14790106
35	0x3da09246	0.078403994
36	0x3d9dde7b	0.077084504
37	0x3bd32dec	0.0064446833
38	0xbed90523	-0.42386732
39	0x3db44b3e	0.08803414
40	0x3e5b5c2a	0.21421877
41	0x3dd76c05	0.1051865
42	0x3de9c138	0.11413807
43	0x3d432d8c	0.04765086
44	0x3ddd1453	0.10794892
45	0x3deca30f	0.115545385
46	0x3e29edd6	0.16594633
47	0xbdbeb57f	-0.093119614
48	0x3dc6b5bb	0.09702631
49	0x3e740f8e	0.23834059
50	0x3cb26084	0.021774538
51	0x3e6dacbd	0.23210426
52	0x3caac054	0.020843662
53	0x3cf2006d	0.029541219
54	0x3e082fe6	0.13299522
55	0x3dc38e7f	0.09548663
56	0xbddfa9e3	-0.10921075
57	0x3e11eec7	0.14251243
58	0x3e4902ff	0.19630049
59	0x3d2cce11	0.042188708
60	0xbe7346b3	-0.23757438
61	0x3ea0b188	0.31385446
62	0xbdee583e	-0.116379246
63	0x3d57d6e8	0.052695185
64	0xbc94f0b5	-0.018181184
65	0x3d06e905	0.03293707
66	0x3d186f1e	0.037215345
67	0x3c0bc804	0.008531574
68	0xbcab6a5c	-0.02092474
69	0x3de623b7	0.11237281
70	0xbee837ea	-0.4535516
71	0x3c3c3061	0.011486144
72	0x3c76a28b	0.015053402
73	0x3d84170e	0.0644971
74	0x3e11b361	0.14228584
75	0xbe3885c5	-0.18019779
76	0x3e39774b	0.18111913
77	0x3e0e8d98	0.13921201
78	0x3d4f46e4	0.050604716
79	0x3d08ef25	0.03343119
80	0x3e0f9c72	0.14024523
81	0x3d345ab5	0.044031817
82	0x3db70650	0.08936751
83	0xbe1bf748	-0.15231049
84	0xbe47d4d2	-0.19514778
85	0x3db528bd	0.08845661
86	0x3ddc0862	0.107437864
87	0xbd4b7a3d	-0.049677122
88	0xbd7882fa	-0.060671784
89	0x3e230b1c	0.15922207
90	0xbe913808	-0.2836306
91	0x3e1b70d8	0.15179765
92	0x3d954965	0.072893895
93	0x3d7f7f45	0.062377233
94	0xbe0aceb3	-0.13555412
95	0xbe0340e2	-0.1281772
96	0x3e0b2029	0.13586487
97	0xbe7fbbec	-0.2497403
98	0x3dca033e	0.098639
99	0xbd0b3ac9	-0.03399161
100	0x3d8fc13f	0.07019281
101	0x3d1ba0c0	0.0379951
102	0x3dafe719	0.08589
103	0x3e4d1017	0.20025669
104	0x3e022856	0.127107
105	0x3d39f68e	0.04540115
106	0x3dcd1f05	0.10015682
107	0x3da31d78	0.07964605
108	0xbdec909e	-0.11551021
109	0x3c95b6cc	0.01827564
110	0x3c32e7fe	0.010919569
111	0x3cc072e0	0.023492277
112	0x3e227b72	0.15867403
113	0x3e29754b	0.1654865
114	0x3dadebf7	0.08492272
115	0x3dbafc89	0.091301985
116	0x3d18e983	0.03733207
117	0xbe9767df	-0.29571435
118	0x3d119031	0.035537902
119	0x3e54a447	0.20765792
120	0x3db4a47f	0.08820438
121	0x396ef2b7	0.00022787867
122	0x3cb566f4	0.022143818
123	0x3d81212c	0.06305155
124	0x3c18a1de	0.009315936
125	0xbe01fbae	-0.12693664
126	0x3d8f8d3b	0.070093594
127	0x3d37aaa1	0.04484046
128	0xbf11fb86	-0.5702442
129	0x3db83396	0.08994214
130	0x3df399b4	0.11894551
131	0x3da5a664	0.08088377
132	0x3cef39c1	0.029202344
133	0x3d3a8f39	0.045546744
134	0x3dd56223	0.10419109
135	0x3da93720	0.082624674
136	0x3dbd547b	0.09244629
137	0x3ddad969	0.10685999
138	0x3dbd8481	0.09253789
139	0xbed32607	-0.4123995
140	0x3e122518	0.14271963
141	0x3d6a7676	0.05724188
142	0x3da8fac0	0.08250952
143	0x3dab24ad	0.08356605
144	0x3c230c93	0.009951728
145	0x3d9dc39f	0.077033274
146	0x3d2e2993	0.042520117
147	0x3e0c3695	0.13692696
148	0x3d4bfd6a	0.04980222
149	0x3d20bcf8	0.039242715
150	0xbdc03f3a	-0.093870595
151	0xbddaf68b	-0.106915556
152	0x3e2fe12f	0.17175744
153	0x3d906416	0.0705034
154	0x3c885586	0.016642343
155	0x3da7b91a	0.08189602
156	0x3dee217a	0.11627479
157	0xbe1b1274	-0.15143758
158	0xbc9904d0	-0.018679053
159	0x3e253ff0	0.16137671
160	0x3df423f6	0.119209215
161	0x3d201253	0.039079975
162	0xbe876235	-0.26442114
163	0x3de1d324	0.110266
164	0xbcdcbb9b	-0.026944926
165	0x3da6ed41	0.08150721
166	0x3d22503b	0.039627295
167	0xbc1e655f	-0.009667723
168	0x3dbac388	0.09119326
169	0xbf07114e	-0.5276078
170	0x3dc22124	0.09478977
171	0xbe4cf5fd	-0.20015712
172	0x3d3fc00e	0.046814017
173	0x3ccd7788	0.025081411
174	0x3a6d7a9c	0.0009059103
175	0x3d4ba073	0.049713563
176	0x3d3ee93b	0.046609145
177	0x3e03fad6	0.12888655
178	0xbde59328	-0.112097085
179	0xbd589a7c	-0.052881703
180	0x3d27821e	0.040895574
181	0x3e1193c2	0.14216521
182	0xbe7025d7	-0.23451935
183	0x3da66ff6	0.081268236
184	0x3dc998ed	0.098436214
185	0x3de10e80	0.10989094
186	0x3e2c36f5	0.1681784
187	0x3d9406e8	0.0722788
188	0xbc8a7658	-0.016902134
189	0x3db7f34e	0.089819536
190	0x3e5f970b	0.21834962
191	0x3d18e344	0.037326112
192	0x3d725e3d	0.059171904
193	0xbb2c11f1	-0.002625581
194	0x3d9e1867	0.07719498
195	0x3e0848ef	0.13309072
196	0x3df7c45d	0.12098
197	0x3d8025d4	0.06257215
198	0xbe2f85a8	-0.1714083
199	0xbdabdb13	-0.083913945
200	0xbc421133	-0.011844921
201	0x3da81ad3	0.08208241
202	0x3d6125ea	0.0549678
203	0xbe4714be	-0.19441506
204	0x3e0dc213	0.13843565
205	0x3d87f5c5	0.06638674
206	0x3def359f	0.11680149
207	0x3ddb9910	0.10722554
208	0x3ddea14f	0.10870611
209	0x3e067ab5	0.13132747
210	0xbd917a9d	-0.07103465
211	0x3dd52d4f	0.104090326
212	0x3e3bca55	0.18338902
213	0x3e0baaee	0.13639423
214	0x3de54014	0.111938626
215	0xbd08eed6	-0.033430897
216	0x3d1bbc7e	0.038021557
217	0xbb4602a9	-0.0030213988
218	0x3e6876a5	0.2270151
219	0xbe01fa22	-0.12693074
220	0x3c79186f	0.015203579
221	0x3c53b259	0.012920939
222	0xbe66058e	-0.22463056
223	0x3d9f38b3	0.077744864
224	0x3dfa704e	0.12228452
225	0xbd21fb58	-0.03954634
226	0xbcd6c2b5	-0.02621589
227	0x3e049b12	0.1294978
228	0x3e12b45c	0.14326614
229	0x3d6e3ea9	0.058165226
230	0xbc80c689	-0.015719669
231	0xbe5ea194	-0.21741325
232	0x3e001c7d	0.12510867
233	0x3dcb5ebe	0.0993018
234	0xbe5b3862	-0.21408227
235	0x3d29b237	0.041429725
236	0x3de58004	0.11206058
237	0xbe075ecf	-0.1321976
238	0x3cfcb534	0.030848123
239	0x3dd00ceb	0.10158714
240	0xbcabb8fd	-0.020962233
241	0x3d86c4b6	0.065804884
242	0x3e13ff0e	0.14452764
243	0x3d8ba616	0.06818788
244	0x3e21515d	0.15753694
245	0x3cb12ba4	0.021627255
246	0x3dfabb03	0.12242701
247	0x3cff9be5	0.031202266
248	0x3e1bbe6b	0.15209357
249	0xbe6ca2c5	-0.23108967
250	0x3da0e592	0.07856287
251	0x3c6a74b7	0.014310054
252	0x3d6a9827	0.05727401
253	0x3df0f323	0.11765125
254	0x3e5c899b	0.21536867
255	0x3c88e0de	0.016708788

net.4.bias f4 [128]
0	0x3da42ad6	0.08015983
1	0x3d51fef4	0.051268533
2	0x3db79bea	0.08965285
3	0xbcaf8088	-0.021423593
4	0xb8b1432b	-8.452529e-05
5	0xbc4c8508	-0.012482889
6	0x3d1ffa0d	0.039056826
7	0x3d8a70d5	0.06759802
8	0x3d6cdc7b	0.057827454
9	0x3d508578	0.050908536
10	0x3dfa0d20	0.12209535
11	0xbc45b5fc	-0.012067314
12	0xbcb48ad6	-0.022038858
13	0x3dfb0556	0.12256877
14	0x3d0eb20b	0.034837764
15	0x3ca1e310	0.019761592
16	0x3d92d9ce	0.07170449
17	0x3ca0ed23	0.019644326
18	0x3caf9d6d	0.021437371
19	0xbd72b310	-0.0592528
20	0x3d4b0a08	0.049570113
21	0x3e1e4c32	0.15458754
22	0xbb01529a	-0.0019733072
23	0x3d972287	0.073796324
24	0x3df66aea	0.12032111
25	0x3df2f975	0.118639864
26	0x3d1b8766	0.037970923
27	0x3d0274ed	0.03184979
28	0x3c249749	0.010045835
29	0x3daa849a	0.08326073
30	0x3dbee07b	0.0932016
31	0x3dfa8395	0.122321285
32	0x3e0774bb	0.13228123
33	0x3db5935f	0.088659994
34	0xbcf8688c	-0.03032329
35	0xbc73a8c8	-0.014871784
36	0x3dc08102	0.09399606
37	0x3c0cfcec	0.008605223
38	0x3e038934	0.12845308
39	0x3d922932	0.07136764
40	0x3d5bb754	0.053641632
41	0x3c370a2b	0.011171858
42	0xbd8e57e5	-0.06950358
43	0x3dc585a1	0.09644628
44	0xbca57af7	-0.020200236
45	0xbdb423e3	-0.08795907
46	0x3e2c7ee1	0.16845275
47	0x3d60c2e1	0.05487335
48	0x3ca9a30b	0.020707628
49	0x3da3318c	0.07968435
50	0x3d840d06	0.064477965
51	0xbd257fe8	-0.040405184
52	0xbd7505f8	-0.059820145
53	0x3df26fd1	0.118377335
54	0x3de5ab01	0.11214257
55	0xbd1b6a52	-0.03794319
56	0x3da03108	0.07821852
57	0x3dde9108	0.10867506
58	0x3d456624	0.048193112
59	0x3e0ed80e	0.13949606
60	0x3de2782f	0.110580795
61	0x3dd9e645	0.106396236
62	0x3d1cdf21	0.03829873
63	0x3dee4724	0.11634663
64	0xbd2f87b3	-0.042854022
65	0x3c977d69	0.018492417
66	0x3d445bb2	0.04793901
67	0x3df2b832	0.11851539
68	0x3d95c9fd	0.07313917
69	0xbd82f218	-0.06393832
70	0x3d00e72a	0.031470455
71	0x3cc5ae72	0.024131034
72	0x3dfcc683	0.123425506
73	0xbd4776d4	-0.048697308
74	0x3da57cee	0.08080469
75	0x3badb5f4	0.0053012315
76	0x3e0073b8	0.12544143
77	0x3d3ab15b	0.045579296
78	0x39e3e12d	0.00043464583
79	0x3dce7af5	0.10082046
80	0x3deec338	0.11658329
81	0xbd48ae66	-0.048994444
82	0xbd7ecb9f	-0.062205907
83	0x3cadfa6e	0.021237578
84	0x3d97f6b7	0.07420104
85	0x3db8feee	0.09032999
86	0x3db315ff	0.0874443
87	0x3b72fed2	0.0037078154
88	0xbc9da484	-0.019243486
89	0xbd73cdc9	-0.059522424
90	0x3cf386e8	0.029727414
91	0x3a2d8b61	0.00066201953
92	0x3d616b0e	0.055033736
93	0x3d2d317c	0.04228352
94	0x3c749e68	0.014930345
95	0xbcf3d931	-0.02976665
96	0x3d98441d	0.074348666
97	0x3da612c9	0.08109052
98	0x3e0abc26	0.13548335
99	0x3cf4345d	0.029810125
100	0x3c9792c1	0.018502595
101	0x3e249a5e	0.16074511
102	0xbc8d7cdb	-0.01727145
103	0x3c8629f5	0.016377429
104	0xbd6c27df	-0.05765521
105	0x3dc916f8	0.09818834
106	0x3da8290d	0.08210955
107	0x3e0c59b9	0.13706101
108	0x3c694a3d	0.014238891
109	0xbd81b8f9	-0.06334109
110	0xbc1e6cd4	-0.009669501
111	0x3b21e6e6	0.0024704277
112	0x3d9e8ca3	0.07741668
113	0x3e04ea69	0.12980045
114	0x3d3cf50e	0.04613214
115	0x3df57f01	0.11987115
116	0x3df5399a	0.11973877
117	0x3de07de4	0.10961512
118	0x3dcb4abf	0.09926366
119	0x3d558837	0.052131858
120	0xbc65298b	-0.013986955
121	0x3debd6a9	0.115155526
122	0x3ced975c	0.029002838
123	0x3ddb9e6d	0.10723577
124	0x3dabb5fb	0.083843194
125	0x3d10a2c8	0.03531149
126	0xbd2e94e4	-0.042622462
127	0x3cc1d443	0.023660785

net.6.weight f4 [4, 128]
0	0xbdd157c8	-0.10221821
1	0xbe555f8d	-0.20837231
2	0xbe32e8dc	-0.17471641
3	0x3d79c3c7	0.060977723
4	0xbb80c718	-0.003929984
5	0x3d90faf5	0.07079116
6	0x3cafb9e4	0.021450944
7	0x3ed1e28f	0.40993163
8	0xbdb9fb03	-0.0908108
9	0xbe65e982	-0.22452357
10	0xbe73d68f	-0.23812316
11	0xbd097929	-0.033562813
12	0xbd742fd7	-0.059615936
13	0xbe54e651	-0.20790984
14	0xbe8a0b10	-0.26961565
15	0xbe77c546	-0.24196348
16	0xbdf59f12	-0.11993231
17	0xbc2937fb	-0.010328288
18	0x3edd4f9c	0.432248
19	0xbd523517	-0.05132016
20	0xbdbf8436	-0.09351389
21	0x3ebb6d5c	0.36606872
22	0xbda040c9	-0.07824857
23	0xbdc46ede	-0.09591459
24	0xbe3f9bea	-0.1871182
25	0x3ee328c1	0.4436703
26	0x3c64beab	0.013961474
27	0xbe16a0ee	-0.14709827
28	0xbd779f6b	-0.060454767
29	0xbe7ced32	-0.24699858
30	0x3ed16445	0.40896812
31	0xbe4ed8ea	-0.20199934
32	0xbe9580ab	-0.29199728
33	0x3eeb3986	0.45942324
34	0x3d74f1ee	0.059801035
35	0xbe76ccf7	-0.24101625
36	0xbe61aeb5	-0.22039302
37	0xbd87dfe7	-0.06634503
38	0xbe721b89	-0.23643316
39	0x3ee4aeab	0.4466451
40	0xbe549d65	-0.20763166
41	0x3d151c04	0.03640367
42	0x3d32f038	0.04368612
43	0xbe50536b	-0.20344321
44	0x3ca9e6a0	0.020739853
45	0x3e271675	0.1631716
46	0x3ed0202d	0.40649548
47	0xbe3eb6a0	-0.18624353
48	0x3ec9358e	0.3929867
49	0xbe298529	-0.16554703
50	0xbe3d4d85	-0.18486603
51	0xbd3fcd44	-0.046826616
52	0x3d37b739	0.04485247
53	0xbe55e34a	-0.20887485
54	0xbdce5ec8	-0.10076672
55	0x3ec830c6	0.3909971
56	0x3ee11d66	0.43967742
57	0xbe61f1b3	-0.22064857
58	0x3d645188	0.055741817
59	0x3ef4a63c	0.47783077
60	0x3ec5d986	0.3864252
61	0xbe3643e7	-0.1779934
62	0xbe10e961	-0.14151527
63	0xbe524453	-0.20533876
64	0xbd875a71	-0.06609047
65	0xbe05c058	-0.13061655
66	0x3c4cd761	0.012502522
67	0x3ec43b24	0.3832637
68	0xbde6db0c	-0.112722486
69	0xbc581ad0	-0.013189986
70	0xbe73c7f5	-0.23806746
71	0x3d77d05d	0.060501445
72	0x3f0f1388	0.5588918
73	0x3cbff86b	0.023433885
74	0xbba7278b	-0.0051011494
75	0x3d808729	0.0627578
76	0x3ee05ce3	0.43820867
77	0xbe77be9e	-0.24193808
78	0x3d214a85	0.039377708
79	0x3eb5362a	0.35392886
80	0xbe055871	-0.13022019
81	0x3d7e5b40	0.06209874
82	0xbcc51445	-0.024057517
83	0xbe486cf3	-0.19572811
84	0xbdf4362e	-0.119243965
85	0xbe43a609	-0.19106306
86	0xbe150f97	-0.14556728
87	0x3d31387f	0.04326677
88	0xbd859e5e	-0.06524347
89	0xbd06eb57	-0.03293928
90	0xbde69f2a	-0.11260827
91	0xbdf58ea2	-0.11990096
92	0xbe8775ba	-0.26457006
93	0x3d40a242	0.04702974
94	0xbcbaad20	-0.02278763
95	0xba6cd91b	-0.0009035037
96	0xbe31437c	-0.173109
97	0xbe02c2f6	-0.12769684
98	0xbe886f3d	-0.26647368
99	0xbe4dee8e	-0.20110533
100	0x3e42c0d7	0.19018875
101	0x3ea7e264	0.3278991
102	0xbeb88822	-0.3604136
103	0x3e56ef1d	0.20989652
104	0x3d90d504	0.070718795
105	0xbe6525eb	-0.22377746
106	0xbe20fa6e	-0.15720531
107	0xbe844c93	-0.25839671
108	0xbe7e4e3e	-0.24834535
109	0x3d94cb01	0.072652824
110	0x3d769cd8	0.06020817
111	0xbdff502b	-0.12466463
112	0x3e81fc9d	0.2538804
113	0xbe1d2707	-0.15346919
114	0x3d9fe90d	0.07808123
115	0x3e8f1aed	0.2795023
116	0x3eee014b	0.4648536
117	0xbe313246	-0.17304334
118	0x3ee3047c	0.4433936
119	0xbe4a9a60	-0.19785452
120	0xbd31ebb5	-0.04343768
121	0x3ee52c22	0.44760233
122	0xbe3f406f	-0.18676923
123	0xbe4f7da7	-0.20262776
124	0xbe8bc026	-0.27295035
125	0xbe763fed	-0.24047823
126	0x3ce4edbd	0.027945394
127	0xbe7f4703	-0.24929433
128	0xbe862153	-0.261973
129	0xbe3f7969	-0.18698658
130	0xbe586f81	-0.21136285
131	0x3be2e70e	0.0069245165
132	0x3d9b124d	0.0757185
133	0x3c90ab50	0.017659813
134	0x3d30d354	0.04317029
135	0x3ed7baca	0.42134696
136	0xbe42bf6f	-0.19018339
137	0xbe6fe304	-0.23426443
138	0xbe4abfa0	-0.19799662
139	0xbb0f77e9	-0.002189154
140	0x3d69d8ad	0.057091404
141	0xbd0dabc9	-0.034587655
142	0xbec3baff	-0.38228604
143	0xbe380b5d	-0.17973085
144	0xbe4505d5	-0.19240506
145	0x3cf6b051	0.030113371
146	0x3e99a700	0.30010223
147	0xbceb8983	-0.028752094
148	0xbe6ea586	-0.2330533
149	0x3ec69a59	0.38789633
150	0xbdd8fb3e	-0.10594796
151	0xbdec75bb	-0.11545893
152	0xbddc7d79	-0.107661195
153	0x3ed936c2	0.4242459
154	0x3d3b3ff6	0.045715295
155	0xbeb76acd	-0.3582367
156	0x3d9b6494	0.07587543
157	0xbe3cc1dc	-0.18433326
158	0x3ea9efaa	0.33190662
159	0xbe3e5369	-0.18586506
160	0xbf0e0bd1	-0.5548678
161	0x3eec7a82	0.46187216
162	0x3da78648	0.08179909
163	0xbeb0e7be	-0.34551805
164	0xbe5d56ba	-0.21615115
165	0x3d0691b3	0.032853793
166	0xbe15e860	-0.14639425
167	0x3ee25ae9	0.44209984
168	0xbe46a584	-0.19399077
169	0x3c5668d4	0.013086516
170	0x3d2e8e6b	0.04261629
171	0xbe4515e1	-0.19246627
172	0x3cdbb4dd	0.02681964
173	0xbe1559ed	-0.14585085
174	0x3ecf254e	0.4045815
175	0xbe9f016b	-0.3105577
176	0x3ed6b507	0.41934988
177	0xbe00d68c	-0.12581843
178	0xbe71cbdf	-0.23612927
179	0x3c0d97af	0.008642121
180	0x3d9722e9	0.073797055
181	0xbe3d2024	-0.18469292
182	0xbe5d5166	-0.21613082
183	0x3f0c99c3	0.5492212
184	0x3f0c7572	0.5486671
185	0xbe10e577	-0.14150034
186	0x3c40b817	0.01176264
187	0x3ec2b7f8	0.38030982
188	0x3ef560e1	0.47925475
189	0xbddeb29c	-0.10873911
190	0xbe471c60	-0.19444418
191	0xbe5b6879	-0.21426572
192	0xbc56fbe3	-0.013121578
193	0xbe2fa54c	-0.171529
194	0xbd3d3be8	-0.04619971
195	0xbd9b2e64	-0.07577208
196	0xbe939317	-0.28823158
197	0x3cef4648	0.029208317
198	0xbe74d754	-0.23910266
199	0xbb2e9a05	-0.0026642096
200	0x3f08011f	0.5312671
201	0x3d94d337	0.072668485
202	0x3ddc22f2	0.10748853
203	0x3d8d73fd	0.06906889
204	0x3ec18138	0.377939
205	0xbdd421bf	-0.10357999
206	0x3ce3cada	0.027806688
207	0x3ed7edba	0.42173558
208	0xbe869b62	-0.26290423
209	0x3d2b5bcf	0.041835602
210	0x3cc34297	0.023835463
211	0xbe40fa93	-0.18845586
212	0xbdcc646a	-0.0998009
213	0xbdc04c34	-0.093895346
214	0xbe28abaa	-0.16471735
215	0x3d9becc0	0.07613516
216	0xbc736163	-0.014854762
217	0xbd96d33b	-0.07364508
218	0xbe6f54a6	-0.23372135
219	0xbe205a80	-0.15659523
220	0xbdce4195	-0.100711025
221	0xbcef2039	-0.02919017
222	0xbcbd1b56	-0.023084324
223	0x3d60f89f	0.054924604
224	0xbe652b6b	-0.22379844
225	0xbe1e2428	-0.1544348
226	0xbdb3e4c4	-0.08783868
227	0xbe236058	-0.15954721
228	0x3f3c5621	0.7356892
229	0x3ebe0a3b	0.3711718
230	0xbe4276a6	-0.18990573
231	0x3ef16ab8	0.47151732
232	0xbd04feca	-0.03246955
233	0xbdc3bbf5	-0.09557334
234	0xbe2e7f5d	-0.17040773
235	0xbe627ae8	-0.22117198
236	0xbe190ac1	-0.14945509
237	0x3cd57255	0.026055494
238	0x3d54f685	0.05199291
239	0xbe03c2a9	-0.12867226
240	0x3ef75503	0.48307046
241	0xbe7dbe28	-0.2477957
242	0xbc0c6230	-0.008568332
243	0x3edd36c5	0.43205848
244	0x3e872634	0.26396334
245	0xbe28f8f5	-0.1650122
246	0x3f003a0a	0.5008856
247	0xbe0a78c9	-0.13522638
248	0xbe4a753a	-0.19771281
249	0x3ee6ee4b	0.45103678
250	0xbe5127a3	-0.20425276
251	0xbe411000	-0.1885376
252	0xbe527469	-0.2055222
253	0xbe364708	-0.17800534
254	0xbbeade70	-0.00716763
255	0xbe7a4157	-0.24438988

net.6.bias f4 [4]
0	0xbdb65737	-0.08903354
1	0x3cf85d69	0.030317979
2	0xbdc811d5	-0.09769026
3	0xbdaf1cdc	-0.08550426
