lunar_00.pth (torch, 680104 bytes, 8 tensors)

fc0.weight f4 [512, 8]
-0.5733714 -1.014426 0.5248066 -0.22105294 0.10751507 0.14981227 -0.019231595 0.06847623
0.21946174 -0.05901323 0.05355762 -0.012626961 0.2891785 -0.10882146 0.21726365 0.16167462
-0.5171912 0.16498736 0.13328181 -0.2362798 0.31697598 0.06699319 0.0050261435 0.031047996
0.04673528 0.12278291 0.01924269 0.06873562 -0.31578955 -0.31107134 -0.05424929 0.3123876
-0.56952906 -1.886233 0.19220464 -0.10942097 -0.13885906 -0.16141962 -0.07763009 -0.019779809
-0.18247809 0.07040137 0.26771104 0.079048865 -0.5734513 -0.13840444 0.0012464599 0.5333575
0.37595466 -0.22765656 0.20419247 -0.23729523 -0.2589431 0.18831158 0.010690845 -0.61296004
0.36179003 -1.6411071 -0.03091477 0.057967972 0.2688698 0.0065507744 0.13134123 -0.07600426
-0.0819096 -0.16225414 0.35650828 -0.085045226 -0.2909316 -0.115461126 0.030899828 0.5257668
0.7313373 -0.13991033 0.117520295 -0.34273276 -0.090172045 0.17894551 -0.29112384 0.31763408
-0.38184917 0.024974223 0.4982738 -0.15670909 0.29579917 -0.17246099 -0.24608374 -0.23592992
0.24656956 -0.55613405 -0.30695224 0.14868987 0.28770685 0.36710712 -0.22598934 -0.32975173
0.26025963 0.5534809 -0.02682079 0.0882202 -0.11207394 -0.51193905 -0.25279492 -0.29830632
0.41351727 -0.12638141 -0.14535849 -0.056091517 -0.074450105 0.12269921 0.016590647 0.106113166
-0.42442188 -0.09151814 -0.41156715 -0.07974661 -0.45063084 0.20576088 0.23931736 -0.082019
0.6256176 -1.913632 0.37601212 0.09920734 -0.59912825 -0.23401284 0.003246414 0.18255974
-0.010619601 0.011058825 0.71427107 0.56575465 0.18684852 -0.1813103 0.17501366 -0.112787805
0.0037429158 -0.9172087 -0.059141 -0.07890878 0.08784298 0.009276072 0.13072523 -0.13685867
-0.21748435 0.2476316 0.22707392 0.074405745 -0.11429951 0.4075293 -0.06972567 -0.31959078
0.14773925 -0.7455077 0.5010572 0.1325334 -0.3958126 0.20094311 -0.061999686 -0.30162245
0.4792432 0.087960504 0.40650538 0.3644454 -0.58343345 -0.19073954 0.34471408 0.07708173
-0.07835242 -0.17320187 -0.017575206 -0.10184255 0.25229546 -0.06876597 -0.024517179 -0.12411272
-0.26879472 -0.07453512 0.3407468 0.28648195 -0.20885517 -0.39179388 -0.095613174 0.43680733
-0.15424018 -0.197126 0.1676004 0.42875615 0.041437365 0.14293274 -0.10476771 -0.09524857
-0.14276443 0.35731694 -0.058702078 -0.02088891 0.07454595 0.07750339 0.31267133 0.0792329
-0.4249858 -0.72962797 0.05236362 0.7134285 -0.49998432 0.060114846 0.17093603 -0.124954045
-0.41887197 0.20222029 0.35433066 0.12042454 -0.5042088 -0.27218187 0.08698302 -0.24005082
0.20102392 -1.182706 -0.41089597 0.0597646 -0.35893494 -0.0045606988 0.24671817 0.20792107
0.24312748 -1.0169681 -0.28241083 -0.016721437 0.2004312 -0.31325477 0.15333395 -0.050275426
0.24310285 -0.22306566 -0.42034552 -0.22850324 0.1502369 -0.04932064 0.15905754 -0.31364214
-0.05731065 0.3166176 -0.14758305 -0.00065053254 0.416682 0.4170871 -0.229636 -0.34810886
0.24251232 -1.2194022 -0.09643949 0.03718005 -0.1364685 0.27569488 -0.06506171 0.22862053
00000000: 78c8 12bf b6d8 81bf ba59 063f b45b 62be
00000010: dc30 dc3d 6368 193e 948b 9dbc 443d 8c3d
00000020: 94ba 603e dbb7 71bd 3c5f 5b3d 50e1 4ebc
00000030: 340f 943e c9dd debd 5d7a 5e3e 088e 253e
00000040: a466 04bf 72f2 283e 077b 083e 55f3 71be
00000050: ad4a a23e ba33 893d 59b2 a43b 5e58 fe3c
00000060: 7e6d 3f3d 9b75 fb3d d9a2 9d3c 43c5 8c3d
00000070: 2baf a1be be44 9fbe 8134 5ebd 44f1 9f3e
00000080: a8cc 11bf 1570 f1bf 4bd1 443e 1a18 e0bd
00000090: 1231 0ebe 2f4b 25be 86fc 9ebd 4409 a2bc
000000a0: 89db 3abe 982e 903d 6c11 893e 5fe4 a13d
000000b0: b4cd 12bf e5b9 0dbe 4160 a33a 1e8a 083f
000000c0: 217d c03e cd1e 69be d517 513e 85fd 72be
000000d0: 3194 84be c0d4 403e a728 2f3c f3ea 1cbf
000000e0: 8b3c b93e cc0f d2bf f940 fdbc d36f 6d3d
000000f0: 4da9 893e e1a7 d63b 517e 063e 1fa8 9bbd
00000100: 38c0 a7bd f325 26be 4188 b63e 312c aebd
00000110: fdf4 94be e276 ecbd a321 fd3c a798 063f
00000120: ec38 3b3f a744 0fbe 7bae f03d ab7a afbe
00000130: 1fac b8bd 7e3d 373e 2f0e 95be efa0 a23e
00000140: bc81 c3be be96 cc3c be1d ff3e 5978 20be
00000150: fd72 973e 9d99 30be 60fd 7bbe 9d97 71be
00000160: bb7c 7c3e cd5e 0ebf d828 9dbe 2842 183e
00000170: 504e 933e 77f5 bb3e c069 67be 38d5 a8be
00000180: c040 853e edb0 0d3f 46b7 dbbc cbac b43d
00000190: 0687 e5bd 700e 03bf 566e 81be 9bbb 98be
000001a0: 89b8 d33e 216a 01be dbd8 14be 38c0 65bd
000001b0: 4c79 98bd b949 fb3d 1ce9 873c dc51 d93d
000001c0: d34d d9be dd6d bbbd eeb8 d2be 3152 a3bd
000001d0: 16b9 e6be fbb2 523e 9c0f 753e 94f9 a7bd
000001e0: 7a28 203f e5f1 f4bf a984 c03e 382d cb3d
000001f0: 7860 19bf 10a1 6fbe cac1 543b f1f0 3a3e
00000200: d6fd 2dbc 1330 353c 78da 363f 4cd5 103f
00000210: 3855 3f3e 68a9 39be c836 333e 4bfd e6bd
00000220: b54b 753b 30ce 6abf d53d 72bd ed9a a1bd
00000230: 05e7 b33d aafa 173c d6dc 053e ae24 0cbe
00000240: 38b4 5ebe 2393 7d3e 1186 683e 0a62 983d
00000250: dd15 eabd aea7 d03e 55cc 8ebd 67a1 a3be
00000260: f548 173e 98d9 3ebf 4945 003f d6b6 073e
00000270: f3a7 cabe 08c4 4d3e 62f3 7dbd 426e 9abe
00000280: 5d5f f53e a324 b43d 7921 d03e 9698 ba3e
00000290: e55b 15bf 3a51 43be 5d7e b03e 07dd 9d3d
000002a0: 3c77 a0bd d55b 31be e1f9 8fbc d492 d0bd
000002b0: df2c 813e 2cd5 8cbd 40d8 c8bc cf2e febd
000002c0: 769f 89be dea5 98bd 5d76 ae3e c3ad 923e
000002d0: 21de 55be 3599 c8be d7d0 c3bd 36a5 df3e
000002e0: 23f1 1dbe 66db 49be 709f 2b3e ed85 db3e
000002f0: 3aba 293d f65c 123e 7490 d6bd af11 c3bd
00000300: d730 12be 3ff2 b63e 9771 70bd 381f abbc
00000310: 8cab 983d 19ba 9e3d 7516 a03e dc44 a23d
00000320: bd97 d9be e6c8 3abf 3c7b 563d 40a3 363f
00000330: f2fd ffbe fc3a 763d db09 2f3e e8e7 ffbd
00000340: 6376 d6be d612 4f3e d46a b53e 24a1 f63d
00000350: d413 01bf 6c5b 8bbe 2724 b23d e2cf 75be
00000360: 37d9 4d3e e962 97bf f560 d2be bacb 743d
00000370: 52c6 b7be ea71 95bb b0a3 7c3e 43e9 543e
00000380: 69f6 783e 032c 82bf 2798 90be 65fb 88bc
00000390: d63d 4d3e ee62 a0be 9303 1d3e 9bed 4dbd
000003a0: f4ef 783e 536b 64be 8737 d7be c1fc 69be
000003b0: b4d7 193e 7004 4abd fbdf 223e b495 a0be
000003c0: 92be 6abd b41b a23e 0320 17be 8088 2aba
000003d0: 5857 d53e 718c d53e b325 6bbe 533b b2be
000003e0: 2655 783e 5f15 9cbf 1182 c5bd 1c4a 183d
000003f0: 66be 0bbe e127 8d3e 133f 85bd 801b 6a3e

fc0.bias f4 [512]
-0.35176268 0.11132935 -0.3164854 0.12350525 -0.18396117 -0.4237373 -0.1943491 0.3736697
-0.2887128 -0.38931733 0.3726772 -0.6843042 -0.22347035 0.14620692 -0.37188855 -0.25169015
-0.0016320391 0.12970182 0.07415075 0.0046281638 -0.48293325 0.18558237 0.27271807 0.20012821
-0.35719252 0.20538765 -0.44781548 -0.30386493 0.11527168 0.22223285 0.11521749 0.11517163
-0.1827551 -0.45233533 -0.29800856 0.018677093 -0.09316873 -0.07718544 0.10543909 -0.2258609
0.40374413 0.029440638 -0.256889 -0.5591846 0.025448663 0.1516555 -0.26244888 0.23703021
-0.29304513 2.5245336e-05 0.14330956 -0.31100982 -0.4750047 -0.00015350746 -0.35258916 -0.30905882
-0.020867366 -0.34465164 -0.20422998 0.33340994 0.049738176 -0.28604135 0.0549916 0.09547014
-0.48790267 0.041776 -0.011972942 -0.23460633 0.09729469 -0.71882623 0.29592943 0.08190668
0.0022207105 -0.08906133 -0.03637532 0.15466328 0.05465097 -0.19265896 -0.05710754 0.21510561
-0.44245356 -0.47223023 -0.36647046 -0.3503984 -0.0025045339 -0.3684339 -0.097829595 -0.04250846
-0.34506324 0.16271599 -0.5154855 -0.36955273 0.09878811 -0.38230053 -0.2882293 0.028898664
-0.0026069337 -0.0005526628 -0.13027178 -0.12742154 -0.2159313 -0.30415916 0.0038437364 0.4058849
0.008032389 0.5680036 -0.38674957 0.006694992 -0.28746358 0.24346472 -0.06842336 -0.3253713
-0.30379176 -0.09099658 0.26850224 -0.33577287 -0.3261712 -0.38737378 -0.2578746 0.08772091
-0.1578086 -0.10854684 0.045977414 -0.16993593 0.11052327 0.05961181 -0.008086699 0.22702447
-0.18265702 0.14883329 -0.4727813 0.2573655 -0.43834266 -0.3681193 0.09822896 -0.1611132
-0.06813122 -0.017543793 -0.14074649 -0.21370383 0.025974354 0.23112777 -0.4671326 0.14509074
0.25646296 -0.20331535 0.47187167 -0.17597245 -0.37677756 -0.44988 0.02048964 -0.11638853
0.27191088 0.0011584036 0.43512154 0.0027994805 0.09067051 -0.15205042 -0.015763056 0.19919077
-0.24927758 0.064501755 -0.04289784 -0.0012428863 -0.16224699 -0.009976633 0.20631628 0.06916706
-0.027074695 0.021354008 -0.1447211 -0.23488607 -0.27498475 -0.17600009 -0.42903903 -0.4261368
-0.23440588 -0.32818276 0.18751802 0.15821013 -0.37667537 0.37699217 -0.0017716557 -0.0406527
-0.35586503 -0.12570988 -0.35346 -0.10644018 0.21239816 0.057285562 0.22428307 0.16203195
-0.16856219 -0.19040902 -0.3212915 -0.33322272 -0.33854952 -0.3060993 -0.25512618 -0.3079535
-0.2163761 -0.06856163 0.01668694 0.16335346 0.3507161 -0.4023342 -0.43256322 0.32932892
-0.37973356 0.030321732 -0.30702227 0.31939745 0.062286876 -0.16083296 -0.7098058 -0.3491409
-0.37352398 -0.13055198 0.035986196 -0.043298133 0.042261273 -0.19348438 0.097799 -0.51477486
-0.05932141 0.27918053 0.19046344 0.106955804 0.17812099 -0.3114203 0.10608289 0.29498562
-0.12815261 -0.22372006 0.024057068 -0.49313194 0.07169898 -0.29408482 0.0010401405 -0.19006376
-0.25544357 -0.053329717 0.16267192 0.0877979 -0.31338698 -0.022541128 -0.5191856 -0.36519215
0.051570326 -0.102743864 0.1029453 -0.18566708 0.011955616 0.29728797 -0.47996017 0.10158941
00000000: 3d1a b4be a400 e43d 600a a2be 52f0 fc3d
00000010: 5160 3cbe 18f4 d8be 7303 47be a351 bf3e
00000020: 2ad2 93be 9a54 c7be 8ccf be3e 8f2e 2fbf
00000030: 69d5 64be 44b7 153e 2d68 bebe 88dd 80be
00000040: 25ea d5ba 8ed0 043e 59dc 973d daa7 973b
00000050: 0743 f7be 4e09 3e3e b4a1 8b3e 69ee 4c3e
00000060: f0e1 b6be 2451 523e 1248 e5be 2f94 9bbe
00000070: 8f13 ec3d 0291 633e 26f7 eb3d 1bdf eb3d
00000080: 2724 3bbe 7f98 e7be 9494 98be b400 993c
00000090: 3fcf bebd 6613 9ebd 73f0 d73d 1448 67be
000000a0: 8db7 ce3e 7e2d f13c f486 83be b926 0fbf
000000b0: b779 d03c 944b 1b3e b35f 86be 0cb8 723e
000000c0: 030a 96be f2c5 d337 bebf 123e ae3c 9fbe
000000d0: d133 f3be d8f6 20b9 9186 b4be f53c 9ebe
000000e0: 0af2 aabc 2e76 b0be aa21 51be b5b4 aa3e
000000f0: 42ba 4b3d 0374 92be df3e 613d d985 c33d
00000100: 61ce f9be 501d 2b3d 292a 44bc a43c 70be
00000110: 7042 c73d ff04 38bf 1084 973e b0be a73d
00000120: 5789 113b c965 b6bd 4afe 14bd 0d60 1e3e
00000130: b2d9 5f3d 6448 45be 99e9 69bd a544 5c3e
00000140: 4689 e2be 29c8 f1be 04a2 bbbe 6b67 b3be
00000150: 1b23 24bb 5ea3 bcbe e25a c8bd 5a1d 2ebd
00000160: 21ac b0be 059f 263e dcf6 03bf 0436 bdbe
00000170: 6c51 ca3d e5bc c3be ca92 93be e4bc ec3c
00000180: 17d9 2abb 93e0 10ba f765 05be cb7a 02be
00000190: 181d 5dbe c0ba 9bbe 32e7 7b3b 25d0 cf3e
000001a0: 489a 033c af68 113f 0a04 c6be aa61 db3b
000001b0: 6d2e 93be d14e 793e 8c21 8cbd 1197 a6be
000001c0: 988a 9bbe 6a5c babd 2079 893e 6cea abbe
000001d0: e9ff a6be db55 c6be 2408 84be 05a7 b33d
000001e0: 9498 21be ce4d debd d052 3c3d af03 2ebe
000001f0: 065a e23d 832b 743d 137e 04bc 1a79 683e
00000200: 710a 3bbe c167 183e 6410 f2be 69c5 833e
00000210: 736e e0be 227a bcbe 442c c93d dcfa 24be
00000220: 6288 8bbd 00b8 8fbc d91f 10be 2dd5 5abe
00000230: 2bc8 d43c c2ac 6c3e 012c efbe ab92 143e
00000240: 1d4f 833e e631 50be 2a99 f13e 1f32 34be
00000250: fde8 c0be ac56 e6be e4d9 a73c 1c5d eebd
00000260: e737 8b3e 93d5 973a 40c8 de3e 7d77 373b
00000270: 76b1 b93d 1bb3 1bbe 8621 81bc aaf8 4b3e
00000280: 9f42 7fbe 7f19 843d a5b5 2fbd 58e8 a2ba
00000290: 1324 26be 0875 23bc 9344 533e 76a7 8d3d
000002a0: c0cb ddbc 9aee ae3c c531 14be f985 70be
000002b0: cdca 8cbe 5e39 34be 01ab dbbe 9a2e dabe
000002c0: 1808 70be 9207 a8be b904 403e d601 223e
000002d0: 98db c0be 1e05 c13e e736 e8ba 7283 26bd
000002e0: f133 b6be 17ba 00be b6f8 b4be 4ffd d9bd
000002f0: e77e 593e 44a4 6a3d 76aa 653e b4eb 253e
00000300: 919b 2cbe 95fa 42be 5280 a4be 2b9c aabe
00000310: 5d56 adbe 0cb9 9cbe e69f 82be 15ac 9dbe
00000320: b291 5dbe 0a6a 8cbd 0db3 883c 2146 273e
00000330: 1091 b33e c0fe cdbe ed78 ddbe cd9d a83e
00000340: 706c c2be 4865 f83c 0632 9dbe 1088 a33e
00000350: 8620 7f3d 65b1 24be d5b5 35bf 99c2 b2be
00000360: 893e bfbe 6baf 05be 4366 133d 6259 31bd
00000370: 281a 2d3d c520 46be d84a c83d 49c8 03bf
00000380: 02fb 72bd c0f0 8e3e d908 433e a50b db3d
00000390: 5965 363e 7b72 9fbe fc41 d93d 5b08 973e
000003a0: 703a 03be df16 65be 5413 c53c ca7b fcbe
000003b0: ead6 923d 4992 96be 5355 883a 13a0 42be
000003c0: 80c9 82be 4370 5abd 7893 263e 63cf b33d
000003d0: 4274 a0be 2ca8 b8bc 59e9 04bf 77fa babe
000003e0: 683b 533d 606b d2bd fcd4 d23d 831f 3ebe
000003f0: 7de1 433c 2136 983e 57bd f5be 1c0e d03d

fc1.weight f4 [256, 512]
-0.012418394 -0.027385306 -0.013335982 -0.007993381 -0.05090184 0.019039078 0.010035625 -0.014377059
-0.021859737 -0.017674861 -0.05293663 0.02697983 -0.013604741 -0.012967365 0.029355254 0.023212608
-1.28073625e-05 0.023746751 0.031079883 0.0038947088 0.022079388 0.026397413 -0.023932438 -0.024647359
0.023969777 -0.017105212 -0.009681433 -0.0008788957 0.02108938 -0.0434683 -0.03635611 -0.004212078
0.0023899996 0.02023841 -0.043016657 0.00013187516 0.012886181 0.0034536908 0.02995805 0.028572079
0.032313738 -0.0057977787 -0.055451807 0.029150927 -0.043623682 -0.023805356 -0.008461609 0.019030627
-0.047103904 -0.055654075 0.012824636 -0.05294412 0.03137225 -0.043188445 -0.006414408 -0.033019945
-0.03004849 0.02268594 -0.01666516 -0.0040980256 0.023609595 0.018642912 -0.03075239 -0.049326565
0.013679893 0.033058602 -0.056165162 -0.01915223 -0.03341002 0.0009238326 -0.004183512 -0.028048815
0.015736511 -0.002107445 -0.008678601 -0.039743274 0.020398224 -0.044964876 0.011087018 0.03499859
-0.041247148 0.008076421 0.026329154 -0.036617517 0.03500605 -0.05655049 0.02799323 -0.027071627
0.042622052 -0.04400492 0.0250417 -0.018682288 0.010752446 -0.059267204 0.030002339 -0.03326495
0.0018503065 -0.041067567 0.0153469 -0.0144182695 -0.016140739 0.04178448 -0.005408046 0.023542479
0.03707583 0.003862673 -0.031751476 0.02217402 -0.04093753 -0.03601865 -0.0199325 0.036998
0.03519667 0.015971573 -0.025650593 0.0037494327 0.030306133 -0.03317385 -0.04612926 -0.031188987
-0.0400854 0.00804659 -0.02953552 0.028287547 -0.05037768 0.009494701 -0.02691915 -0.0291815
0.03299358 -0.015177093 -0.0383532 0.026609955 0.004552908 0.019731684 -0.050759543 -0.03595183
-0.010892834 -0.024702616 -0.036965147 0.015658338 -0.03565346 -0.053732596 0.022173703 0.0024944933
-0.009765746 0.012222305 -0.037003107 0.01118344 -0.010241394 0.0016580482 0.025323436 -0.0037142716
0.0069369823 0.0008449369 0.01746683 -0.009480147 0.023032026 0.034367707 -0.050786287 -0.019015312
0.029914388 0.025408886 -0.017643431 0.015984816 -0.039077353 -0.024914186 0.021200083 -0.0035518834
0.024704328 0.016085332 0.015923206 0.022707524 0.00097135315 -0.03501871 -0.043407656 -0.01741571
-0.049013447 -0.032073915 -0.03502426 0.03484481 -0.05557081 0.01823969 -0.009299908 -0.03244332
0.0015053959 -0.04690435 -0.04295754 0.0012951983 0.003299929 -0.056731373 -0.0357648 0.015990304
-0.01885346 -0.056638326 -0.0026655896 -0.010662709 0.01676368 -0.01401847 -0.02964379 -0.027591458
0.020813622 -0.0070825405 -0.03980006 -0.019852903 -0.03932227 -0.040730286 -0.025812149 -0.03758659
-0.025934437 0.0024267414 0.0027808514 -0.0040116333 0.003244391 0.028043862 -0.007575685 -0.037584633
-0.05630985 -0.03881266 0.013388723 -0.0033456357 -0.020304753 0.029937906 -0.00949969 -0.036126666
-0.033965204 -0.0004909799 -0.036068395 -0.028112166 0.012443845 0.0075081396 0.0047695506 -0.011151753
-0.014431958 -0.054389607 0.010168649 0.03591187 -0.016269345 0.014632828 0.0376756 -0.015899595
0.009377937 0.026307683 -0.015983315 0.021495456 -0.009696269 -0.028322699 0.017789308 -0.028180113
-0.018783612 -0.040257886 -0.045086194 -0.026810821 0.02361935 -0.019140633 -0.039017055 -0.017829344
00000000: 8576 4bbc 2657 e0bc 2a7f 5abc abf6 02bc
00000010: 737e 50bd d7f7 9b3c 766c 243c c28d 6bbc
00000020: 3113 b3bc dfca 90bc 14d4 58bd ce04 dd3c
00000030: 6be6 5ebc 1275 54bc 6e7a f03c 5e28 be3c
00000040: 34df 56b7 8c88 c23c 3d9b fe3c 5f3e 7f3b
00000050: d5df b43c 633f d83c f60d c4bc 42e9 c9bc
00000060: 445c c43c 3b20 8cbc e09e 1ebc b165 66ba
00000070: a3c3 ac3c d10b 32bd 25ea 14bd 7905 8abb
00000080: 8aa1 1c3b 06cb a53c 3c32 30bd f847 0a39
00000090: 8f20 533c 5157 623b 966a f53c fe0f ea3c
000000a0: 695b 043d 4bfb bdbb 6f21 63bd edcd ee3c
000000b0: bfae 32bd 7303 c3bc 8fa2 0abc 1ee6 9b3c
000000c0: 06f0 40bd 87f5 63bd 6c1e 523c efdb 58bd
000000d0: 3080 003d 5ee6 30bd f42f d2bb ec3f 07bd
000000e0: 4028 f6bc ddd7 b93c 6085 88bc bb48 86bb
000000f0: e968 c13c 05b9 983c 70ec fbbc a70a 4abd
00000100: a121 603c 7568 073d 710d 66bd 23e5 9cbc
00000110: f2d8 08bd 5b2d 723a d815 89bb a1c6 e5bc
00000120: dbe9 803c 0f1d 0abb b130 0ebc d8c9 22bd
00000130: 2d1a a73c 172d 38bd 53a6 353c ae5a 0f3d
00000140: c5f2 28bd f752 043c 3db0 d73c 40fc 15bd
00000150: 8162 0f3d 7da1 67bd 0f52 e53c 51c5 ddbc
00000160: 7694 2e3d 813e 34bd 4024 cd3c 990b 99bc
00000170: 072b 303c 2bc2 72bd 77c7 f53c d440 08bd
00000180: fc85 f23a 7736 28bd 9071 7b3c 9b3a 6cbc
00000190: 9539 84bc 3426 2b3d fa35 b1bb 28dc c03c
000001a0: d3dc 173d e624 7d3b d60d 02bd 4aa6 b53c
000001b0: 1dae 27bd 4b88 13bd 7b49 a3bc 378b 173d
000001c0: 622a 103d d1d6 823c 3121 d2bc 0bb9 753b
000001d0: 9144 f83c 4ee1 07bd 09f2 3cbd 0c80 ffbc
000001e0: 9730 24bd d8d5 033c 7af4 f1bc 49bb e73c
000001f0: d458 4ebd aa8f 1b3c 8d85 dcbc 0b0e efbc
00000200: 4724 073d 58a9 78bc 3f18 1dbd 1ffd d93c
00000210: 8f30 953b 57a4 a13c 3de9 4fbd 3a42 13bd
00000220: db77 32bc 245d cabc c468 17bd ea45 803c
00000230: 5d09 12bd b616 5cbd a0a5 b53c a77a 233b
00000240: 8200 20bc 1040 483c 9290 17bd bf3a 373c
00000250: 85cb 27bc de52 d93a 1873 cf3c 236b 73bb
00000260: a04f e33b c17e 5d3a 9916 8f3c 9e52 1bbc
00000270: a9ad bc3c 27c5 0c3d 4805 50bd 00c6 9bbc
00000280: 050f f53c 4c26 d03c f588 90bc 97f2 823c
00000290: 930f 20bd d618 ccbc ccab ad3c b7c6 68bb
000002a0: bb60 ca3c 63c5 833c 6271 823c 2105 ba3c
000002b0: 68a2 7e3a c76f 0fbd 3acc 31bd 64ab 8ebc
000002c0: 53c2 48bd f05f 03bd 9975 0fbd 6eb9 0e3d
000002d0: 389e 63bd 676b 953c a45e 18bc 49e3 04bd
000002e0: b450 c53a c71e 40bd 3ff4 2fbd a5c3 a93a
000002f0: 9f43 583b 285f 68bd 1c7e 12bd 19fe 823c
00000300: 9272 9abc 97fd 67bd 2cb1 2ebb a5b2 2ebc
00000310: fc53 893c baad 65bc 89d7 f2bc 7b07 e2bc
00000320: 5481 aa3c a814 e8bb 6305 23bd 8ea2 a2bc
00000330: 6310 21bd cdd4 26bd 0074 d3bc 65f4 19bd
00000340: 7574 d4bc f709 1f3b f23e 363b 0574 83bb
00000350: d99f 543b 3ebc e53c 743d f8bb 58f2 19bd
00000360: 28a5 66bd 06fa 1ebd 605c 5b3c 7442 5bbb
00000370: 2756 a6bc 5740 f53c 96a4 1bbc 8ef9 13bd
00000380: 191f 0bbd 1ab5 00ba 74bc 13bd 7c4b e6bc
00000390: 45e1 4b3c d706 f63b e449 9c3b d8b5 36bc
000003a0: 0574 6cbc a3c7 5ebd 689a 263c 5318 133d
000003b0: 4a47 85bc 87be 6f3c bb51 1a3d de3f 82bc
000003c0: eba5 193c 3683 d73c 71ef 82bc 3d17 b03c
000003d0: 1add 1ebc 0105 e8bc e2ba 913c fbd9 e6bc
000003e0: 17e0 99bc 74e5 24bd 4dac 38bd 5ea2 dbbc
000003f0: 5e7d c13c d1cc 9cbc 59d0 1fbd d80e 92bc

fc1.bias f4 [256]
-0.007327421 0.022816107 0.03029352 0.27049404 0.2692999 0.081177264 -0.021653416 0.027341511
0.062086906 -0.004558867 0.03191623 0.14683399 -0.24480449 -0.016623277 -0.018222785 -0.03343147
-0.026731802 0.1147872 0.013567947 0.091738164 0.14315353 -0.05930528 0.032137107 0.006402832
0.13057677 -0.27828962 0.0104661435 -0.015053822 -0.0736299 0.0729425 -0.051402777 0.022182686
0.09947407 -0.01875139 0.0051907552 0.018585602 -0.070382714 0.17181167 -0.028609602 0.021918094
-0.06106393 0.19350447 0.046357315 -0.010282832 0.1428444 0.08379987 0.10674464 -0.039102815
0.019657277 -0.3016271 -0.02869931 -0.0078744935 0.06723238 0.0016081707 0.10510787 0.07386471
-0.045046926 0.20283972 -0.01863467 -0.053902972 0.18910362 -0.055821 0.17785315 -0.029185828
0.1405955 -0.22740406 -0.0287771 0.09917494 0.020376919 -0.0013719831 -0.016108302 -0.004281945
0.11331618 -0.10277277 0.01042364 0.05480991 -0.0016315414 0.027228275 0.09616176 -0.21238019
-0.2526222 0.015048638 -0.04167133 -0.030286388 0.074791506 -0.055600163 0.011660274 -0.01419383
-0.030944914 0.00428172 0.11892532 -0.060909517 0.09973134 0.033576 0.0371651 0.058750544
0.2590569 0.0973949 0.039573915 0.18985648 -0.0052411547 -0.30483106 -0.043149013 0.05611878
0.2517076 -0.105599515 -0.010472166 0.091450766 0.1444701 -0.018807428 0.2389601 -0.06481266
0.12762557 0.087143086 -0.07922963 -0.007642079 0.08210151 0.0864687 0.12869203 0.2346951
0.12363984 -0.033303384 0.021631133 0.120683536 0.003546085 0.15648915 -0.03645927 -0.032688726
-0.048938937 0.17660019 0.17198941 -0.001777095 0.067903616 -0.014489443 0.017741702 -0.036243793
0.1752978 0.05403512 -0.09058669 -0.057742383 0.07011146 0.047496602 0.14018656 0.14051996
-0.03331089 -0.028304845 0.09538497 -0.08501193 0.22723502 -0.013388532 0.006980349 -0.010800836
0.13889602 -0.009782893 0.035028536 -0.04721602 0.11008301 0.015350098 0.278946 -0.0026026242
0.08143287 0.16852865 0.22471224 0.16729623 0.17399403 0.030194577 0.009936384 -0.00599695
0.10364468 -0.100619555 0.09653624 -0.0075127063 -0.0057724537 0.19701144 -0.032534048 0.0610611
0.03680969 -0.50050384 0.06360027 -0.048529297 -0.036556844 -0.008251552 0.09686698 -0.17933631
-0.046585135 0.18781534 0.10259456 -0.010168943 0.07041276 -0.062517405 0.04334852 0.007639044
-0.05306047 0.05016977 0.144704 0.062970385 0.18408555 0.032834195 0.0085013965 0.020275626
-0.026803777 -0.15349211 0.02480728 -0.02739433 -0.05660862 0.078049116 -0.074104734 0.1084554
-0.050862826 0.032729767 0.08107479 -0.35770446 -0.019221982 0.09655542 0.18876399 -0.003941593
0.19143902 -0.1230043 0.22300851 0.04305714 0.10817617 0.044767063 0.008478148 -0.120377
0.10738792 0.2249689 -0.014902212 0.02793226 0.12513022 0.08405023 0.11655846 -0.050622832
-0.07330721 0.033434182 -0.22777455 0.07710674 0.09619009 -0.025066337 0.26481616 0.015225295
0.04630575 -0.14171508 0.21822216 0.030731307 0.0118184155 -0.022047177 -0.34135672 -0.034531265
-0.008419639 0.026208125 -0.006291742 0.18700852 0.1560441 0.09256957 -0.0029011639 -0.03666968
00000000: dd1a f0bb d8e8 ba3c 1e2a f83c 327e 8a3e
00000010: ade1 893e 4440 a63d 8162 b1bc 4efb df3c
00000020: d74e 7e3d 8c62 95bb 98ba 023d a65b 163e
00000030: 07ae 7abe 8a2d 88bc f347 95bc 70ef 08bd
00000040: a7fc dabc 8d15 eb3d 184c 5e3c 38e1 bb3d
00000050: d796 123e 18ea 72bd 33a2 033d d9ce d13b
00000060: ebb5 053e fa7b 8ebe 307a 2b3c 4ea4 76bc
00000070: 46cb 96bd e162 953d b88b 52bd 77b8 b53c
00000080: 10b9 cb3d 849c 99bc 3617 aa3b d540 983c
00000090: d024 90bd 66ef 2f3e af5e eabc 938d b33c
000000a0: 2c1e 7abd 0926 463e 2be1 3d3d 5379 28bc
000000b0: cd45 123e 449f ab3d ef9c da3d 462a 20bd
000000c0: 4c08 a13c de6e 9abe d11a ebbc 0504 01bc
000000d0: 21b1 893d 41c9 d23a cc42 d73d 6246 973d
000000e0: 2083 38bd 37b5 4f3e bca7 98bc 5dc9 5cbd
000000f0: 61a4 413e 90a4 64bd 231f 363e 1e17 efbc
00000100: 44f8 0f3e 9cdc 68be f4bd ebbc 3b1c cb3d
00000110: 7fed a63c 1dd4 b3ba 8ff5 83bc 8f4f 8cbb
00000120: 5012 e83d 887a d2bd eac7 2a3c 5b80 603d
00000130: 72d9 d5ba d50d df3c 75f0 c43d 317a 59be
00000140: b257 81be 908e 763c 8eaf 2abd 291b f8bc
00000150: 4a2c 993d ffbc 63bd bc0a 3f3c 3d8d 68bc
00000160: 3080 fdbc ac4d 8c3b 1e8f f33d 427c 79bd
00000170: f23f cc3d fd86 093d 6f3a 183d 69a4 703d
00000180: 1ba3 843e fa76 c73d 4218 223d bd69 423e
00000190: febd abbb d112 9cbe 05bd 30bd cedc 653d
000001a0: d2df 803e 8f44 d8bd 7393 2bbc 8a4a bb3d
000001b0: f8ef 133e 0912 9abc f5b1 743e 80bc 84bd
000001c0: 47b0 023e 1378 b23d 2543 a2bd 686a fabb
000001d0: d624 a83d 8016 b13d d8c7 033e ea53 703e
000001e0: e236 fd3d 2169 08bd c633 b13c ee28 f73d
000001f0: 6f65 683b b13e 203e 5156 15bd 9de4 05bd
00000200: 3274 48bd aed6 343e fe1d 303e 6aed e8ba
00000210: 0d11 8b3d 2165 6dbc 0c57 913c 5f74 14bd
00000220: 4481 333e ee53 5d3d 8485 b9bd 4783 6cbd
00000230: 9996 8f3d cc8b 423d 118d 0f3e 77e4 0f3e
00000240: 0071 08bd 90df e7bc 3259 c33d bc1a aebd
00000250: 4cb0 683e 935b 5bbc 69bb e43b fdf5 30bc
00000260: c23a 0e3e 6d48 20bc 157a 0f3d 9665 41bd
00000270: 3373 e13d fa7e 7b3c 03d2 8e3e ca90 2abb
00000280: 47c6 a63d c692 2c3e f71a 663e b44f 2b3e
00000290: 7e2b 323e 9e5a f73c 37cc 223c 1082 c4bb
000002a0: a943 d43d a011 cebd cbb4 c53d 262d f6bb
000002b0: da26 bdbb 5ebd 493e 6c42 05bd 341b 7a3d
000002c0: c2c5 163d 0521 00bf dc40 823d a8c6 46bd
000002d0: a1bc 15bd 8431 07bc 3262 c63d f0a3 37be
000002e0: 0ed0 3ebd aa52 403e 191d d23d a39b 26bc
000002f0: 9134 903d 2009 80bd 388e 313d f250 fa3b
00000300: ef55 59bd d17e 4d3d 492d 143e 9ef6 803d
00000310: ec80 3c3e 267d 063d 7149 0b3c 1219 a63c
00000320: 9893 dbbc 092d 1dbe a338 cb3c 136a e0bc
00000330: 71de 67bd 37d8 9f3d 39c4 97bd dd1d de3d
00000340: 8a55 50bd a60f 063d 8a0a a63d 0a25 b7be
00000350: 6b77 9dbc d9be c53d 594b 413e 7b28 81bb
00000360: 9708 443e aee9 fbbd 585c 643e af5c 303d
00000370: 788b dd3d ab5d 373d eee7 0a3c 3788 f6bd
00000380: 33ee db3d 3f5e 663e 6828 74bc 32d2 e43c
00000390: 2322 003e 8722 ac3d 34b6 ee3d e359 4fbd
000003a0: 1722 96bd 48f2 083d bb3d 69be 23ea 9d3d
000003b0: 4fff c43d eb57 cdbc fc95 873e 8473 793c
000003c0: 19ab 3d3d c21d 11be a175 5f3e 39c0 fb3c
000003d0: 07a2 413c 489c b4bc 4fc6 aebe a870 0dbd
000003e0: 87f2 09bc 6cb2 d63c f52a cebb 297f 3f3e
000003f0: 06ca 1f3e 1d95 bd3d 7421 3ebb f232 16bd

fc2.weight f4 [128, 256]
-0.027125806 0.12106227 0.12194125 0.19605067 0.10115731 0.025539942 0.03207761 -0.024802227
-0.16564894 0.016591327 0.0379114 0.13546698 0.059592556 -0.030039363 -0.13780355 -0.5341419
-0.057300966 0.27292868 0.05040139 0.09674919 0.02524478 0.052233502 0.25374284 -0.065530635
0.10749882 -0.0067821057 -0.032969233 -0.17926839 -0.09103137 -0.018757263 -0.04944294 -0.02847012
0.094041504 0.016664036 -0.028867207 0.13453807 0.038377084 0.10277261 0.0015085746 0.025381763
-0.023388464 -0.038134303 0.09028437 -0.01811473 0.012810481 -0.017773833 -0.28660166 -0.10049903
0.023059288 -0.085750446 -0.01291689 0.018486153 0.010867635 -0.06715062 0.008362941 0.0039453004
-0.045293104 -0.0069386195 0.009422396 0.008853256 0.16471542 -0.03436009 -0.10092597 -0.2785276
0.07307755 -0.03757501 0.071349725 0.09962759 0.14143187 0.0034753247 -0.017878693 -0.059792053
0.021652464 -0.08259939 0.012403941 0.011460659 -0.006285322 -0.17736563 0.08738534 0.0015745054
0.05970627 -0.006549011 0.035808202 0.07887921 0.08348644 -0.024667552 -0.025777001 0.029241994
0.029190078 -0.06310867 -0.0038346273 0.037797976 0.0048689223 0.09839865 0.00911506 -0.06985154
0.12583552 0.11174324 -0.058495574 0.18736148 0.038057342 -0.24237029 -0.01413948 -0.36203995
-0.10909551 -0.6982576 0.04502747 0.14288934 0.1346771 0.016973536 0.14080432 0.112033
-0.103622064 0.069064185 0.0011459165 0.1031979 0.044536505 0.05542761 0.08528935 0.17150646
-0.10665531 0.04535757 0.085442625 0.17915353 -0.48042196 0.008163908 0.02927792 0.031233551
0.024023429 0.13388517 0.114449784 -0.010597173 -0.01575997 0.025153296 0.1757951 0.00068230985
-0.047956098 -0.080488175 0.03368274 -0.040348724 0.03651833 0.084204786 0.013189203 0.12672637
0.0058707152 -0.046157647 -0.023001116 -0.029385563 0.062431995 0.22302596 0.0022367078 -0.0016051588
-0.31953627 0.055254716 -0.10807188 0.042789184 -0.25172076 -0.039085668 0.0062576886 -0.005399421
0.12161771 0.06160637 0.120274596 0.1766881 0.0552759 -0.028012427 0.0052421326 -0.19700712
-0.039466828 -0.2419751 -0.07772761 0.06317183 0.0075556445 0.0337168 0.06519333 0.08125328
-0.06815177 -0.3471726 0.05099396 -0.059820097 0.0027186594 0.03428247 0.014000429 -0.16813844
0.057189625 0.09625175 -0.1340177 0.06750877 0.12597479 -0.061085623 0.006943886 0.15782346
0.03675065 0.07792802 0.08599215 -0.44489983 -0.046125747 0.07431175 -0.0622326 -0.3770353
0.036307473 -0.07800057 -0.035515893 0.04119381 -0.016231677 -0.15255664 0.15183719 0.0059176832
0.06412541 0.042580597 0.34309945 0.0010025876 -0.031939752 -0.34841806 -0.19496666 0.05349855
0.09921065 0.28078708 0.22843413 0.09227243 -0.22837201 0.12088192 0.00033398627 -0.12066046
0.11945688 -0.025053028 -0.022672566 0.19993803 0.05567203 0.1511626 0.016755342 0.072376095
-0.15235803 0.10416936 -0.05103722 -0.09652883 0.0036640828 -0.01990059 -0.040898256 -0.0015013496
-0.19585031 -0.03427495 0.0062267017 0.0060638324 0.04140337 -0.019107163 -0.0982167 0.10887367
-0.044286545 -0.0035047259 -0.00620927 -0.18230273 0.08176835 0.10362608 0.01958155 -0.07003045
00000000: f036 debc 7fef f73d 56bc f93d 82c1 483e
00000010: 902b cf3d 2439 d13c d063 033d 0a2e cbbc
00000020: e09f 29be 89ea 873c fc48 1b3d dbb7 0a3e
00000030: 5317 743d 1c15 f6bc 601c 0dbe 86bd 08bf
00000040: 6bb4 6abd 4fbd 8b3e b071 4e3d 7024 c63d
00000050: 24ce ce3c ccf2 553d 95ea 813e ed34 86bd
00000060: 5728 dc3d 6d3c debb bf0a 07bd 2292 37be
00000070: a86e babd d5a8 99bc ae84 4abd 2b3a e9bc
00000080: d598 c03d 0483 883c ec7a ecbc 59c4 093e
00000090: 4a31 1d3d 727a d23d 5dbb c53a 6aed cf3c
000000a0: 2a99 bfbc b732 1cbd 03e7 b83d 5865 94bc
000000b0: 0de3 513c 6e9a 91bc 74bd 92be 6fd2 cdbd
000000c0: d5e6 bc3c ee9d afbd 5da1 53bc 4670 973c
000000d0: 2a0e 323c 4486 89bd b804 093c 9447 813b
000000e0: 4385 39bd 5c5d e3bb 6560 1a3c 3f0d 113c
000000f0: 29ab 283e 2abd 0cbd 46b2 cebd 2b9b 8ebe
00000100: afa9 953d 41e8 19bd ce1f 923d 8d09 cc3d
00000110: 84d3 103e 46c2 633b 5676 92bc 83e8 74bd
00000120: 8260 b13c de29 a9bd e639 4b3c 7dc5 3b3c
00000130: 1af5 cdbb 569f 35be 16f7 b23d a25f ce3a
00000140: 908e 743d 1699 d6bb 9fab 123d 6c8b a13d
00000150: f0fa aa3d 9b13 cabc 4a2a d3bc e88c ef3c
00000160: 0820 ef3c 1e3f 81bd 5f4e 7bbb 0dd2 1a3d
00000170: 7b8b 9f3b 3b85 c93d 5557 153c 530e 8fbd
00000180: 07db 003e a4d9 e43d 0e99 6fbd b0db 3f3e
00000190: 04e2 1b3d eb2f 78be 47a9 67bc 4d5d b9be
000001a0: 776d dfbd 03c1 32bf b96e 383d 9551 123e
000001b0: cbe8 093e 160c 8b3c 022f 103e 8f71 e53d
000001c0: ce37 d4bd 8671 8d3d 9432 963a 6c59 d33d
000001d0: e96b 363d 1008 633d 2fac ae3d 649f 2f3e
000001e0: 196e dabd dcc8 393d 8bfc ae3d 0674 373e
000001f0: def9 f5be e9c1 053c 40d8 ef3c 81dd ff3c
00000200: c8cc c43c 3219 093e a664 ea3d c49f 2dbc
00000210: 0d1b 81bc 490e ce3c a103 343e 0add 323a
00000220: 9d6d 44bd fcd6 a4bd eaf6 093d b444 25bd
00000230: 3f94 153d 8f73 ac3d 8717 583c 8fc4 013e
00000240: 215f c03b cd0f 3dbd d66c bcbc feb9 f0bc
00000250: b1b8 7f3d eb60 643e bb95 123b 3164 d2ba
00000260: 429a a3be c552 623d ca54 ddbd b643 2f3d
00000270: 8be1 80be 4b18 20bd 4c0d cd3b a0ed b0bb
00000280: b512 f93d f656 7c3d 8752 f63d baed 343e
00000290: fb68 623d 517a e5bc 32c6 ab3b 3cbc 49be
000002a0: f8a7 21bd 52c8 77be a72f 9fbd 3b60 813d
000002b0: 5795 f73b a11a 0a3d 1584 853d 1f68 a63d
000002c0: 2893 8bbd 9bc0 b1be 0bdf 503d eb05 75bd
000002d0: 892b 323b c66b 0c3d 0e62 653c 7c2c 2cbe
000002e0: ab3f 6a3d a31f c53d f03b 09be 0a42 8a3d
000002f0: 89ff 003e eb34 7abd 8a89 e33b 799c 213e
00000300: d987 163d ba98 9f3d a71c b03d e9c9 e3be
00000310: 5aee 3cbd c230 983d 9ce7 7ebd c50a c1be
00000320: 25b7 143d c3be 9fbd 1d79 11bd d7ba 283d
00000330: 4bf8 84bc cf37 1cbe 357b 1b3e 20e9 c13b
00000340: 2f54 833d fe68 2e3d bbaa af3e 4269 833a
00000350: 42d3 02bd da63 b2be 57a5 47be 4c21 5b3d
00000360: f42e cb3d 53c3 8f3e a3ea 693e 54f9 bc3d
00000370: 5ada 69be f190 f73d e11a af39 d51c f7bd
00000380: cfa5 f43d 023c cdbc d1bb b9bc 8ebc 4c3e
00000390: 5b08 643d 5eca 1a3e 8042 893c eb39 943d
000003a0: be03 1cbe bf56 d53d 670c 51bd e8b0 c5bd
000003b0: 1c21 703b 9006 a3bc ee84 27bd efc8 c4ba
000003c0: fc8c 48be e463 0cbd 5c09 cc3b 1db3 c63b
000003d0: 9596 293d a086 9cbc d625 c9bd 29f9 de3d
000003e0: cf65 35bd 8baf 65bb 2277 cbbb 91ad 3abe
000003f0: 2a76 a73d e939 d43d 7d69 a03c 206c 8fbd

fc2.bias f4 [128]
0.16047254 -0.16073824 0.15279649 0.20781226 0.16642141 0.23588109 0.03511016 0.22795504
-0.049132705 0.21290985 0.015433886 0.1666221 0.1845376 0.254695 -0.2480586 -0.07635601
0.1599119 -0.08311309 0.111032665 -0.0836463 -0.08264039 0.14285615 0.12618892 -0.009979698
-0.015166853 0.22967549 0.14243603 0.22822103 0.10351491 0.13509656 0.17369454 0.1404225
0.13616477 0.1956244 0.099233225 -0.09728854 0.14222692 0.2690402 0.195905 0.05107459
0.1489859 0.20920363 0.14793797 0.15214393 0.014884057 0.2155763 0.07775192 0.06883888
0.11364741 0.112271875 0.22090912 0.05836016 0.09023253 0.01637524 0.21240485 0.28660193
0.08505564 0.18044415 0.1311154 0.27263185 0.11682637 0.09408983 -0.054242767 0.17360899
-0.0648999 0.12839565 0.15229759 0.078510135 0.071666986 0.20455815 0.14814344 0.19182156
0.2569136 0.20337293 0.18642524 0.036024705 0.24266575 0.013409004 0.114927016 0.24652344
-0.0066889557 0.1793056 0.0762562 -0.041176196 0.12268597 0.115791835 0.14830945 0.19695866
0.011596357 0.0084142815 0.18877435 -0.044384398 0.14546369 0.19001013 0.14468558 -0.03447255
0.06873801 0.058536958 0.02279604 0.2052921 -0.38374767 0.24482958 0.092528045 -0.07120184
0.2982788 -0.0052480623 -0.00160947 0.08566467 0.15270321 0.053803623 0.08476408 0.23634629
0.09093435 0.20098568 0.15973783 0.19124085 0.24308223 0.14303158 -0.027437065 0.02594069
0.112273656 0.013060887 0.023614258 0.12373709 0.15821277 0.09329867 -0.10407276 0.18415187
00000000: ea52 243e 9198 24be af76 1c3e bdcc 543e
00000010: 606a 2a3e d08a 713e accf 0f3d 0c6d 693e
00000020: 603f 49bd 0a05 5a3e 69de 7c3c fc9e 2a3e
00000030: 6df7 3c3e 6267 823e 1303 7ebe 8a60 9cbd
00000040: f2bf 233e 3237 aabd 1865 e33d c04e abbd
00000050: 5d3f a9bd e248 123e ab37 013e e381 23bc
00000060: 647e 78bc 0d30 6b3e c0da 113e c6b2 693e
00000070: a0ff d33d c156 0a3e fbdc 313e eaca 0f3e
00000080: c76e 0b3e c351 483e ca3a cb3d 373f c7bd
00000090: efa3 113e a3bf 893e 529b 483e 9733 513d
000000a0: c38f 183e 7a39 563e 0d7d 173e 9ecb 1b3e
000000b0: 43dc 733c 09c0 5c3e 663c 9f3d 66fb 8c3d
000000c0: f9bf e83d ccee e53d 0036 623e 100b 6f3d
000000d0: d5cb b83d 5e25 863c a880 593e 7dbd 923e
000000e0: a731 ae3d 5ac6 383e 1e43 063e 6796 8b3e
000000f0: aa42 ef3d 2bb2 c03d aa2d 5ebd 8ec6 313e
00000100: 3dea 84bd 267a 033e e6f3 1b3e ecc9 a03d
00000110: 24c6 923d b177 513e eab2 173e df6c 443e
00000120: 2e8a 833e fe40 503e 42e6 3e3e a48e 133d
00000130: 5f7d 783e 70b1 5b3c db5e eb3d a470 7c3e
00000140: 072f dbbb e39b 373e 362c 9c3d 5fa8 28bd
00000150: c842 fb3d 4524 ed3d 6fde 173e 88af 493e
00000160: a6fe 3d3c 0edc 093c 104e 413e 6acc 35bd
00000170: 6ff4 143e 0492 423e 7528 143e 1733 0dbd
00000180: 84c6 8c3d 73c4 6f3d c3be ba3c 1838 523e
00000190: 937a c4be 9bb4 7a3e 587f bd3d 45d2 91bd
000001a0: 00b8 983e f0f7 abbb daf4 d2ba f570 af3d
000001b0: 3b5e 1c3e 3061 5c3d ca98 ad3d c304 723e
000001c0: ca3b ba3d 31cf 4d3e 5092 233e a4d4 433e
000001d0: 8cea 783e df76 123e b2c3 e0bc 9281 d43c
000001e0: bbef e53d 55fd 553c b072 c13c df69 fd3d
000001f0: 8702 223e 6013 bf3d 1924 d5bd 4f92 3c3e

fc3.weight f4 [4, 128]
-0.090428196 0.43401548 -0.11645958 0.39954197 -0.36538705 0.62630516 -0.011008105 -0.3572957
0.016521534 -0.11369214 0.07315629 -0.17667386 -0.26265562 -0.30195865 0.63302684 0.0070308098
-0.16424571 0.029061701 -0.11223907 0.013205867 0.07025802 -0.17291175 -0.16450775 0.790285
0.10240298 -0.25437722 -0.111251265 -0.24744447 0.80944824 -0.14738333 0.4585353 -0.22758754
-0.20425151 -0.23372108 -0.22837539 0.5043337 0.5987485 -0.16049373 -0.1320845 0.0032966405
-0.3390235 1.0898068 -0.11208474 0.6564339 -0.040719047 -0.057482284 0.18468444 -0.17958619
-0.073751755 -0.47404605 -0.20495237 -0.37029263 0.119696796 0.056613903 0.5040444 0.5734794
0.60451925 -0.15044846 -0.2656925 -0.18212005 -0.64742225 -0.11549836 -0.033062525 0.42640126
-0.015404025 -0.2824108 -0.03886548 -0.10563075 -0.2319324 -0.15204272 -0.13010944 -0.21468969
-0.26373947 0.6579104 -0.43603417 0.90543735 -0.17853294 0.22560512 0.91554034 0.6151606
0.87326705 -0.13212895 0.3427418 -0.040945515 0.34922794 -0.18182236 -0.17888409 -0.26930028
-0.46305335 -0.37348965 0.5897664 0.07353519 -0.20784357 -0.14098744 -0.1961304 0.06553885
-0.6336052 -0.12768035 -0.16179775 -0.22969498 0.0026377484 0.50310135 -0.15297587 -0.02989817
-0.26934123 0.090527646 -0.032108776 -0.31001604 -0.17523646 0.83537847 0.63747543 -0.22635621
-0.3851852 -0.13064936 0.69444525 -0.26662743 -0.23079693 -0.015547728 -0.44708204 -0.24981248
-0.15926373 -0.0058588376 0.00037262027 0.9228319 0.7641514 -0.11799177 -0.19145441 -0.16625859
-0.14508657 0.21807426 -0.07804234 0.3875278 -0.19016266 0.65448534 -0.060908936 -0.46830785
-0.014764308 -0.114299975 0.01780416 -0.62804514 -0.3266588 -0.28049347 0.6151514 -0.08273553
0.04064711 0.04290207 -0.112258494 -0.08351786 -0.024296323 -0.13681279 -0.23103203 0.70981956
-0.049184028 -0.18172778 -0.12474352 -0.24828939 0.87920445 -0.259865 0.6339475 -0.13754721
-0.41701874 -0.27045426 -0.16558348 0.62365705 0.7834007 -0.1329424 -0.06672288 -0.27670985
-0.2184679 1.1275864 -0.2795965 0.76887405 -0.18563697 -0.08180114 0.084527485 0.003940926
-0.113796696 -0.46736956 -0.09071253 -0.5025474 -0.053494096 -0.081281185 0.42012385 0.43321025
0.78013563 -0.03224137 -0.3840419 -0.22434747 -0.50474566 -0.13152787 -0.07473091 0.7186391
0.42578587 -0.59004337 0.010358354 -0.076498866 -0.12004191 -0.21400186 -0.26158875 -0.28875574
-0.27851892 0.5455994 -0.35539487 0.82503206 -0.21274337 0.05476029 1.1517968 0.5412805
0.6580889 -0.10508078 0.9335218 -0.04347228 -0.044439875 -0.19886048 -0.20643876 -0.1804739
-0.38864985 -0.4210324 0.49820107 -0.043229964 0.23802972 -0.23210907 0.023608176 0.02312578
-0.5549754 -0.26712707 0.015435796 -0.35894164 0.022278408 0.578551 -0.32646528 0.026750557
-0.37022313 0.3029825 0.01255091 -0.17332289 -0.100658044 1.0304741 0.46285185 -0.18416932
-0.18233497 -0.11747791 0.5773171 -0.2655943 -0.3045022 -0.20339245 0.014516194 -0.030871661
-0.09949185 0.040774655 -0.04274411 0.96986127 0.46151066 0.13345116 0.14334191 -0.030645162
00000000: 6b32 b9bd 4737 de3e 5c82 eebd c490 cc3e
00000010: 0314 bbbe 8955 203f 575b 34bc 76ef b6be
00000020: 2b58 873c 6dd7 e8bd f7d2 953d fee9 34be
00000030: cc7a 86be 539a 9abe 0c0e 223f b562 e63b
00000040: 0730 28be ce12 ee3c 99dd e5bd 6c5d 583c
00000050: 70e3 8f3d c70f 31be b874 28be 1e50 4a3f
00000060: a7b8 d13d bb3d 82be b4d7 e3bd 1562 7dbe
00000070: 0038 4f3f a8eb 16be 24c5 ea3e b50c 69be
00000080: 4f27 51be 9454 6fbe 3ddb 69be 031c 013f
00000090: 9547 193f 7858 24be 2941 07be 730c 583b
000000a0: 7d94 adbe ca7e 8b3f af8c e5bd 0d0c 283f
000000b0: 04c9 26bd 8b72 6bbd eb1d 3d3e 71e5 37be
000000c0: 290b 97bd 2ab6 f2be 09df 51be ff96 bdbe
000000d0: 9823 f53d fbe3 673d 0e09 013f 8ccf 123f
000000e0: c6c1 1a3f 290f 1abe d908 88be ae7d 3abe
000000f0: 77bd 25bf 678a ecbd 926c 07bd 4451 da3e
00000100: 2a61 7cbc 2698 90be 6931 1fbd ef54 d8bd
00000110: b07f 6dbe 16b1 1bbe 693b 05be 9dd7 5bbe
00000120: dc08 87be d16c 283f df3f dfbe beca 673f
00000130: 57d1 36be 0705 673e da60 6a3f 2a7b 1d3f
00000140: 6e8e 5f3f d04c 07be da7b af3e 7cb6 27bd
00000150: 01ce b23e a42f 3abe 642d 37be bae1 89be
00000160: 5415 edbe 093a bfbe eefa 163f 9e99 963d
00000170: f2d4 54be 035f 10be 68d6 48be 3c39 863d
00000180: f333 22bf a3be 02be 4fae 25be 2935 6bbe
00000190: 13de 2c3b 40cb 003f b5a5 1cbe 02ed f4bc
000001a0: 18e7 89be 8f66 b93d 7e84 03bd 6cba 9ebe
000001b0: 3071 33be 5ddb 553f 9731 233f ecc9 67be
000001c0: ff36 c5be f2c8 05be 2ac7 313f 6483 88be
000001d0: 0856 6cbe e6bb 7ebc f0e7 e4be d8ce 7fbe
000001e0: 0816 23be 7efb bfbb 3f5c c339 b63e 6c3f
000001f0: 6d9f 433f aba5 f1bd a00c 44be b13f 2abe
00000200: 9391 14be dc4e 5f3e aad4 9fbd 0b6a c63e
00000210: 00ba 42be 5a8c 273f a67b 79bd 0cc6 efbe
00000220: ffe5 71bc 1b16 eabd 08da 913c 91c7 20bf
00000230: d23f a7be d79c 8fbe 907a 1d3f 3f71 a9bd
00000240: 967d 263d 15ba 2f3d c8e7 e5bd 690b abbd
00000250: 1509 c7bc a718 0cbe a993 6cbe bcb6 353f
00000260: 3175 49bd d916 3abe 8879 ffbd 933f 7ebe
00000270: 8b13 613f 060d 85be 624a 223f 2dd9 0cbe
00000280: 7b83 d5be fb78 8abe b78e 29be fda7 1f3f
00000290: f38c 483f 0d22 08be 01a6 88bd eaac 8dbe
000002a0: 0db6 5fbe c054 903f 4627 8fbe eed4 443f
000002b0: 9e17 3ebe 5b87 a7bd bf1c ad3d e222 813b
000002c0: 3e0e e9bd 104b efbe 7ec7 b9bd f2a6 00bf
000002d0: a01c 5bbd c076 a6bd 791a d73e bccd dd3e
000002e0: f8b6 473f 870f 04bd 24a1 c4be 58bb 65be
000002f0: 0337 01bf 3eaf 06be 850c 99bd bbf8 373f
00000300: 9b00 da3e 150d 17bf 16b6 293c 70ab 9cbd
00000310: 88d8 f5bd 4e23 5bbe f6ee 85be cbd7 93be
00000320: 089a 8ebe 67ac 0b3f 51f6 b5be 4d35 533f
00000330: 66d9 59be 534c 603d 146e 933f 5c91 0a3f
00000340: 8478 283f 9834 d7bd 49fb 6e3f fd0f 32bd
00000350: 9606 36bd 15a2 4bbe af64 53be 26ce 38be
00000360: 1dfd c6be 8f91 d7be 3614 ff3e e711 31bd
00000370: 10be 733e 00ae 6dbe ef65 c13c 4772 bd3c
00000380: de12 0ebf e1c4 88be 6ce6 7c3c 33c7 b7be
00000390: 3581 b63c eb1b 143f 7526 a7be fc23 db3c
000003a0: e38d bdbe 8620 9b3e 55a2 4d3c 8e7b 31be
000003b0: ce25 cebd 93e6 833f ebfa ec3e e296 3cbe
000003c0: 05b6 3abe 4298 f0bd 0ecb 133f fafb 87be
000003d0: b6e7 9bbe 1c46 50be 55d5 6d3c 91e6 fcbc
000003e0: 62c2 cbbd 5303 273d 7314 2fbd d448 783f
000003f0: 204b ec3e 6ca7 083e 39c8 123e 900b fbbc

fc3.bias f4 [4]
-0.043843947 -0.25846663 0.0623754 -0.014384725
00000000: b695 33bd bd55 84be 597d 7f3d e9ad 6bbc
