results/lunar_env32_bs512.pth (torch, 75564 bytes, 6 tensors)

net.0.weight f4 [128, 8]
00000000: 1e32 0a40 6a11 233e 69bd 523e 9657 b73f
00000010: 5297 b03f ebf1 95bf b650 9d3f cf81 083f
00000020: 4f69 f03e d67b 2d3f e48d 9a3f f44c 17c0
00000030: 74a3 003e 97ea b23e 9da9 463e 1a93 ecbd
00000040: 916e 37c0 0bae c83d d915 11bd 6aff 953f
00000050: d2df bb3f bdbe 563e 2ec6 f93b 0cfc 1b3f
00000060: f838 2f3e d145 553d 1a6a 1240 45a7 88bf
00000070: 6ad0 0dbf 1bd8 2dbe 672a ebbf 4727 07be
00000080: 3107 1c40 26f1 99bf 738c b5bf d984 4ac0
00000090: 08c5 333f 9f61 47bf d9b1 10c0 441e 5b3e
000000a0: 53d8 cf3f 8be4 58be 1427 bc3f 6dad 97bc
000000b0: 032a d13d d74c 943f b750 b63e a527 dbbe
000000c0: 077c d83e 44a4 bac1 7600 013e 9e16 08c0
000000d0: 07c8 b13e cb5a 1b3d 2839 273f 5c7b 15be
000000e0: a003 c9be fcb5 d9bf 8a82 07c0 f82a 9c3f
000000f0: ce18 0a3e 45dd 0ebd 556e 603f 32de fdbf
00000100: a1ff 2fc0 8c0d 48bf 34b6 4cbf 7a33 4ec0
00000110: 22b3 3c3f 223a 83bc 4721 53bd 78d9 9abe
00000120: 27e7 8e3e c901 033f ec6a f2be 26f3 113f
00000130: 266f 31be 0883 da3f 7a27 1f3e 6233 92bf
00000140: 9ef0 043e ab07 6fbf 31c8 673d dc10 19bf
00000150: b226 043e 41ef 843d cde0 f0be bc16 80bf
00000160: 4a1c fe3f b4ee eebe 8d3c 043e ca30 93bf
00000170: 5f7c f7be d400 2dbf 8ab5 10c0 25d9 9a3e
00000180: 4e7d 9140 07fb f8be 004c 8b3f a176 da3f
00000190: a720 a7be 5b72 923d 5530 e83e d334 be3e
000001a0: 6ba3 cbbe f2f2 5bbe eba9 1e3d ea03 cabe
000001b0: 059c 8d3f cb85 533e 436c 863e 0dd7 3a3e
000001c0: 5629 0940 7478 833f 3297 3e3e ff21 033e
000001d0: 334d 2abf 10fc 043f 9685 6e3f 07c2 8a3f
000001e0: ef41 2240 d31f a63f 5a38 ccbf 50dd a0bf
000001f0: 7a33 203e f504 78bd 1b32 cd3e 6f53 6cbe
00000200: 129e a7bd 4397 8abd 461c 1ebc 0964 afbf
00000210: 79ef d3bf d2ec 5c3f 505b 83bf 1312 2bc0
00000220: b9c5 ab3e 753f 9b3e c59c 17bf fbc6 3a3d
00000230: 5180 eb3e 77f9 cd3f 3a0b 1ec0 b78a 7abf
00000240: 1ab9 7dc0 a471 4a3f ac85 20bf 0842 b83e
00000250: a082 e2bd 7cf2 e73e a5c7 3d3f 0fd5 24bf
00000260: 2bbe 0ec0 c423 06be 62ca 27bf c06f 5abe
00000270: a1d4 5b3e bccf f1bd 1db6 40c0 bd32 103f
00000280: 6584 d5bd 0a72 c93e 8f21 1fbe 84cf e8bf
00000290: 3cbc e33e a2ad bd3d 448b 95be a14d c8bf
000002a0: 06aa 0cbf df18 19bc 51dd 62be 98a1 2a3d
000002b0: b6cf 95bf 86e3 38bf 1370 c23d af53 99bf
000002c0: 79cb f8bf c4e0 0fbf b49e 9a3f dd05 7d3f
000002d0: 91ad bdbf 5173 103f 8606 cd3e 36f6 e9bf
000002e0: b368 303d 2fa6 903f 3860 393f 8ac7 c0bd
000002f0: e021 a2bf 699e 8d3f 1ca6 993f 5ccd 013c
00000300: 1501 4a3f 8266 3a3e 68e1 46bf 6b40 4ebf
00000310: 2d84 98bf 0f6d 453f b962 cebe 8b7e 18c0
00000320: 8802 143f 7a19 5e3e fd89 d2bf e9ed cdbe
00000330: fc6d fb3f f755 c93d f17e be3e 909e 0c3f
00000340: 7b47 103f 5ee7 233f 2171 ed3f 26d0 ae3f
00000350: 3dd7 62bf 6688 9b3f 3f55 f3be a853 e8bf
00000360: 7e0c 42bf 5042 e6bd af42 47bf 50ee 48be
00000370: 7c5c cd3f d6b2 ca3f 590f 473f 3c92 e2bf
00000380: 3471 18c0 f8ac c43e 1931 05be 52b4 cd3f
00000390: 64f3 94be e94e a1bd 14be 98bf 0c29 8fbf
000003a0: 5b9a 81c0 9fd3 a5bc 6824 a5bf 90f1 853e
000003b0: 4392 843e 2089 11be c466 353e 3a68 0d3e
000003c0: 9f28 623f 419d 303f e781 adbe 7d6b 82bf
000003d0: bdf5 53be be01 073f f4c0 da3f 6b7f 8e3e
000003e0: f245 4a40 e55f 173d 57a7 233f 867a 713d
000003f0: f5ef db3d 5e09 6e3d 45de e8bf d7f3 a7bf
2.159309 0.15924612 0.20580067 1.4323604 1.3796179 -1.1714453 1.2290256 0.5332307
0.46955344 0.67767084 1.2074552 -2.3640718 0.12562352 0.34944603 0.1940064 -0.11551495
-2.8661234 0.09798821 -0.035421226 1.1718571 1.467768 0.20971198 0.007622502 0.6093147
0.17111576 0.052068535 2.287726 -1.0676047 -0.5539614 -0.16976969 -1.8372315 -0.13198577
2.437939 -1.2026718 -1.4183487 -3.1643584 0.7022252 -0.7788333 -2.260855 0.21398264
1.6237892 -0.21180932 1.4699426 -0.018515313 0.10213091 1.158595 0.35608456 -0.42803684
0.42282125 -23.330208 0.12597832 -2.1263804 0.3472292 0.037928384 0.6532159 -0.14597839
-0.39260578 -1.7008662 -2.1173425 1.2200613 0.13486025 -0.034878988 0.87668353 -1.9833434
-2.7499774 -0.7814567 -0.7996552 -3.2218919 0.73710835 -0.01601893 -0.051545408 -0.3024404
0.2791073 0.511746 -0.473472 0.5701164 -0.17327556 1.7071238 0.15542403 -1.1421931
0.12982413 -0.93371075 0.0565874 -0.5979135 0.12905386 0.064909466 -0.4704651 -1.0006938
1.9852383 -0.4666649 0.12913723 -1.1499264 -0.48337075 -0.6757939 -2.2610803 0.30243793
4.546546 -0.4862902 1.0882568 1.7067453 -0.326421 0.07150718 0.45349374 0.37149677
-0.39773116 -0.21479395 0.038736265 -0.3945611 1.1063238 0.20656507 0.26254472 0.18246098
2.143148 1.0271134 0.18612364 0.12805937 -0.66524047 0.51947117 0.93172586 1.0840462
2.5352743 1.2978462 -1.5954697 -1.2567539 0.15644637 -0.060551602 0.4007729 -0.23078702
-0.081844464 -0.06767132 -0.009650296 -1.3702403 -1.6557456 0.8629886 -1.0262241 -2.6729782
0.33549288 0.3032185 -0.59223586 0.04559992 0.45996335 1.6091756 -2.4694352 -0.9786791
-3.9644227 0.7907965 -0.6270397 0.35987878 -0.11060071 0.45302188 0.7413276 -0.643876
-2.230357 -0.13099581 -0.65543187 -0.21331692 0.2146783 -0.118072 -3.0111153 0.5632742
-0.10425643 0.39344817 -0.15540145 -1.8188329 0.4447955 0.092616335 -0.29207814 -1.564869
-0.54946935 -0.009344309 -0.22154738 0.041658014 -1.1704013 -0.72222173 0.09494033 -1.1978663
-1.9437095 -0.5620234 1.2079682 0.9883707 -1.4818593 0.5642596 0.4004404 -1.8278263
0.0430686 1.1300715 0.72412443 -0.09413059 -1.2666588 1.1063968 1.2003818 0.007922497
0.789079 0.18203166 -0.7768769 -0.80567044 -1.1915337 0.77119535 -0.40309694 -2.3827236
0.5781636 0.21689406 -1.6448361 -0.40220574 1.964294 0.098308496 0.37206224 0.5492945
0.5635907 0.64024913 1.8550149 1.3657272 -0.8860968 1.2151 -0.47525975 -1.815053
-0.7580031 -0.11243117 -0.77836126 -0.19622159 1.6043849 1.5835826 0.77757794 -1.7700877
-2.3819094 0.38413215 -0.1300701 1.6070654 -0.29091942 -0.07876379 -1.1933007 -1.1184402
-4.050092 -0.02024251 -1.2901735 0.2616086 0.2589284 -0.14212465 0.17714983 0.1380929
0.8834323 0.6898995 -0.3388817 -1.0189053 -0.2069921 0.52737033 1.7090135 0.27831587
3.1605191 0.036956687 0.63927215 0.058954738 0.107391275 0.058114402 -1.8192831 -1.3121289

net.0.bias f4 [128]
00000000: a0e3 a6bf 5f40 063f 90f9 8cbf b6ab 623d
00000010: 4c5e 45be 2a6d 253e 9b92 86be 1838 6bbf
00000020: 9a77 4c3f c8ce 9e3e ebee 8b3f d2fc 8f3e
00000030: 372b 8abf 6c76 da3f 85e0 e1bf 5f9b e1be
00000040: a230 11bf f8f8 b43e c329 90bf 6fb1 543f
00000050: 49d3 a93e bb56 09bc 2bc9 c9be 8b0f 9bbf
00000060: c357 0c3e 8562 38bf 5d17 06c0 acee fcbd
00000070: a931 d4bf fe58 81be da0c dfbf 2d2e 2bbc
00000080: a0b1 b83f 769c 09c0 05c8 1f3c d55d 343f
00000090: 0674 47bd 372a d03e 72d9 333f 4cc3 3e3f
000000a0: 8b91 98bf 5eca 313f 695d 23bf 0c91 eabf
000000b0: de28 edbe f43d 4d3e 442c c3bf aa6a 353f
000000c0: ba38 383b 91ed 49bf 4279 19c0 4e32 49bf
000000d0: 5755 1f3f f9b8 31bf f1ba bfbf 6c17 b6bf
000000e0: 5d24 c33e 7640 5a3e ec9c bfbf 0352 133f
000000f0: 8e56 c0be 14f2 183f 127d b93f 7aaa a0bf
00000100: f349 c23e 5e4d a93f 8aaa 3e3e e99b 3b3f
00000110: 506d 6abf bab1 69bf d617 6ebf 53f6 9d3e
00000120: ff91 9fbf 9689 0dc0 d1d8 e7bf 6275 76bc
00000130: 93ed 063f 312f 903f e318 153f 24b0 8d3f
00000140: 7bb6 f13d 013d 8dbe 06ee 7f3f 5d1a d9bf
00000150: b6c2 d03e 4674 933f a370 84bf 17c6 97bf
00000160: 5d12 43bc 3c7d c1bf 9ade f23e 18da da3d
00000170: 04ca 0ac0 d7de 86bf c824 a43c 3ce1 52bf
00000180: d1df aebd b730 ef3e 0408 ddbe fb3d c7bf
00000190: eac3 a0bf afd3 b3bf f93c 34bf ea41 d53a
000001a0: fa7d 44bf 6eef 17bf 3acf 323e b495 6c3e
000001b0: 841e e8be 47f5 613f f57a 153f deb1 25bf
000001c0: dea2 f0bf fdab 2a3f f248 7fbf af17 863a
000001d0: 6d55 023f 9538 9b3f 8df6 49bf 5799 2bbe
000001e0: b354 903f 55d9 91bf dc12 8f3f 4c90 93bf
000001f0: c627 56bf 1882 cabf 307c 833e 3b71 863c
-1.3038216 0.5244197 -1.101366 0.055339538 -0.19274253 0.16154924 -0.26283726 -0.9188247
0.7987 0.31017137 1.0932287 0.28122574 -1.0794438 1.706739 -1.7646643 -0.4406385
-0.5671483 0.35346198 -1.1262745 0.8308324 0.3316901 -0.008382495 -0.3941129 -1.2114118
0.13705353 -0.7202533 -2.095176 -0.123502105 -1.6577655 -0.25263208 -1.7425797 -0.010448021
1.4429207 -2.1501746 0.009752278 0.70455676 -0.048694633 0.40657207 0.7025367 0.7451675
-1.1919416 0.6944941 -0.6381441 -1.8325515 -0.46320242 0.20043164 -1.5247884 0.7086588
0.0028109984 -0.7887812 -2.398026 -0.78592384 0.62239593 -0.6942287 -1.4978925 -1.4225898
0.3811368 0.21313652 -1.4969764 0.57547015 -0.37566036 0.5974438 1.4491293 -1.2552025
0.37947044 1.3226736 0.18619743 0.73284775 -0.9157305 -0.91286814 -0.9300512 0.30851993
-1.246643 -2.2115226 -1.8113042 -0.015042635 0.5270626 1.1264402 0.582411 1.1069379
0.118023835 -0.27585605 0.9997257 -1.696117 0.40773553 1.1519859 -1.0346874 -1.1857327
-0.011906234 -1.5116343 0.47435457 0.10686129 -2.16858 -1.0536755 0.02003707 -0.8237493
-0.08538783 0.46716854 -0.43170178 -1.556579 -1.2559788 -1.4048976 -0.70405537 0.0016270254
-0.76754725 -0.59349716 0.17461863 0.23103982 -0.45335782 0.8826489 0.5839074 -0.6472453
-1.8799703 0.66668683 -0.9972068 0.0010230447 0.509116 1.2126642 -0.7889183 -0.16757713
1.1275848 -1.139445 1.117763 -1.1528411 -0.8365444 -1.5820951 0.25680685 0.016411414

net.2.weight f4 [128, 128]
00000000: dd74 acbf 72a7 c13e dde1 5240 df0c dc3e
00000010: 9a91 163f 682c 7b3e aba1 84bf eb53 23c0
00000020: 2626 83be cd05 b9be dd72 8cbe 1d2d 1c3e
00000030: f151 033f c243 94be 663a abbe 3f69 a6be
00000040: 6156 d4bf 0ff6 0940 7666 2cbf d7b7 943f
00000050: 92a5 ae3e c476 e5bf 46f0 1a3e 7497 61bd
00000060: 5de2 5fbf 4029 943e 3c90 3f3e aca4 51bf
00000070: 640f 893f 8825 433f 57be 943e aba1 97bf
00000080: d9fa 1c40 1774 923e 887c 4940 3672 b43e
00000090: 05d7 fcbe 27a6 55bd 3264 2ebf 4666 90bf
000000a0: 95cd 3fbe 6459 a03f 57ba 6cc0 b99c 12bf
000000b0: 5a87 fe3f 5a69 923e 7286 18bf 0ae0 da3f
000000c0: 5bb1 44bf e2ad 16bf a2b1 893f 210e d6be
000000d0: 1f75 9dbe 823f 5440 39d0 99be 2e21 b13e
000000e0: 2286 f0be 5efe c33f 925d 833f 5fda db3e
000000f0: 1d1e 09c0 c4e2 10bf b56a 6ebf aeaa 533e
00000100: a8f9 153f 30f5 a03e 6974 4fba 516f 0d3e
00000110: daf1 a53e cb81 a73f cb9b 4cbf c2a7 043f
00000120: 6530 d6bd 6525 14bf e8cd 9c3e c11c b7bd
00000130: c3e5 39be b774 a23f 9cac 493d eed9 b43f
00000140: 2ae3 0ebf a019 05c0 ec1c d7bd 46ac e1bf
00000150: 014e 563f 0305 323f 1ca2 1cbf 9019 3b3d
00000160: f72a cebf f7f1 1ebf 4238 68bd b4e4 283f
00000170: ae0f acbf f27e 6f3f a850 bcbf 6a68 2ebd
00000180: a765 773f 60e6 633f 4812 7e3d ae9a 9abf
00000190: d925 5f3f 12ed 763f f1d9 99bf cddf dbbe
000001a0: b930 923f c1f0 383f 6836 bcbd 0b65 a6bf
000001b0: f37c 21bf 5a50 063f 7f08 b4bf 923c a33f
000001c0: 37ee 2f3f dbb2 c8bf 2528 823f 7106 acbe
000001d0: ba56 d3be b612 da3e 8d3a 40bf 1f55 cabe
000001e0: d70a 14be 2c19 3cbf 8e22 393f bf82 e5bd
000001f0: 91a4 373f aed1 05bf 7b4b 433f 54de b23f
00000200: cff4 c33f befb b4bf d3a7 9540 1de4 a33f
00000210: 754c 7bc0 f7b4 883f 1406 803f 197c 513f
00000220: ce08 22bf 8972 5c3f f4fe bfbf 7856 1cc0
00000230: 9708 60bf 0451 81bf b282 debf 08b1 813e
00000240: 96f9 9dbe 53d7 75bf 1038 213f 0990 e03e
00000250: 2314 7bbf 7626 18be 8995 7f3f 59b3 3bbf
00000260: 7519 5bbd 8624 e33e 82b7 df3f 335c 923d
00000270: ec38 e53f 6d41 4b3f cf7a 06bf 0aac 9ebf
00000280: cc17 30c0 7094 a33f c5e0 30c0 d8d9 b43f
00000290: 7907 a53e 6107 6ebe b81e 09c0 c928 8cc0
000002a0: f787 2e40 f3c4 fd3e 91f9 ffbe 902a 1dbf
000002b0: 5dd2 1940 105a 47c0 79a1 8d3e efe1 5dc0
000002c0: 5b72 45c0 97fd fb3e 6ddc 9d3f 0ba2 2740
000002d0: 7533 55bf f0a2 3340 dc93 9ac0 1dc1 3cbf
000002e0: 735f cfbe 05a0 f2bd 1b03 c33e 6551 073f
000002f0: b527 4540 2a73 91be ef14 7e3f 23bc 5e40
00000300: faf6 7f3e 2fe6 363f 380e 63be d6fc 033f
00000310: 64f9 8cbf f851 12c0 115a debe e891 803e
00000320: 1175 ebbd 28af 973e 966f 1440 61b0 dabd
00000330: b5a4 873e f371 74c0 5909 963e 42e9 2ebf
00000340: 9255 10c0 59fc ac3e 3bc5 14c0 b46d 14c1
00000350: 24a0 c8bc 2b7d 38bf 2ed1 713f e26a 893f
00000360: 4c53 eabf b83f 1240 a406 debe d3a3 3ac0
00000370: 3db8 a8bf 242c 973f 7d30 65be edbc 99be
00000380: 2ded 603e b217 2dbf e554 093f fbe4 843e
00000390: 560b 59be 0977 bf3b eda1 debf 5244 40c0
000003a0: 6b65 2f40 8d50 953e b588 92bf 7ead bebf
000003b0: 22f3 18bf f0ff b43d 0fb8 b33e ed16 1940
000003c0: 34aa 09bf 64e0 f9be 5e97 a73f f25c 3d3f
000003d0: 3b8e 84bd 68cd 08bf 3be9 c63c 650b 86c0
000003e0: e24b 72bd c5cc 42c0 e408 9b3d b874 933d
000003f0: 5196 d73e 9254 39c0 06ed 673f fe3b 203f
-1.3473164 0.37823063 3.2950356 0.4297857 0.5881592 0.24528658 -1.0361837 -2.551997
-0.25615042 -0.36137238 -0.27431384 0.15251584 0.5129691 -0.28957945 -0.33442992 -0.3250217
-1.6588861 2.1556432 -0.67343843 1.1618603 0.34110695 -1.7926869 0.1513072 -0.055076078
-0.8745478 0.2893772 0.18707365 -0.81891894 1.0707822 0.76229143 0.29051468 -1.1846212
2.4528105 0.28604195 3.1482258 0.35243386 -0.49382797 -0.05216041 -0.68121636 -1.1281211
-0.18730767 1.252728 -3.6988733 -0.5727039 1.9885056 0.28596002 -0.5958015 1.7099621
-0.7683312 -0.58859074 1.0757334 -0.41807655 -0.3075342 3.3163762 -0.30041674 0.34595627
-0.46977335 1.5312002 1.026293 0.4294004 -2.142463 -0.56596017 -0.9313157 0.20670578
0.5858407 0.31437063 -0.000791377 0.13811995 0.3241108 1.3086485 -0.7992522 0.5181848
-0.10458449 -0.5786956 0.30625844 -0.08941031 -0.18154053 1.2691869 0.04923688 1.4129007
-0.55815375 -2.079689 -0.10503563 -1.7630699 0.83712775 0.695389 -0.6118486 0.045678675
-1.6106862 -0.6208796 -0.056694277 0.65973973 -1.3442285 0.9355308 -1.4712114 -0.042580046
0.96639484 0.890234 0.062029153 -1.2078454 0.87167126 0.9645549 -1.2019635 -0.42944184
1.1421119 0.7224236 -0.09190065 -1.2999586 -0.6308128 0.52466357 -1.4065093 1.275286
0.6872286 -1.5679582 1.0168501 -0.33598664 -0.41277105 0.425924 -0.7508934 -0.39518067
-0.1445726 -0.7347591 0.7231835 -0.112065785 0.71735483 -0.5227307 0.7628705 1.3974099
1.5309085 -1.4139326 4.6767364 1.280399 -3.9265416 1.0680226 1.0001855 0.81829983
-0.63294685 0.86112267 -1.499968 -2.4427776 -0.8751311 -1.0102849 -1.7383635 0.25330377
-0.3085448 -0.96031684 0.6297617 0.4385989 -0.980776 -0.14858422 0.9983755 -0.7332054
-0.053491075 0.44363803 1.7477877 0.07146492 1.7907996 0.79396707 -0.5253114 -1.2396252
-2.7514524 1.2779675 -2.7637188 1.4128981 0.32232264 -0.23245002 -2.1425 -4.3799787
2.7270486 0.49564323 -0.49995092 -0.6139307 2.4034646 -3.114872 0.27662256 -3.466915
-3.0851047 0.4921691 1.2332894 2.6192653 -0.8328164 2.80682 -4.8305492 -0.7373217
-0.4050251 -0.118469276 0.38088307 0.52858573 3.0805485 -0.28408176 0.9925069 3.480233
0.24996558 0.7144498 -0.22173393 0.5155767 -1.1013608 -2.286253 -0.4342809 0.25111318
-0.11496938 0.2962582 2.3193107 -0.10678173 0.2649285 -3.819455 0.29304007 -0.68324673
-2.2552228 0.33786276 -2.324538 -9.276783 -0.024490424 -0.7206599 0.9445981 1.0735743
-1.830667 2.285139 -0.4336444 -2.916249 -1.3181225 1.1810346 -0.22381778 -0.3002695
0.21965475 -0.6761428 0.53645164 0.25955948 -0.2119573 0.0058430475 -1.7393166 -3.00417
2.740565 0.29163018 -1.144797 -1.4896696 -0.5974599 0.08837879 0.35101363 2.3920243
-0.53775334 -0.4880401 1.3093069 0.7396995 -0.06472441 -0.53438425 0.024281135 -4.188891
-0.0591544 -3.0437481 0.07570055 0.07199997 0.4210687 -2.8957868 0.90596044 0.6259154

net.2.bias f4 [128]
00000000: f065 113f b381 e6be 0b7d 523f ebea df3e
00000010: f99f a13f 6376 99bd 9075 4f3c 1bee 99bc
00000020: 1436 4cbd 8d0a 8dbc a448 19bd 1c0a 69bf
00000030: d4d0 723f 9c0a 213f 3804 1abe d7f1 403f
00000040: 49a4 54be 0216 8b3d 463f 603f 84d9 5d3f
00000050: ec0e 92bd 8adc b2be 4785 053f d4ee 513e
00000060: a18c 0fbc 39e2 8abe 87be 143e fa33 c33d
00000070: 2c02 45bf ea5a 06bf b18b 65bf c6f7 10c0
00000080: 4e53 663e b4bf 8fbd 9297 063f b167 0cbd
00000090: c3e6 4bc0 ba1b 2dbd 5f59 48bf e93b 1cbf
000000a0: c4ba e1bd 0ca9 38be 2c9b 303f 4828 54bf
000000b0: 21ee 86be e435 4a3e 9185 6d3f 0735 013f
000000c0: 14b1 163d 43a5 163f fab7 493f e9fd 3abf
000000d0: 5533 793f a8bc 533e 0351 25bf 9abc b8bc
000000e0: 4e81 90be 3b4c 83bd da00 b3bd ab72 0e3e
000000f0: 8061 cabb 6cf7 45bf 908f 113e 772c ccbd
00000100: cec3 8c3f 9fb2 53be 83c8 a2be e7de c03e
00000110: ce48 883d 00eb 153c 5a67 ebbd fd97 fc3e
00000120: bb47 7bbf 6702 16bf 78a6 623b 2f62 51be
00000130: f1b5 babe 39b2 8cbc d475 053d f3f0 fc3e
00000140: f6ad edbd c213 423c 6e6e 67bd 2a88 823f
00000150: 9792 e13c cefc 043f 95da 40be ba6c 84bd
00000160: 2318 3f3e 0eb9 6cbf e6d4 14be 41f9 7dbe
00000170: 36f8 d23e 2fa5 093f b218 7a3e ec8b a6be
00000180: a204 bf3e 1298 7ebd b76d cf3f 6cae 703d
00000190: 122f 393f 7c2e 383e a99f 743f f76d e3be
000001a0: 49c4 52bf 7983 cdbd 347d bebd cd55 083e
000001b0: e3ab 42be c6ea bebe 4e31 263e 9019 81bd
000001c0: c419 5d3f 5d5a 07bd 4cb2 433d 7ac7 903f
000001d0: 9b28 d63e 9f86 a83e c070 d1bd be37 debd
000001e0: a4d4 b0be b913 3cbf 7f23 043f e1fc db3d
000001f0: 3d20 503f 11ea 773d f6f3 27bd 747f 62bd
0.5679617 -0.45020828 0.8222205 0.43733916 1.2626945 -0.074932836 0.012662306 -0.018790295
-0.04985626 -0.017216945 -0.03742279 -0.9103105 0.94849896 0.62906814 -0.15040672 0.7536902
-0.20765795 0.06791307 0.8759655 0.8666003 -0.07131752 -0.34933883 0.5215649 0.20501262
-0.008761556 -0.2712572 0.14525805 0.09531398 -0.7695644 -0.52482474 -0.8966628 -2.265123
0.22492716 -0.07018986 0.5257503 -0.034278575 -3.1859596 -0.04226277 -0.7826137 -0.61028916
-0.11021951 -0.18033236 0.68986773 -0.82873964 -0.26353553 0.1974712 0.9278193 0.5047154
0.03678997 0.5884592 0.7879635 -0.73043686 0.9734395 0.20677435 -0.6457674 -0.02255087
-0.28223652 -0.06411024 -0.08740397 0.1391093 -0.0061761737 -0.7733066 0.14214921 -0.099694185
1.0997255 -0.20673607 -0.31793603 0.3767006 0.066545114 0.009150267 -0.11494322 0.49334708
-0.98156327 -0.58597416 0.0034584086 -0.2044761 -0.36466935 -0.017174827 0.032583073 0.4940258
-0.11605446 0.011845531 -0.0565018 1.0197804 0.02753572 0.5194825 -0.18833382 -0.064660504
0.18661551 -0.9246987 -0.1453434 -0.24802114 0.41204995 0.53767675 0.24423483 -0.32528627
0.37308222 -0.062156744 1.6205357 0.05876009 0.7233745 0.17986482 0.9555612 -0.44419834
-0.8233076 -0.10034842 -0.09301224 0.1331398 -0.19010882 -0.37288493 0.16229746 -0.06303704
0.8636744 -0.03304516 0.04777746 1.1310875 0.41827855 0.32915208 -0.102265835 -0.10850476
-0.34537232 -0.73467594 0.5161666 0.10741592 0.8129919 0.060525957 -0.041004144 -0.05529733

net.4.weight f4 [4, 128]
00000000: 6b4b a93f e1d9 3bbf bd4e b53f 2bfe 883f
00000010: 9dd2 943f 284b 503e f2ed 73bf a01a 523d
00000020: ec69 573d 3acf a33c 24d0 91be fbbc 12c0
00000030: ebf0 bd3f 7b58 27c0 c2e5 54be 5ec7 55bf
00000040: 0529 6b40 487a 2740 7df2 703f 6376 aabf
00000050: 16f7 4abc f0db 2fbe 5320 a1bf 82a9 553f
00000060: 6852 cf3c 1b18 a73f daca eebd 725e 843f
00000070: 689a 3ac0 22a9 a6c0 7d21 d33f 7393 1e40
00000080: 809a 2c40 ff88 973f 3a33 3740 c5ce c43c
00000090: c0f4 4d40 4d73 3bbf 879f 3140 affc 83bf
000000a0: 7fe9 8d3d 6e51 913f 37f6 51c0 d086 b3c0
000000b0: 82fe 55c0 3ec1 24c0 08f9 19bf 8bfc 853f
000000c0: 183a 40bc 180e 8b3f 6582 623f 5eb5 04c0
000000d0: 636e b23f cf5a 27bf e04e 1dc0 3429 6d3f
000000e0: f70e c040 0031 82bc 9d2d 8c3d 588e a63f
000000f0: 68b9 78c0 a2f9 b2c0 3c15 9c3f 23e5 15bd
00000100: 90d1 3e40 7808 053f 170c 79c0 3405 02bf
00000110: 6f28 5240 76a1 edbc 76b7 3f3c 0679 9cbf
00000120: b326 3bc0 7174 35c0 65b2 68c0 9400 00c0
00000130: 7f35 b5bf ea8e 0b3d c514 963d 00cc c0bf
00000140: fe91 bdbf 74b8 853d 4c75 9c3c 8303 ae3f
00000150: 7a22 903d 6733 38bf ab80 0bbe 50ea 6abc
00000160: 5baf 02c0 53d8 61c0 6c71 813d c515 a8bf
00000170: d36a 5fbf c2d2 7dbf b710 edbf bf1b 65c0
00000180: 3f2e 2dbf fe7b eabf b15d df3f ea0a 6ebf
00000190: f92b 7cbf 006d d23f 65f1 9b3f a066 3dc0
000001a0: 5b6e be3f 28ac a0bd caa8 75bd 2ef1 15bf
000001b0: 66ee db3f a97a 0bc0 a6d8 b93e 9c60 0b39
000001c0: aca8 0d3f 9fbc 873c ffbc 85bc 0c63 a4bf
000001d0: ad0c f4bf fd31 82be 8a8a 503d 8050 91bd
000001e0: afd9 b13f 96ca 8940 6dc1 84bf c792 74c0
000001f0: c3b6 163f e0ee 29c0 9948 983f 20d2 dd3c
00000200: 10fe bb3f 64f2 87bf 610c bd3f b1fa 883f
00000210: 1e3a 7d3f 8a20 aebf c6ad 54bf 8609 853d
00000220: 81ec 493d b9fa f73c 42d0 f9be 49a5 20c0
00000230: 438c d33f 01e1 15c0 16b0 b7be 3295 21c0
00000240: cc9e 4740 57ef 1d40 64c9 1340 8b3d b1bf
00000250: 0797 1ebd 55bf c2be 5cf3 adbf a6dd 663f
00000260: 88c3 303d 2482 933f b9d6 2a3e cfd2 833f
00000270: d3d0 58c0 93b0 afc0 2cab dc3f 56b1 2f40
00000280: 0850 2940 52dd f33f 30c7 2240 4bb7 1dbd
00000290: 41e5 4640 fd6c 30bf d5d6 1740 818b 90bf
000002a0: d68f 50bd 5f4c 2e40 984f 99c0 07ac 92c0
000002b0: 65cf 55c0 0f7e 20c0 45e5 1ebf 6073 613f
000002c0: 6dcd 11bd f429 763f a694 6a3f a667 fbbf
000002d0: b43d bc3f 76c8 1cc0 47ba 17c0 bb5a 7d3f
000002e0: b203 ab40 cc9d 2a3d 1800 db3b ca99 a23f
000002f0: 7b01 20c0 de99 93c0 fba3 9b3f 1124 563c
00000300: 6e91 5340 3351 333f 19da 5dc0 2499 21bf
00000310: 54e8 5340 2f57 273a b0bb 133b d4c1 d2be
00000320: 7ec8 5dc0 af28 83c0 eee8 69c0 f08a 05c0
00000330: 9bb7 01c0 65a6 49bb a5d7 5e3d 4a86 d1bf
00000340: 1900 a3bf 5bfc 183d 3744 1c3c 26ac a43f
00000350: 6020 8e3d 96a7 6ebf b688 91bd 466a 31bd
00000360: 2c2d 13c0 20eb acc0 ddaf d5ba fbc2 91bf
00000370: 3576 4cbf 773c 7dbf 6dde 0dc0 744b c8bf
00000380: 318b 25bf d6f2 20c0 ea54 f13f d4e4 5dbf
00000390: 554b 83bf 8d18 e23f 39ea 9e3f fe3b 63c0
000003a0: 2af7 de3f 5973 8ebd ee09 67bd 9b2d 40bf
000003b0: e18d e93f 78ca f1bf eded 213f 04aa f13c
000003c0: 00c7 d13e ed7c 95bc f9f6 e9be 928c 97bf
000003d0: efcd e7bf abc0 103e 5147 b73d bb54 6abc
000003e0: 0e29 bb3f 0afa 7a40 d49e 59bf 0ae3 89c0
000003f0: 2a23 143f dea7 0fc0 f492 993f 7bce 0b3d
1.3226141 -0.7337933 1.4164654 1.0702566 1.1626774 0.2034117 -0.9528495 0.051294923
0.05259125 0.019996274 -0.2847911 -2.2927845 1.4839147 -2.6147754 -0.2079077 -0.83507335
3.6743786 2.6168385 0.9412001 -1.3317379 -0.012388011 -0.17173743 -1.258799 0.83461773
0.025307849 1.3054231 -0.116597846 1.0341322 -2.9156742 -5.208146 1.6494595 2.4777496
2.69693 1.1838683 2.8625016 0.024024377 3.2180634 -0.7322281 2.7753618 -1.0311488
0.069293015 1.1352975 -3.2806528 -5.6102066 -3.343659 -2.5742946 -0.60145617 1.0467695
-0.011732601 1.0863676 0.88480216 -2.0735698 1.3939937 -0.6537294 -2.4579391 0.92640996
6.001827 -0.015892506 0.068446375 1.301219 -3.8863163 -5.5929728 1.219398 -0.036595475
2.9815407 0.5196605 -3.891363 -0.5078919 3.2837179 -0.029007655 0.011701455 -1.2224433
-2.924237 -2.835232 -3.6358883 -2.0000353 -1.4156951 0.03407184 0.0732818 -1.5062256
-1.4810178 0.06529322 0.0190989 1.3594822 0.07037826 -0.71953434 -0.13623302 -0.014338091
-2.0419528 -3.5288284 0.06320462 -1.3131644 -0.87272376 -0.99149716 -1.8520726 -3.5798185
-0.6764869 -1.831909 1.7450467 -0.92985404 -0.98504597 1.6439514 1.2183043 -2.9593887
1.4877428 -0.07845336 -0.059975423 -0.58571136 1.7182128 -2.1793616 0.36298102 0.00013292063
0.553355 0.016569434 -0.016325472 -1.2842727 -1.9066368 -0.25428763 0.05091337 -0.07095432
1.3894557 4.3059797 -1.0371529 -3.8214586 0.5887262 -2.6552048 1.1897155 0.027077734
1.4686909 -1.0620847 1.4769403 1.0701505 0.98916805 -1.360368 -0.8307766 0.06495957
0.049297813 0.030270921 -0.487917 -2.5100882 1.652718 -2.3418581 -0.3587653 -2.5247312
3.1190672 2.4677331 2.309167 -1.3846906 -0.03871825 -0.380366 -1.3589892 0.9018196
0.043155223 1.1524091 0.16683473 1.0298709 -3.3877456 -5.4903045 1.7239738 2.7451987
2.6455097 1.9051917 2.5434074 -0.03850488 3.1077425 -0.689163 2.3724873 -1.1292573
-0.050918423 2.7234113 -4.790966 -4.5834994 -3.3407834 -2.507694 -0.6206859 0.88066673
-0.0355963 0.96157765 0.9163307 -1.9641006 1.470633 -2.4497352 -2.3707445 0.9896657
5.344201 0.041654393 0.006683361 1.2703183 -2.5000904 -4.6125326 1.2159418 0.013070122
3.3057513 0.70045775 -3.4664366 -0.631243 3.3110552 0.0006383536 0.002254229 -0.41163504
-3.465362 -4.0987163 -3.654842 -2.086605 -2.0268314 -0.0030769345 0.054404873 -1.6369107
-1.2734405 0.03735004 0.009537748 1.2865036 0.06939769 -0.93224466 -0.07106154 -0.04331424
-2.299632 -5.403702 -0.0016303022 -1.1387628 -0.7986787 -0.9892039 -2.2167008 -1.5648026
-0.64665514 -2.5148215 1.8854039 -0.8667729 -1.0257365 1.7663742 1.2415229 -3.5505366
1.7419178 -0.069555946 -0.056405954 -0.7506959 1.8246423 -1.8889914 0.6325367 0.029500015
0.40972137 -0.018248046 -0.45696238 -1.1839774 -1.8109721 0.14135997 0.089491494 -0.014302428
1.4621904 3.9215112 -0.8500798 -4.3089647 0.57866156 -2.2446208 1.1997972 0.034132462

net.4.bias f4 [4]
00000000: f15e 263e 4634 103f be58 b53e ea52 8a3e
0.16247155 0.5632976 0.35419267 0.27016383
