models/lunar_bs512.pth (torch, 75440 bytes, 6 tensors)

net.0.weight f4 [128, 8]
00000000: 786a b73e 92b3 2ac0 63f3 8a3f 177d d33f
00000010: 6740 8e3f 0d6c 873e 586b bb3f 6be1 a4bc
00000020: 04fc f83f fbdf 13be a800 063f a414 93be
00000030: 9606 8cbf 303d b7be c0d4 81bf ee79 02bf
00000040: bc56 87bf 19aa 8a3f 35f9 e73f a16f 553f
00000050: e1b0 acbf e9a7 b1be 85f9 e53e 7a0f b53e
00000060: c588 5d3f cea9 e0be 1bb4 833e 9204 b0bf
00000070: e0f2 2f40 4396 c03f 8cdb 3ebf 8de1 c0bd
00000080: c7ba 0f40 33ad d7be ed0b 313f 9f1a 05bf
00000090: d2dd b9bd 5bc0 523c 7158 923d b6c8 fcbe
000000a0: 445e 17bf 9bf5 afc1 9c7e 21be 8832 14bf
000000b0: 432d 9c3f f945 92bd bc2b df3b 0b39 823e
000000c0: 144d 8840 fd0c 26bf 4814 3bbf ae15 953d
000000d0: a4f4 f7bd d652 c9be 2c79 0a3e 7c6d 84be
000000e0: 4254 e9bd f10c ac3e a814 c8be bd2a 56be
000000f0: f9e8 ad3f 9afa 39bf 2e4f 80bd 115c 4ebf
00000100: ce2c 1840 d009 ff3e 6b7c a7bf 46e4 ab3e
00000110: 36ab 473e c608 703b 770c a8bf 83d3 aabf
00000120: ac9d 21c0 f702 d3be dfa4 7e3e dc09 25be
00000130: a563 e9bf 7266 c3bf 39e0 00bf 1c06 2bc0
00000140: c959 2140 acd3 b33e f502 1dbf e11c cdbf
00000150: 15d8 4040 a064 d23f bdb1 033e d1e1 64bf
00000160: 6a6c 8b3f 95dc 373f 5c60 debd 7ca9 f8be
00000170: d416 a8bf 93d9 4abf e9f2 96bd c31c d0bf
00000180: 9086 083e eb90 d93f 8109 283f de92 ccbd
00000190: 93e7 0840 f189 c33f 4722 8cbf 5c11 753e
000001a0: 817b 90c0 bce1 413e 7bee 54be 7988 28be
000001b0: 9b55 913f 98ee 813f 1c0d 6dbd 5f37 903f
000001c0: 7461 adbf 79e1 5ebe 936e 993e 36b4 a9bf
000001d0: 31ae 0440 a724 d13f 6b57 50bf 1059 8ebf
000001e0: 1b34 5ec0 a719 7abf 4d1c c9bf 39c2 e83f
000001f0: ee96 af3e b358 9abe c161 633e 7d5b aa3f
00000200: feaf 91c0 801c 9e3d fe27 903e a6b5 2fbd
00000210: 60ca e43f 1bfc 753f b22c 3dc0 5650 92bf
00000220: 1eb0 cbbf a565 46bf 1a38 77be 7096 82bf
00000230: e597 833f 492b e23f 1d7f 513f 00a6 52c0
00000240: cc86 0dbf acd4 32c1 a0c5 cb3e b7cf 94c0
00000250: 61fc babe 5c04 aebd 91bc 8cbf a138 4ebf
00000260: a354 653f fc64 9bbf 169b dbbf 0b01 fc3f
00000270: 1e90 2e3f 9ea3 043f e097 a13f 7ea1 c0bf
00000280: 5016 d1bf 46fc cfbd f890 a7bf 91ea b9bf
00000290: 85b8 9ebf 0ab0 da3e b34f 1a3f 28aa 10c0
000002a0: a684 89c0 2697 20be dbb5 27bf 8d1f a5be
000002b0: d7bc a43f 4263 073e 7a96 d83d c555 0cbf
000002c0: a0ee 9640 a445 8f3c 6563 963f 0b95 d1be
000002d0: 5f6b 0abf c42e 77bc 9c8a 08be 87b3 10bf
000002e0: 3a27 8fbf 2c5f 7e3e 826f 8abe a10a d93f
000002f0: 3f3b 4540 b627 90bf cba7 553d ed0d 803f
00000300: 6004 81bd 4653 063f 2b61 a2bf fa68 31c0
00000310: 2c74 d3be 3fe1 98be fd8a 3a3d e7ac 58be
00000320: 31e7 febf a2a5 c0be 2aad 59be 5e75 57bd
00000330: 6c14 cb3f 8dbe 823d 4e84 8cbf ad3a 16be
00000340: b695 0240 d56e a23f 4640 f53e 2fee a6bf
00000350: 9cda b8be 801b ebbe a138 8abd 84d8 343f
00000360: 8927 6bbf 9069 21c0 3611 7ebf 596c 31bd
00000370: 3b9d 76c0 8729 54be f9b0 3cbf 3800 62bd
00000380: 0864 97be d547 513f df32 20bf 09a1 83bf
00000390: c351 d6be 824f 93bf 7a77 2cbf abf9 e43f
000003a0: 4032 923f 1216 83bf a6bb 1b3f 7878 29bf
000003b0: 0365 43be aacb 4a3c 8fe6 eabe c509 53c0
000003c0: f378 0b3f 4222 65bf 77b1 a9be cd9b 633d
000003d0: cebc 6abf 87a3 493e dd58 bdbf e5e7 583d
000003e0: bfa7 733f 3dbf 6f3e 7d4e c0bf 607d cdbd
000003f0: 1b48 36bf f7a8 4d3f c800 06bf d436 99bf
0.35823417 -2.66721 1.0855526 1.6522549 1.1113404 0.26449624 1.4642134 -0.020127019
1.9451909 -0.1444091 0.5234475 -0.28726685 -1.093951 -0.3578887 -1.0143051 -0.509673
-1.0573344 1.083316 1.8122927 0.8337346 -1.3491479 -0.34698418 0.4491693 0.3536337
0.8653682 -0.4387955 0.25723347 -1.3751395 2.749199 1.5045856 -0.7455375 -0.094180204
2.245775 -0.42124328 0.6915882 -0.51993746 -0.09075512 0.012863244 0.07145775 -0.4937188
-0.5912821 -21.994925 -0.15770954 -0.57889605 1.2201313 -0.071422525 0.0068106335 0.25434145
4.259409 -0.6486357 -0.7307782 0.07279526 -0.12107208 -0.3932101 0.13522786 -0.2586478
-0.11393024 0.33603624 -0.3907826 -0.20914741 1.3586723 -0.7264801 -0.06265102 -0.8060923
2.3777347 0.49812174 -1.3084844 0.33572596 0.19498906 0.0036626323 -1.3128804 -1.3345798
-2.5252485 -0.412132 0.24867581 -0.16117042 -1.8233534 -1.5265639 -0.50342137 -2.672248
2.521105 0.3512243 -0.6133264 -1.6024438 3.0131886 1.6436958 0.1286077 -0.8940707
1.089246 0.71820956 -0.10858223 -0.48566806 -1.3131967 -0.7923824 -0.0737055 -1.6258777
0.13332582 1.699735 0.656395 -0.0998895 2.1391342 1.5276471 -1.0947961 0.23932403
-4.515076 0.18933767 -0.20794098 -0.1645831 1.135425 1.0150938 -0.05787383 1.1266898
-1.3545365 -0.21765698 0.29967174 -1.3258121 2.0731318 1.633931 -0.8138339 -1.112093
-3.4719303 -0.9769539 -1.5711762 1.8184272 0.34294838 -0.30145797 0.22205259 1.330917
-4.5527334 0.0772028 0.28155512 -0.042897843 1.787426 0.9608781 -2.955853 -1.1430767
-1.5913122 -0.7749885 -0.24142495 -1.020216 1.028073 1.766946 0.81834584 -3.2913818
-0.5528381 -11.176922 0.39799213 -4.650356 -0.36520675 -0.08496925 -1.0995046 -0.8055516
0.8958227 -1.2140193 -1.7156703 1.9687818 0.68188655 0.5181216 1.2624474 -1.5049284
-1.6334934 -0.10155539 -1.3091116 -1.4524709 -1.2400061 0.42712432 0.6027786 -2.2603855
-4.2974424 -0.15682659 -0.65511864 -0.32250634 1.2870129 0.13221458 0.10575576 -0.54818374
4.716629 0.017489262 1.1749083 -0.40934023 -0.54070085 -0.015086833 -0.13334125 -0.56523937
-1.1183846 0.24840993 -0.270382 1.6956369 3.081741 -1.1262119 0.052161973 1.000425
-0.062996626 0.52470815 -1.2685903 -2.7720323 -0.4129957 -0.2985935 0.045542706 -0.21159707
-1.9914304 -0.37626368 -0.21257463 -0.052602164 1.5865607 0.06384001 -1.0977876 -0.1467082
2.0403876 1.2690073 0.479006 -1.3041438 -0.36104286 -0.45919418 -0.06749082 0.70642877
-0.918572 -2.522068 -0.9924501 -0.04331622 -3.8533466 -0.20718966 -0.7370754 -0.05517599
-0.29568505 0.8175023 -0.62577623 -1.0283519 -0.41859254 -1.1508639 -0.67369807 1.7888693
1.1421585 -1.024111 0.60833204 -0.66199446 -0.19081502 0.012377659 -0.45879027 -3.2974713
0.5448143 -0.895054 -0.33143207 0.055568505 -0.91694343 0.19691287 -1.4792744 0.052955527
0.95177835 0.23412795 -1.5023953 -0.10033679 -0.71203774 0.80335945 -0.5234494 -1.1969857

net.0.bias f4 [128]
00000000: 260f 81bf 5b89 5b3f 2914 dabe 437f 363f
00000010: 8a39 3d3f 9f81 16be 53df 313f d0d7 553e
00000020: 2daa 08be 2c80 e3bf 3a81 11c0 7b8b f6be
00000030: e844 1bc0 59e0 abbe dcb0 d5bf fd34 abbe
00000040: 1d5a c4be 20c2 eabe 4959 50be 576c 38be
00000050: 348f d73d fe21 b33e fab4 a73e b670 91bf
00000060: f7f6 563e 4a35 283f 7db6 f5bf 0e00 493f
00000070: e66c 5ebf 8570 b73f cc99 a03f 0594 ef3e
00000080: fb4f 403f b772 1ebb 741b d93e 6c7c b1be
00000090: 8790 913f af10 cd3d 2a85 14c0 b74c de3e
000000a0: 82bd 3f3d bd64 cb3d 5e98 a4bf d10f 1fc0
000000b0: ba9d a1be 2a90 a73f 53d5 9abf aea6 7d3e
000000c0: de5e d7bd 3e17 06bc 99af 95be e49e efbe
000000d0: 5c9d 873f 7aa7 87be 254e 8a3f 11eb 54bf
000000e0: 4d00 923f ed13 493f cff8 1d3f 301b 433b
000000f0: e9e0 3c3e 965b 553f 0728 933e cd17 8fbf
00000100: c433 02c0 defb 603f 545c a53b e61f 16c0
00000110: befb dbbf dd6a 8ebf 9f42 0dc0 be0d 93bf
00000120: c55a 73bf 6cf3 20bd 221b 243e fb2e 5abc
00000130: 54b9 cc3f 57de 5dbf b029 b5bf f606 2cbd
00000140: 72a8 733e 4aa6 a43f e7a4 d33f 6ff1 b8be
00000150: 1506 8ebf fc81 a3bf 6a0b 523f 3aca 84bf
00000160: c323 e43e 12b5 f93e 7dff 083f 137c 72bc
00000170: f4b4 53be 5e9a 6f3f 2844 b2bf 027b 903d
00000180: c8d2 35bf 0390 3a3f d60d 943f 346c 673e
00000190: a893 bc3e 1854 4b3b beed 4e3e 10c4 b73e
000001a0: befb 7ebe 5f90 12bf a959 03c0 516c cfbe
000001b0: ea22 d63f a076 843f 7f25 61bf 789f f2bf
000001c0: 78c5 803e dfc5 54bf fadf 783f 230c b0be
000001d0: 0fe4 803f d54f debf ae31 b8be 8393 89bf
000001e0: 7f65 16bd d45a 17bf 886e 1c3f 3003 3e3f
000001f0: 7fb7 ba3f 9143 0a3f 73e1 a43e 5fba babe
-1.0082748 0.8575646 -0.42593506 0.71287936 0.7391592 -0.14697884 0.6948139 0.20883107
-0.13346167 -1.777349 -2.2735124 -0.4815329 -2.4260807 -0.335696 -1.6694598 -0.33438864
-0.3835 -0.4585123 -0.2034656 -0.18010078 0.10525361 0.3498687 0.32755262 -1.1362522
0.20992647 0.6570631 -1.9196316 0.7851571 -0.86884916 1.4331213 1.2546935 0.46792617
0.7512204 -0.0024177262 0.42403758 -0.3466524 1.1372231 0.10012948 -2.3206277 0.43417904
0.046811588 0.09931324 -1.2858999 -2.4853404 -0.31565648 1.309087 -1.2096351 0.24770615
-0.10516141 -0.008184252 -0.29235533 -0.4680091 1.0594897 -0.26494962 1.0805098 -0.8317118
1.1406342 0.7854603 0.61707777 0.0029770844 0.18445171 0.83342874 0.28741476 -1.1179138
-2.0344095 0.8788432 0.0050464068 -2.345697 -1.7186201 -1.1126362 -2.2071912 -1.1488569
-0.9506038 -0.039294645 0.16025975 -0.013316865 1.5994058 -0.8666739 -1.4153347 -0.041998826
0.23794726 1.2863247 1.6534699 -0.361217 -1.1095606 -1.2774043 0.82048666 -1.0374215
0.44558534 0.48770958 0.53514844 -0.014800089 -0.20674497 0.9359492 -1.392705 0.07054712
-0.7102475 0.72875994 1.1566722 0.2259987 0.36831403 0.0031025466 0.20207879 0.3589177
-0.2490072 -0.5725154 -2.0523474 -0.40512326 1.6729405 1.0348701 -0.8794784 -1.8954916
0.25150657 -0.8311443 0.9721676 -0.3438426 1.0069598 -1.7368113 -0.35975403 -1.0748142
-0.036717888 -0.5912297 0.6110616 0.74223614 1.4587249 0.5400935 0.32203254 -0.36470315

net.2.weight f4 [128, 128]
00000000: 3450 b93e 2f7b 20c0 c5ac 023f 108d b7bf
00000010: f6e4 a33e 0009 1b40 aad8 93be b08a 3ebc
00000020: 4b62 bc3f c199 edbd c5ef bebf 0544 bfbf
00000030: dfa6 3e3f 26dd f03e 219e 95bf 5168 12bf
00000040: bd43 8fc0 5ed8 7a3f 15c6 833f 1c11 f7be
00000050: 788c 54bf 3045 313d a593 1c3f 61e1 4ebf
00000060: bb18 e13e cb37 1ebf a0f7 323f ccef a0bf
00000070: ef1b 313f 958d 15c0 9011 85be e6af f53e
00000080: 10c5 943f 8655 37c0 8580 b1be cab7 d3bf
00000090: b8ea 5a3d 0474 32bf 10e2 e2bf 28ef 1c3f
000000a0: d730 77bf f1a1 fb3e f926 763f 99ce 953f
000000b0: 9fe0 2740 e861 80be c19c 0bbe 6a5c 323d
000000c0: aaac af3f 178f 06c0 1016 06c0 aae6 26c0
000000d0: 3a17 e5bf d26e c23f 503f 5dbf 5811 14c0
000000e0: 2bd9 343f b781 693d a96c e1bf 642d 81bd
000000f0: cd62 9a3f c2f6 97bf 6e0e 33be 6571 cb3c
00000100: 2215 6c40 ad5d 0cc0 77c7 4abf f93e 233f
00000110: baa3 993e 0d11 bf3e 8c0c 0cbf 907f e13f
00000120: 3530 de3f f6d0 763f 03ab f73e 5adb 3d3d
00000130: 866a fabe dbbc ac3e b4e3 893d 819d f4be
00000140: 19dc abbe 8e65 903f 772a f9be dcc5 95bf
00000150: df06 b8be 2706 9fbf 006f 2dbf ba07 0540
00000160: 62ba ddbf c098 9ebf 4308 1dbe 9f6d e13e
00000170: 21c0 0540 710f c53f a199 b43f b642 783e
00000180: 4044 a6bb 8c90 4abd e033 163d 905f 06bf
00000190: 92cf 6c3e 6f76 8abe 92be 0bc0 91ac 60bf
000001a0: f418 6c3f 094e 0140 bad3 983e 4e79 81bf
000001b0: b34b 40bf 5f47 0a3e dc91 d13f ec55 b4c0
000001c0: cada ac3e 059b 9dbd 57b0 0dbe 3d5e 44bd
000001d0: 6aa9 ae3f 6ec9 5dc0 a7ac 5abe 0faf fb3f
000001e0: 75d8 4b3e 518a c0be 436c 79be f52e 1ebf
000001f0: d3f7 b43f 7514 573f 3221 853f 04ad 85bf
00000200: 425c 66c0 94ae 3f3f d4b5 b23e 472d 42bf
00000210: 4649 0cbf d0af e53e 839d 4abf 02b9 003e
00000220: 582a 39bf cb9f 7240 7bbc 2040 3dbe babf
00000230: a42a 2440 fcd9 003e 8e18 a43f 53c5 8bbf
00000240: b137 0740 6a09 c0c0 5206 883e 14e9 e43e
00000250: 1330 b8bf e466 ddbf aa94 e2bf 5231 243d
00000260: 9259 e4bd 560b 6bbf 0f05 08be 1878 2c3f
00000270: 601d 30bf 4fbf 843f deab 283f c836 183f
00000280: cac2 b1bf 2abf 1b3f 332f 0b3f 9f73 1e40
00000290: a110 22bd bfc3 9e3f ed51 04bf c302 d6bf
000002a0: 0306 e7bf b8ac 0d40 dd17 edbf 6052 43be
000002b0: e820 bf3f 48b0 cabe 4a3d ad3f a575 833f
000002c0: 36c5 c43f 50e8 a83f 1032 173f 4f00 353e
000002d0: f0c9 76be ea5b da3e bbe3 ca3e 7c26 6cbf
000002e0: f90e 133f 07a6 eebe f3e9 1e3e 8ab6 aa3f
000002f0: bf36 b83e b1ce 7a3f 1cb2 96bf 72fe 3d3f
00000300: a3c9 f33e a920 0c3f a2a3 d7bf 0bf8 7740
00000310: 469d a2bf 6879 373f 5b2a 3740 3375 64bf
00000320: ea1b 0c40 9a04 f3be b220 db3d 2c8e a93f
00000330: 565e 903d 0cb1 6f3f 2d0e cd3e 0a44 b43d
00000340: b308 3abb ffd7 61bf 7f09 1f3f 0004 03c0
00000350: 5a06 a93f 6c7a 2ebf 1da4 95be e17c b63f
00000360: 6637 2b3f 2da2 d3bf e253 12bf 90bb 25bf
00000370: b323 64bf 447f 0fbd a8d0 23be a12f 2abe
00000380: 33d3 1fc0 dd82 7abe 5990 20bf e4c2 8dbd
00000390: d492 37c0 41c4 fcbe 7758 1ebe 59d3 b63f
000003a0: e3c9 ab3f 364b 8abf 3bfd f73f 2bd7 cf3f
000003b0: 0b51 45bf 7323 433f 514b 16bf 9abe 85bf
000003c0: 1657 573f 4d89 7abf b811 963e 4ec3 ab3d
000003d0: f7e0 c73f 3430 2440 7087 dfbf a7c6 f3bf
000003e0: 7a55 e33f 3d66 2dc1 128b 0f3d c46c babf
000003f0: bad4 9bbf 2754 243e 8e87 c23e 40a8 343f
0.36194003 -2.5075185 0.51044875 -1.4339924 0.3201062 2.4224243 -0.2887624 -0.011629745
1.4717497 -0.11601592 -1.4916922 -1.4942633 0.74473375 0.47043723 -1.1688882 -0.57190424
-4.477019 0.979864 1.0294825 -0.4825524 -0.8302684 0.043278873 0.6116279 -0.8081265
0.4396418 -0.61803883 0.69909096 -1.257318 0.6918325 -2.3367665 -0.25989962 0.47985762
1.1622639 -2.864595 -0.34668365 -1.6540463 0.0534465 -0.69708276 -1.7725239 0.61302423
-0.965589 0.4914699 0.9615322 1.1703674 2.6230848 -0.25074697 -0.13634016 0.043545164
1.3724568 -2.1024835 -2.0950966 -2.6078286 -1.7897713 1.519007 -0.8642473 -2.3135586
0.7064387 0.05700847 -1.7611285 -0.06307486 1.2061402 -1.187218 -0.17485973 0.024834344
3.6887898 -2.1932175 -0.7921061 0.63767964 0.30007726 0.37317696 -0.54706645 1.7617054
1.7358462 0.964126 0.4837266 0.046351768 -0.48909396 0.33737835 0.06732884 -0.47776416
-0.3356636 1.1280992 -0.4866521 -1.1701007 -0.35942742 -1.2423753 -0.677475 2.0785966
-1.7322505 -1.2390366 -0.15335183 0.44028947 2.0898516 1.5395337 1.4109384 0.24244198
-0.005074054 -0.049454257 0.036670566 -0.52489567 0.23126057 -0.27043483 -2.1835065 -0.87763315
0.92225575 2.020388 0.29849035 -1.0115144 -0.7511551 0.13503788 1.6372638 -5.6354885
0.33760673 -0.07695583 -0.138368 -0.047941435 1.3645451 -3.4654193 -0.21354924 1.9662799
0.1990679 -0.37605527 -0.24357705 -0.617904 1.413813 0.8401559 1.0400755 -1.0443425
-3.599381 0.7487576 0.3490435 -0.7585034 -0.54799306 0.44860697 -0.79146594 0.12570575
-0.72330236 3.791003 2.511504 -1.4589306 2.5651026 0.12583154 1.2819993 -1.0919594
2.1127741 -6.001149 0.26567322 0.44709074 -1.4389671 -1.7297025 -1.7701619 0.040086098
-0.11149897 -0.9181417 -0.1328318 0.6737075 -0.6879482 1.0370883 0.6588725 0.5945859
-1.388757 0.6083857 0.54368895 2.475807 -0.03956664 1.2403487 -0.5168751 -1.6719593
-1.804871 2.213667 -1.8522907 -0.19074392 1.4931917 -0.39587617 1.3534329 1.0270277
1.5372684 1.3195896 0.59060764 0.17675899 -0.2410047 0.4264825 0.3962687 -0.9224622
0.5744472 -0.46611044 0.15518932 1.3336957 0.35979268 0.97971636 -1.1773105 0.7421638
0.47614774 0.54737335 -1.6846812 3.8745143 -1.2704246 0.71669626 2.8619602 -0.8924133
2.1892037 -0.47464448 0.106995955 1.3246512 0.07049243 0.9362953 0.40049878 0.0880204
-0.0028386533 -0.8822021 0.62123865 -2.0471191 1.3205063 -0.6815555 -0.2922677 1.425686
0.66881406 -1.6533867 -0.57159245 -0.6473932 -0.8911697 -0.03503348 -0.15997565 -0.16619731
-2.4972656 -0.24463983 -0.6272026 -0.06921938 -2.8683367 -0.4936848 -0.15463434 1.4283248
1.3420986 -1.0804203 1.9374155 1.6237539 -0.77076787 0.76225966 -0.58708674 -1.0448792
0.8411726 -0.97865754 0.29310393 0.08386861 1.5615529 2.565442 -1.7463207 -1.9044999
1.776046 -10.8374605 0.035044737 -1.4564443 -1.2174294 0.16047727 0.37994045 0.7056923

net.2.bias f4 [128]
00000000: 103d a93d 6734 463e 9c1a 103e 809b d3bd
00000010: 870d a53c 26ad 263f cddc d6be be45 14bf
00000020: ba16 853f 2604 a73e 0d87 5ebc c062 553f
00000030: 36d4 89be 7fa1 163f 2230 00be 7d71 f6bd
00000040: 4999 993e 4f68 a6bd 9890 263e 882b 5abe
00000050: 1398 1b3f 5b63 95be 8be4 4ebe 4e78 953e
00000060: 61bb 2f3e efa5 9f3f 7c88 083f b4a2 363e
00000070: 604b 1abe 0754 f53e b7c3 47bf 2207 6abf
00000080: 08f7 0cbe 08a6 a83e d2f0 9dbd ecbc b9bd
00000090: 6758 e3be 07e2 f2be d9d9 8fbd c8ba 52bf
000000a0: 5bb7 983e 493a ffbd 4d62 0fbe c350 fa3e
000000b0: 69ed bbbe d8c8 debd 46c8 7abd bb5a 2bbe
000000c0: 7fdf b43e 7c31 9bbd 805c 093f 84be 853e
000000d0: 9656 c73f a824 583e a33b c6be 0127 243f
000000e0: f6f4 283f 00ee d0bd a745 c9bd c615 21bd
000000f0: ff5f cd3d 1b00 a7bd 1293 a63e 68b4 e03c
00000100: 4a10 113e 1f36 95bd e084 9ebf 891a 54bd
00000110: 653e 8b3f 11ae fbbd 2a1d ad3e 0576 eabc
00000120: a07c f93e 0427 f03e b28a 6cbd f68a 7bbe
00000130: c088 68bf a162 6bbd 0faf 9abe ad1a dabe
00000140: 4ee4 bcbd 7aff 9f3c 5c0b e4bd 88e0 593e
00000150: a8c7 a4bd e88a a93f 63c6 533d 9d0d 9c3e
00000160: 5726 763f 99f4 3bbf cdc6 093e 7c39 d3be
00000170: dfac 89be 97c6 2fbf e51f 3abe c780 c7bd
00000180: 161b 5e3e 8867 453f ae54 363e d4c2 c8bf
00000190: 4d17 fb3e 8d08 26bf fc19 35c0 0fd3 033f
000001a0: b9b2 793e 13d6 75bf 14ee 5f3e 57bd b43d
000001b0: 7245 44bd f683 743e 6002 973f 09e7 17bf
000001c0: 9d7d 03bf 83ca 723f 2bd8 02c0 09b3 75bd
000001d0: 6bfc 6f3e c038 65bd bb2f 863e 0b11 a13e
000001e0: 3ee4 bebe af8c 2e3f 1118 c1be 5b3c 0c3f
000001f0: 77e8 a23e d6ea bf3d 4288 febd 8482 c73e
0.082636 0.19355927 0.1407265 -0.10332394 0.020148052 0.65107954 -0.41965333 -0.5791892
1.0397561 0.32620353 -0.013582003 0.83353806 -0.26919717 0.58840173 -0.12518361 -0.12033365
0.2999976 -0.08125364 0.16266096 -0.21305668 0.6077892 -0.29177365 -0.2020437 0.29193348
0.17161323 1.2472514 0.5333326 0.17835504 -0.15067816 0.4791567 -0.7803301 -0.91417134
-0.1376611 0.32939172 -0.077119485 -0.09069237 -0.44403383 -0.4743807 -0.07023973 -0.82316256
0.2982739 -0.12462289 -0.14002343 0.4888974 -0.36704567 -0.10878152 -0.061226152 -0.1673383
0.35326764 -0.07577798 0.5365677 0.26121914 1.5573299 0.21107733 -0.38717374 0.64122015
0.6599878 -0.10201645 -0.09827738 -0.039327405 0.100280754 -0.08154317 0.3253408 0.027429774
0.1416637 -0.072857134 -1.23843 -0.05178312 1.0878416 -0.1228906 0.33811313 -0.02862073
0.48727894 0.46904767 -0.057749458 -0.24564728 -0.90833664 -0.057467107 -0.30211684 -0.42598477
-0.09223233 0.019531 -0.11134979 0.21277058 -0.08045894 1.3245516 0.05170287 0.30479136
0.9615225 -0.734201 0.13454743 -0.41254795 -0.26889703 -0.686624 -0.1817623 -0.09741359
0.2169002 0.771111 0.1780574 -1.5684457 0.49041215 -0.648568 -2.829711 0.51493925
0.24384584 -0.96029776 0.21868163 0.08825176 -0.04791779 0.23878464 1.17976 -0.59336907
-0.51363546 0.9484026 -2.0444438 -0.059985194 0.23436134 -0.055962324 0.2620829 0.31458315
-0.3728351 0.68183416 -0.37713674 0.54779595 0.31817982 0.09370963 -0.12428333 0.38966763

net.4.weight f4 [4, 128]
00000000: 6233 b4bf 551e 1e40 3d59 69be 33ca 8abf
00000010: e685 3fbf 184d 10bf 4bda d9bf 158d c1c0
00000020: 52a7 ab3f 31d3 ed3f 743a bfbf 3cd3 d23f
00000030: 6a85 a440 32bd edbf d46b edbf d59e 09be
00000040: 6f4b c1bf 2248 42bd f8d0 23c0 8b4d 23c0
00000050: 7e49 c13f 0fbd f6bf c437 5bbf 9b60 d0bf
00000060: 6e56 52bf 7eac c33f e0b1 41be 9d87 c63f
00000070: ce60 1cc0 f57b cc3f bb90 a3bf ab8e 7dc0
00000080: 4321 51bd c1ce 00bf 5ccc 543a 1df4 6bbd
00000090: c096 89c0 7e8c 6cc0 8c97 5abc 7ea5 3540
000000a0: dbe8 853f ded9 07c0 2102 2dc0 5194 1840
000000b0: e7b6 4dc0 df1c 7a3c 42a7 b03c 881c 6bbe
000000c0: a368 e7be 5a77 4d3f 895a bcbf b152 85be
000000d0: 0e7a 28c0 94d3 d33f 7ba6 3fc0 f429 853f
000000e0: 99e4 b03f 729c 413d 353c b5c0 e2f5 ac3b
000000f0: cf6b f9bf 7360 bf3a f7a4 a4bf 7d6e 28c0
00000100: d2dd 7040 8e2d c63d e4f7 ac3f 0e9d ea3c
00000110: 8eee e93f 33db 42bd d1f8 813e 38c1 42c0
00000120: 097e 02bf 9117 d0bf 9b2b 713d 6616 58c0
00000130: 3778 34c0 6a64 993d 42ab d9bf 1adf 10c0
00000140: 982a 8f3d 9a02 24c0 3582 2ec0 75c3 b2be
00000150: 1585 afbf 9576 4140 38d6 d9bf 1203 07c0
00000160: e071 84bf decf 8140 405e 74be d97f 99c0
00000170: eda0 cabf 7c5f 1ac0 7342 3c40 4eec 99bc
00000180: da14 31bf b461 55bf 9ddd 39be 2c3b a93f
00000190: 544b 6ebf 8bd4 61c0 a6d3 7e40 6c4d 633f
000001a0: 431b a8bf 5143 3b40 d63c 9f3f 6f35 a13f
000001b0: 177c 143d 4541 58bf bec9 4cc0 3fb1 eebf
000001c0: c35c 0ec0 5a19 88bf 724e 8040 d1fb 843d
000001d0: 1c43 bebf d1c1 51be 62dc 5bc0 a522 8440
000001e0: 8393 5e40 e3b3 fc3f 3301 7c3f ad7c 61bf
000001f0: f40d c2bf b5b5 a53e f6ac 853b 2f9f f93f
00000200: 3474 51bf e07c 1940 8255 68bf 28f5 dfbf
00000210: b393 2fbf ad59 09bf 92bd 1ac0 b402 e4c0
00000220: bcc0 c83f 678d c63f cfad 93bf f499 ca3f
00000230: 4702 4f40 813a debf 14f8 a8c0 0462 b1bd
00000240: 2c41 c4bf f3a6 38bd d94c 14c0 3db4 1dc0
00000250: d489 bc3f 9469 11c0 0b8b 4ebf a9d2 09c0
00000260: 0838 e4be a840 d03f d831 633e cd38 b03f
00000270: a1f8 d6bf e32f d33f d620 f8bf cbf4 68c0
00000280: 21d0 9fbb 1b17 3bbe 08d3 18bb ccf1 f1bc
00000290: fa31 88c0 c44c 3cc0 0ca8 de3b fd82 6540
000002a0: e0ee 7b3f e5a1 83bf f364 53c0 ff42 3140
000002b0: fdac 4fc0 4648 1cbd 8737 953d 2f4e 8bbf
000002c0: 3c27 cbbe 7f35 463f dfc5 c2bf 2baa 213e
000002d0: c379 40bf 06d5 c93f 14ea c4bf 5304 893f
000002e0: 3fa6 993f e9ca 233d bd0d 75c0 0c3a c9bc
000002f0: 3041 2cc0 775e 0d3c ed0c adbf fcc8 22c0
00000300: 872f 9440 2106 e53d dfdf a83f a38d 4abd
00000310: 9a65 ee3f bd79 a03d 9665 c93e dfb7 0dc0
00000320: 209b d6bf 0b9b c5bf e9e7 97bd f770 10c0
00000330: ee1a 17c0 925b 553d f86e 7bbe b062 22c0
00000340: d78f 6c3d f426 b6bf 43d6 51c0 781e 2fbf
00000350: 4ac3 c1bf c72d 4a40 44a2 19bf 7706 31c0
00000360: 3936 93bf a936 5540 448d 89be 678e 2fc0
00000370: 8557 69be 7c9b b1bf 5c93 6740 0735 ec3c
00000380: 944d 41bf e444 8ebf 1af8 50be 3223 0140
00000390: 3559 87bf 8222 63c0 2fed 8840 6925 6d3f
000003a0: 6e4e 91bf 447d 9a3f b495 873f d5a4 0f40
000003b0: f95c 94bb 0ffd 9abf dacc 4cc0 9116 aebf
000003c0: 2e62 d6bf 0db6 9dbf 3698 4d40 0903 9d3d
000003d0: 3ade d1bf 2cf0 29bf 56a3 20c0 8b0f c440
000003e0: 6808 4e40 f172 eb3f eee7 453f 0480 58bf
000003f0: 559a babf 98ff dc3e dbc2 13bd 7a5b f13f
-1.4078181 2.4706013 -0.22787948 -1.0842956 -0.7481369 -0.56367636 -1.7019743 -6.048472
1.3410437 1.8580076 -1.4939713 1.6470714 5.141286 -1.8573363 -1.8548532 -0.13439496
-1.5101146 -0.047432072 -2.5596294 -2.5516078 1.5100553 -1.9276446 -0.85631967 -1.6279482
-0.8216313 1.5287015 -0.1891551 1.5510136 -2.4434085 1.5975329 -1.2778543 -3.9618328
-0.05105711 -0.5031548 0.000811761 -0.05760585 -4.299652 -3.696075 -0.013341796 2.8382258
1.0461687 -2.1226726 -2.703255 2.3840525 -3.2142885 0.0152656725 0.02156413 -0.22960103
-0.4519702 0.8026024 -1.4715129 -0.2603965 -2.6324496 1.6548944 -2.9945362 1.0403428
1.3819762 0.04726834 -5.6635995 0.005278335 -1.9486026 0.0014600888 -1.2862843 -2.6317437
3.7635388 0.096766576 1.351315 0.028639343 1.8275926 -0.047572326 0.25385144 -3.0430431
-0.50973564 -1.6257192 0.058879476 -3.376367 -2.8198373 0.074898556 -1.7005389 -2.263617
0.06990546 -2.5626588 -2.7266972 -0.34914747 -1.3712488 3.0228627 -1.7018499 -2.1095624
-1.0347252 4.0566244 -0.23864079 -4.7968564 -1.5830361 -2.412078 2.9415557 -0.018789437
-0.6917244 -0.8335221 -0.18150945 1.3221183 -0.9308369 -3.5285976 3.981668 0.8879001
-1.313332 2.9259837 1.2440441 1.2594432 0.036251154 -0.84474593 -3.1998134 -1.8647841
-2.2244117 -1.0632737 4.009576 0.06493343 -1.486423 -0.20484091 -3.435326 4.129229
3.4777534 1.9742397 0.9843933 -0.88080865 -1.5160508 0.32365194 0.0040794564 1.9501704
-0.81817937 2.3982468 -0.90755475 -1.7496691 -0.68584746 -0.5365246 -2.4178205 -7.12533
1.5683818 1.5511903 -1.1537417 1.5828233 3.234514 -1.7361604 -5.280283 -0.08661273
-1.5332389 -0.04508109 -2.3171904 -2.4641259 1.4729562 -2.272069 -0.8068091 -2.1534827
-0.44573998 1.6269732 0.22186983 1.3767334 -1.6794626 1.6498989 -1.9385021 -3.639941
-0.004877106 -0.18270533 -0.0023319144 -0.029534243 -4.2561007 -2.9421854 0.006794935 3.58612
0.9841137 -1.0283781 -3.3030365 2.769714 -3.2449334 -0.038154863 0.072859816 -1.0883235
-0.3967837 0.7742538 -1.5216635 0.1578757 -0.75185794 1.5768135 -1.5383935 1.0704445
1.2003859 0.039988432 -3.8289635 -0.024563812 -2.6914787 0.008628479 -1.351957 -2.543517
4.6308017 0.111828096 1.319332 -0.04945148 1.8624756 0.0783572 0.39335316 -2.2143476
-1.676609 -1.543794 -0.0741728 -2.2568948 -2.3610187 0.05208928 -0.2455405 -2.5372734
0.057754364 -1.4230638 -3.2787025 -0.68405867 -1.5137722 3.159044 -0.6001322 -2.7660196
-1.1500922 3.3314612 -0.2686559 -2.7430665 -0.22787292 -1.3875575 3.618369 0.02883388
-0.75509 -1.1114774 -0.20407143 2.0177732 -1.0574099 -3.5489812 4.278953 0.9263521
-1.135206 1.2069478 1.0592561 2.2444355 -0.0045276848 -1.2108477 -3.2000031 -1.3600637
-1.6748712 -1.2321182 3.2124152 0.076665945 -1.6395943 -0.663821 -2.5099692 6.1268973
3.219263 1.8394452 0.7730702 -0.84570336 -1.4578348 0.43163753 -0.0360745 1.8856041

net.4.bias f4 [4]
00000000: 54a4 a33e ebfb a13e a7f9 ef3e 83c5 e73d
0.3196131 0.3163751 0.46870157 0.11316969
